best_neural_model.pth (torch, 440300 bytes, 6 tensors)

fc1.weight f4 [128, 784]
0.04878178 -0.021641161 -0.036226653 -0.0308897 -0.06509463 -0.033692665 -0.0013637857 0.014510409
0.041130014 0.08630075 0.010506958 0.010316012 0.101129934 0.052620776 0.05293265 0.0548508
-0.062232666 0.0052263276 -0.040325146 0.050021194 -0.021708548 -0.04325532 -0.073655926 0.006477642
-0.06866679 -0.056081258 0.00032654245 0.01788758 -0.031566855 0.01264052 0.11305426 0.043692753
-0.024571657 -0.027961077 -0.052545346 -0.079307355 0.065421306 -0.1137066 0.017295001 0.028125558
-0.042062484 -0.024837574 0.008437994 -0.029225517 0.048480313 0.0040445444 0.02820916 -0.049628705
0.027726376 -0.045119114 -0.03175456 0.0023696716 0.049938634 -0.03704159 -0.053568024 -0.08618758
0.03939209 0.0050145863 0.013403816 -0.01817404 0.012105938 0.051160607 0.08772379 -0.0039110724
-0.06044729 0.004310015 -0.043690104 0.10975153 0.084354885 0.007776542 0.08771332 0.018913386
-0.08634626 -0.009623161 0.028397216 -0.033661433 0.07483089 -0.071820624 0.011269475 -0.011557727
0.044883836 0.04679491 -0.02177632 -0.03899603 0.00682295 0.03832187 -0.008150366 -0.0025317091
0.036120802 0.016161704 -0.06693196 -0.015138959 0.0015968754 -0.13298406 0.048336644 0.037855916
0.026585259 0.13166836 -0.04033201 0.086587004 -0.08098501 -0.018174347 0.00019747464 0.009104027
0.032247163 -0.07587693 0.04956889 -0.025892975 -0.0082296785 0.015281805 0.0008657767 0.0052832873
-0.01725827 0.055189006 0.030473161 0.03515817 -0.046481155 -0.029013917 0.089380436 -0.074385226
-0.0315511 0.0105494475 0.010379184 0.09043602 -0.001887929 0.02078086 -0.013729355 0.0814898
-0.014734849 0.08465329 0.0006117323 0.018262712 0.06507462 0.030785557 -0.051111814 -0.01371596
-0.0607632 -0.041161533 -0.06352444 0.035251264 0.010188255 -0.061220583 -0.010843799 -0.086502284
-0.020279564 -0.014256282 0.017540652 -0.0055378582 -0.08086519 -0.047322027 -0.019331668 -0.0086393645
-0.06699412 -0.062485512 -0.054002557 -0.059595585 0.078359775 -0.044568688 -0.021848489 0.052276816
0.024779808 -0.0399728 0.11310449 0.09298565 0.044374254 -0.040565982 -0.08037503 -0.010699637
0.07916241 -0.09338677 0.048310846 0.06410074 0.011993963 -0.01892584 -0.11472224 -0.041651245
0.072131634 -0.05797005 0.0053235255 -0.13945259 -0.041042544 -0.07892319 -0.13084641 -0.08577806
0.035867378 0.18584631 0.010794049 0.0042166784 0.042608727 0.05799725 0.016384663 -0.037452605
0.044962298 0.032759607 0.052332584 -0.018776856 0.089461416 -0.0965092 0.024872433 0.010605984
0.043004435 0.0905254 -0.08099912 -0.06498948 0.043266404 -0.054199934 -0.01856968 -0.10445076
-0.048530024 -0.07692362 -0.12371524 -0.029289922 -0.036217526 -0.01746552 0.053850684 -0.016960176
0.0020334 0.010606129 -0.017342566 0.07355413 -0.013698584 0.072233155 -0.0023431326 0.07397012
-0.052604534 -0.019113185 -0.03152978 0.013134968 -0.02621831 -0.030204566 0.027825488 -0.0942476
0.02242358 -0.07101188 0.024091436 0.028612029 -0.042856883 -0.022449441 0.026927195 -0.032497466
0.032119554 0.059660897 0.003576973 0.06174552 -0.012379888 0.056346428 0.0054110046 -0.016255477
-0.040731527 0.06507122 0.020398548 -0.04573593 -0.04883918 0.037156194 -0.045266606 0.06808791
00000000: 67cf 473d ce48 b1bc 6662 14bd 650c fdbc
00000010: 5550 85bd 5201 0abd 0ec1 b2ba 11bd 6d3c
00000020: f277 283d 73be b03d 6025 2c3c 7e04 293c
00000030: 361d cf3d e288 573d e8cf 583d 3cab 603d
00000040: aee7 7ebd 9d41 ab3b fb2b 25bd 06e3 4c3d
00000050: 20d6 b1bc 7e2c 31bd ebd8 96bd 6642 d43b
00000060: 2da1 8cbd 76b5 65bd c933 ab39 f988 923c
00000070: 3f4c 01bd 2f1a 4f3c fe88 e73d 2cf7 323d
00000080: 804a c9bc a10e e5bc ca39 57bd e56b a2bd
00000090: 9bfb 853d 02df e8bd 3fae 8d3c 9267 e63c
000000a0: b649 2cbd 2b78 cbbc 833f 0a3c 5a6a efbc
000000b0: 4b93 463d 1988 843b e516 e73c 7847 4bbd
000000c0: 6d22 e33c d2ce 38bd 1211 02bd 7e4c 1b3b
000000d0: 748c 4c3d ecb8 17bd 256a 5bbd 1d83 b0bd
000000e0: 9a59 213d 6651 a43b ae9b 5b3c b9e1 94bc
000000f0: fc57 463c c98d 513d 88a8 b33d 7428 80bb
00000100: 9497 77bd 073b 8d3b 65f4 32bd 69c5 e03d
00000110: 41c2 ac3d 5dd2 fe3b 0ba3 b33d 3ff0 9a3c
00000120: 4fd6 b0bd 76aa 1dbc 47a1 e83c 92e0 09bd
00000130: f040 993d b116 93bd 9ba3 383c 9f5c 3dbc
00000140: 1dd8 373d 05ac 3f3d 4164 b2bc 4dba 1fbd
00000150: 0e93 df3b 65f7 1c3d 1d89 05bc 08eb 25bb
00000160: 68f3 133d 8d65 843c a013 89bd 6509 78bc
00000170: 3f4e d13a f92c 08be a5fc 453d ce0e 1b3d
00000180: 54c9 d93c 12d4 063e 2d33 25bd 8754 b13d
00000190: 78db a5bd 5ee2 94bc 3211 4f39 0f29 153c
000001a0: 9a15 043d 5d65 9bbd c008 4b3d 811d d4bc
000001b0: c6d5 06bc 8960 7a3c 4af5 623a 6d1f ad3b
000001c0: 3761 8dbc de0d 623d daa2 f93c 0302 103d
000001d0: 0663 3ebd 98ae edbc 170d b73d 4857 98bd
000001e0: ba3b 01bd 97d7 2c3c 740d 2a3c 8536 b93d
000001f0: 6374 f7ba 9f3c aa3c 17f1 60bc 20e4 a63d
00000200: 706a 71bc b45e ad3d a95c 203a af9b 953c
00000210: d845 853d fe31 fc3c 9f5a 51bd e8b8 60bc
00000220: d5e2 78bd ff98 28bd 1a19 82bd a163 103d
00000230: a4ec 263c 6fc2 7abd 31aa 31bc 1c28 b1bd
00000240: 5421 a6bc 2e93 69bc 6ab1 8f3c ec76 b5bb
00000250: a69c a5bd bed4 41bd 725d 9ebc 1f8c 0dbc
00000260: 3734 89bd cff0 7fbd c931 5dbd 801a 74bd
00000270: 177b a03d a88d 36bd 9afb b2bc 3720 563d
00000280: 06ff ca3c 85ba 23bd 54a3 e73d 436f be3d
00000290: c7c1 353d 8428 26bd aa9b a4bd 884d 2fbc
000002a0: e71f a23d 9041 bfbd 98e1 453d 4047 833d
000002b0: 5482 443c 5d0a 9bbc 7ef3 eabd 7f9a 2abd
000002c0: c0b9 933d 0172 6dbd f870 ae3b a9cc 0ebe
000002d0: 3a1c 28bd 7ba2 a1bd 9afc 05be 68ac afbd
000002e0: ace9 123d 7f4e 3e3e 86d9 303c 102c 8a3b
000002f0: 7d86 2e3d 868e 6d3d 2139 863c e767 19bd
00000300: 632a 383d f02e 063d b15a 563d ecd1 99bc
00000310: 8c37 b73d 9ea6 c5bd 46c1 cb3c b9c4 2d3c
00000320: 6b25 303d 6265 b93d dee2 a5bd 3419 85bd
00000330: 1d38 313d c000 5ebd 711f 98bc 48ea d5bd
00000340: 6bc7 46bd 228a 9dbd 6a5e fdbd 6bf1 efbc
00000350: d458 14bd da13 8fbc 8992 5c3d 11f0 8abc
00000360: ca42 053b 54c5 2d3c ff11 8ebc 8ca3 963d
00000370: 0770 60bc faee 933d 3e8f 19bb a57d 973d
00000380: da77 57bd 4193 9cbc 5f25 01bd 0c34 573c
00000390: c8c7 d6bc 916f f7bc 47f2 e33c e304 c1bd
000003a0: a8b1 b73c ad6e 91bd 675b c53c c663 ea3c
000003b0: b38a 2fbd e4e7 b7bc 6c96 dc3c 101c 05bd
000003c0: cb8f 033d fc5e 743d a66b 6a3b dfe8 7c3d
000003d0: 04d5 4abc 83cb 663d cc4e b13b 352a 85bc
000003e0: 1ad6 26bd 0f44 853d db1a a73c 9955 3bbd
000003f0: 980b 48bd 1831 183d 7a69 39bd ad71 8b3d

fc1.bias f4 [128]
0.012171796 0.00918329 -0.012621549 0.032753915 0.05400686 0.100656025 0.017719895 0.05442362
-0.06695264 -0.0819398 0.06390807 0.015802573 -0.04148573 0.09653058 0.0012645131 0.012367413
-0.009002288 -0.031589735 0.0859353 0.02756614 0.005969617 0.0439639 0.045158803 0.016449109
0.011132187 0.03739117 0.050374757 -0.0033588917 -0.027045827 -0.006781331 0.06411616 0.008805238
-0.012315898 0.014620422 -0.03636786 0.0411649 0.018211104 -0.01614035 0.054890953 -0.015580622
0.053334747 0.04599389 0.006170387 0.02510979 0.014277073 0.0068681 0.031212877 0.01201055
-0.03584875 0.049493432 0.049561977 -0.0019547006 -0.014628782 -0.007441832 0.032731168 -0.022310425
0.05781536 0.0069989627 -0.012623968 0.03197807 0.015252934 0.03563816 -0.010502792 0.014098403
0.019387385 -0.014311729 -0.0037547187 -0.05635276 0.07331242 -0.008004961 -0.003329564 -0.036637645
-0.02651368 0.0833064 0.051429577 0.0009894809 -0.009240489 0.0032661266 0.018734908 0.019357087
-0.042343345 0.0360288 -0.017695969 0.08263061 0.052150358 0.04460738 0.07254905 0.0013216638
0.0914853 0.045689676 0.037073128 0.06276203 -0.014431207 -0.021204391 0.03749532 -0.027762616
0.045611553 0.056639902 0.07355376 -0.002674489 -0.014102493 0.13059956 -0.035431657 -0.005135418
0.02329142 0.029974911 0.044803552 0.039342996 -0.004522071 0.025797352 0.021958089 -0.0058846236
-0.00944718 -0.023024546 0.018190565 0.0041535567 0.036838997 -0.048042335 0.018623477 -0.012498562
-0.005610776 0.04108429 0.022726767 0.018591717 0.022516767 0.06998533 0.0515386 -0.0075530214
00000000: 366c 473c 8375 163c 9dca 4ebc f828 063d
00000010: 4c36 5d3d bf24 ce3d 5029 913c 4deb 5e3d
00000020: 771e 89bd 0ed0 a7bd 3ce2 823d 6674 813c
00000030: f1ec 29bd d3b1 c53d 05be a53a b1a0 4a3c
00000040: 557e 13bc 3d64 01bd d9fe af3d 63d2 e13c
00000050: c79c c33b 7e13 343d 70f8 383d 48c0 863c
00000060: c763 363c 7c27 193d c355 4e3d da20 5cbb
00000070: 368f ddbc ed35 debb 554f 833d d843 103c
00000080: 9fc8 49bc 7f8a 6f3c 77f6 14bd 879c 283d
00000090: 742f 953c c438 84bc 56d5 603d dd45 7fbc
000000a0: 8975 5a3d 1764 3c3d f530 ca3b 0cb3 cd3c
000000b0: 62ea 693c cc0d e13b 26b2 ff3c e6c7 443c
000000c0: 24d6 12bd a0b9 4a3d 8001 4b3d 6f1a 00bb
000000d0: 8fad 6fbc 9dda f3bb 1e11 063d 5ac4 b6bc
000000e0: cdcf 6c3d 8e57 e53b c2d4 4ebc 70fb 023d
000000f0: 71e7 793c 52f9 113d e713 2cbc fdfc 663c
00000100: 4bd2 9e3c be7b 6abc ba11 76bb 27d2 66bd
00000110: d224 963d 3d27 03bc d034 5abb 5b11 16bd
00000120: 3833 d9bc 8c9c aa3d d2a7 523d 78b1 813a
00000130: 6c65 17bc 830c 563b f379 993c c192 9e3c
00000140: 3770 2dbd ef92 133d 23f7 90bc 3d3a a93d
00000150: 9d9b 553d 3ab6 363d 9994 943d ae3b ad3a
00000160: a55c bb3d 1925 3b3d fed9 173d 6189 803d
00000170: df70 6cbc d5b4 adbc b194 193d 6d6e e3bc
00000180: 2ed3 3a3d 3eff 673d 5ba3 963d 7b46 2fbb
00000190: 250e 67bc e4bb 053e c920 11bd 0247 a8bb
000001a0: a6cd be3c f28d f53c ee83 373d 1f26 213d
000001b0: e22d 94bb f854 d33c 73e1 b33c cdd3 c0bb
000001c0: 58c8 1abc f99d bcbc 6104 953c 8f1a 883b
000001d0: 7de4 163d 0ac8 44bd 4390 983c c5c6 4cbc
000001e0: 9ada b7bb 0048 283d 7c2d ba3c a84d 983c
000001f0: 1575 b83c 7854 8f3d 241a 533d 567f f7bb

fc2.weight f4 [64, 128]
-0.12878391 0.1683425 -0.03496919 -0.026283553 0.14074817 0.30387717 0.08322168 0.26846644
-0.078722775 0.031451054 -0.06580663 0.16796923 0.0377263 -0.08929348 0.13575053 0.22237313
0.0830691 -0.09346824 -0.07577849 -0.13378894 0.077965416 -0.05777529 -0.06331748 0.10259962
0.17752206 0.19480933 0.045983627 -0.2814366 0.047156055 0.025290975 0.09612813 -0.2535026
-0.057736352 0.1024447 -0.070063695 0.0069632316 0.0051756497 0.18374982 0.115583606 -0.120801084
0.10054413 -0.16126896 -0.20841163 0.014404239 -0.38757154 0.15572073 0.00799432 0.17129667
-0.42298633 0.042632867 0.057218563 -0.013337917 -0.13467577 0.0635934 0.0016721124 -0.19080995
0.08960308 -0.13185507 -0.082098514 0.16142906 -0.3056487 0.056358717 -0.0216052 -0.051233467
0.11779317 0.16046825 -0.09963995 -0.24551673 0.40941316 -0.19840555 -0.19266912 -0.19028327
-0.18776742 -0.31139457 -0.25359163 -0.18346372 -0.035650726 0.16776034 0.17194963 0.15742557
0.14073929 0.0805179 -0.024786431 0.22802314 -0.038028054 0.15949099 -0.07411358 0.25287992
0.001533471 0.2883538 -0.0012904364 0.5606822 0.009599448 0.040435072 -0.2190908 -0.040251605
0.0012514065 0.04870331 0.14084306 -0.10770478 0.1578297 0.041212063 0.039177112 0.0017916516
0.07268272 0.029131161 0.043274343 -0.017935496 0.091315135 0.30920964 -0.40769947 0.19772759
-0.09665256 0.04074426 -0.23751669 0.08501646 0.021837106 0.13594568 0.19915588 -0.057363763
-0.10872327 0.18034676 -0.12101977 -0.060213573 0.30492547 0.042931844 -0.08266395 -0.47410327
0.43177468 0.04669991 0.1869174 -0.15082942 -0.34163558 -0.08853428 0.20501192 -0.2461823
-0.16108108 0.018615877 -0.18142706 0.21883298 -0.12429878 0.2805607 0.10431068 0.063704185
0.24629155 -0.02550928 0.06449373 -0.1270715 0.004823328 0.21424463 0.27573505 0.09547382
0.21731053 0.02924332 0.04412468 -0.020694101 -0.09317894 -0.1350227 0.043736305 -0.100396484
-0.056844484 0.32559857 0.03230263 -0.10426129 -0.08914881 0.35313064 0.44665635 -0.07652979
0.1615276 -0.048095867 -0.023706071 0.17896265 0.017880568 -0.14722982 -0.10564076 -0.023559181
-0.23704618 0.038461536 -0.05850265 0.045791272 0.18637785 0.0069329054 0.19816513 -0.287311
0.08159398 -0.015937742 0.029909471 -0.08426045 0.11987258 -0.10064547 0.1254861 -0.1343769
-0.2025904 -0.1551329 -0.006130413 0.07247968 0.24178664 0.17548752 0.18633111 -0.023966683
-0.16149524 0.2470481 0.047487233 -0.048285093 -0.018908687 0.017322801 0.467292 0.18114823
0.39281613 -0.10381162 -0.20619875 0.13182646 0.3784393 -0.028526347 0.30647755 0.14669172
0.0017778644 -0.078856386 -0.218114 -0.13241157 -0.11891913 0.058827132 0.014518102 -0.32760796
-0.08632642 0.16824391 -0.11438886 0.017339094 0.15035954 -0.2488052 0.10883417 -0.031676866
0.119495615 0.1099418 0.005460009 0.15457796 0.13254839 0.23846926 -0.26278988 -0.041163474
0.021026565 0.1641394 0.24180062 -0.09433037 0.13110334 0.08330489 0.20374858 0.20783266
0.003565754 0.26704782 0.27349168 0.05481771 0.067838594 0.19937815 -0.1638858 0.13361049
00000000: eedf 03be fa61 2c3e da3b 0fbd 9b50 d7bc
00000010: 4a20 103e ca95 9b3e 2170 aa3d 6f74 893e
00000020: 6839 a1bd d2d2 003d a0c5 86bd 2000 2c3e
00000030: e586 1a3d 80df b6bd 3002 0b3e c8b5 633e
00000040: 2220 aa3d 476c bfbd c131 9bbd f8ff 08be
00000050: 55ac 9f3d c8a5 6cbd 98ac 81bd c01f d23d
00000060: 58c8 353e 197c 473e 5459 3c3d 7518 90be
00000070: b526 413d 052f cf3c d3de c43d 18cb 81be
00000080: f47c 6cbd 87ce d13d 8e7d 8fbd d22b e43b
00000090: 7f98 a93b ea28 3c3e 19b7 ec3d 8f66 f7bd
000000a0: 15ea cd3d b123 25be dc69 55be c2ff 6b3c
000000b0: c76f c6be 4175 1f3e 9cfa 023c 6568 2f3e
000000c0: aa91 d8be cd9f 2e3d 035e 6a3d 4787 5abc
000000d0: 72e8 09be 423d 823d c82a db3a af63 43be
000000e0: d281 b73d 0405 07be 4423 a8bd a94d 253e
000000f0: fd7d 9cbe 66d8 663d 63fd b0bc 2fda 51bd
00000100: 8c3d f13d ca51 243e 0810 ccbd bd68 7bbe
00000110: 9a9e d13e d32a 4bbe 0e4b 45be 9ed9 42be
00000120: 1a46 40be 1c6f 9fbe c3d6 81be eadd 3bbe
00000130: 7f06 12bd 5ec9 2b3e 9013 303e 2b34 213e
00000140: f61d 103e 92e6 a43d ea0c cbbc e67e 693e
00000150: 4ec3 1bbd 9b51 233e dcc8 97bd 7a79 813e
00000160: c0fe c83a 1ca3 933e dc23 a9ba de88 0f3f
00000170: 0147 1d3c 3f9f 253d 5759 60be dede 24bd
00000180: 3c06 a43a 1f7d 473d 2a39 103e 5394 dcbd
00000190: 1c9e 213e fbcd 283d 2e78 203d dad5 ea3a
000001a0: aeda 943d 79a4 ee3c 7040 313d 76ed 92bc
000001b0: 6e03 bb3d ba50 9e3e fcbd d0be 1a79 4a3e
000001c0: c7f1 c5bd 74e3 263d 9337 73be 1c1d ae3d
000001d0: bbe3 b23c 5835 0b3e 85ef 4b3e 44f6 6abd
000001e0: 4eaa debd d2ac 383e 37d9 f7bd 82a2 76bd
000001f0: 311f 9c3e 4dd9 2f3d b84b a9bd aabd f2be
00000200: 9211 dd3e 6848 3f3d 4667 3f3e 0773 1abe
00000210: dcea aebe 7651 b5bd a5ee 513e 3617 7cbe
00000220: 70f2 24be 5380 983c 04c8 39be c115 603e
00000230: 5c90 febd a7a5 8f3e d6a0 d53d 5777 823d
00000240: da33 7c3e d6f8 d0bc 4a15 843d 081f 02be
00000250: 020d 9e3b f262 5b3e 252d 8d3e c787 c33d
00000260: a786 5e3e b08f ef3c 15bc 343d ad86 a9bc
00000270: 9ad4 bebd 6443 0abe d724 333d ac9c cdbd
00000280: c3d5 68bd dbb4 a63e c34f 043d f186 d5bd
00000290: a793 b6bd 8acd b43e 24b0 e43e a7bb 9cbd
000002a0: 7e67 253e 2c00 45bd 3c33 c2bc fc41 373e
000002b0: 457a 923c 6ac3 16be 2f5a d8bd 2fff c0bc
000002c0: 3cbc 72be d889 1d3d 7aa0 6fbd a18f 3b3d
000002d0: d6d9 3e3e 6d2d e33b cdeb 4a3e 6d1a 93be
000002e0: bf1a a73d de8f 82bc b504 f53c be90 acbd
000002f0: c17f f53d 361f cebd 6e7f 003e 199a 09be
00000300: dc73 4fbe 29db 1ebe a2e1 c8bb 3a70 943d
00000310: eb96 773e 00b3 333e 95cd 3e3e c755 c4bc
00000320: 025f 25be 2dfa 7c3e f981 423d 97c6 45bd
00000330: 64e6 9abc 8ce8 8d3c e640 ef3e ec7e 393e
00000340: 321f c93e 309b d4bd c425 53be 84fd 063e
00000350: ccc2 c13e 16b0 e9bc a0ea 9c3e 5b36 163e
00000360: 3b07 e93a 757f a1bd 4759 5fbe e696 07be
00000370: df8b f3bd b8f4 703d 55dd 6d3c 3bbc a7be
00000380: e8cb b0bd 2248 2c3e b544 eabd b70a 8e3c
00000390: daf7 193e cac6 7ebe 73e4 de3d 9abf 01bd
000003a0: 1eba f43d 2b29 e13d e0e9 b23b af49 1e3e
000003b0: c4ba 073e 4931 743e 658c 86be 089b 28bd
000003c0: e73f ac3c 2914 283e 959a 773e 4830 c1bd
000003d0: f43f 063e c19b aa3d 78a3 503e 16d2 543e
000003e0: 6daf 693b 7eba 883e 1a07 8c3e 8988 603d
000003f0: f6ee 8a3d c929 4c3e aed1 27be 30d1 083e

fc2.bias f4 [64]
0.032403275 0.015895896 0.015056041 0.015162843 0.0022877303 0.038785588 0.017063577 -0.021976272
0.03158064 0.01893909 -0.0022390673 0.042450882 -0.008478843 -0.01643997 0.011578924 -0.0040927883
-0.001174673 0.0060320213 0.04600043 0.0033252982 0.0098167015 -0.029998003 -0.0018585309 -0.0033617925
0.021036299 0.012340646 -0.0015905211 0.048483588 0.05038386 0.0377852 0.052395172 -0.014731172
0.07151598 0.06393143 0.045103073 0.11896083 -0.01002052 0.010166755 0.014080726 0.00012598114
0.0076056137 -0.00062638737 0.017962294 0.018484978 0.0048008086 -0.053124912 0.014508064 -0.012009783
0.07978674 0.037003838 0.046843976 0.0022902284 0.028553609 0.019935966 0.024389025 0.02363077
0.029621068 0.00020983392 0.047546655 0.029881665 0.08016663 -0.011469199 0.050258905 0.019407718
00000000: 4cb9 043d 1c38 823c 9dad 763c 936d 783c
00000010: bfed 153b a3dd 1e3d eac8 8b3c 9507 b4bc
00000020: b35a 013d 2726 9b3c 51bd 12bb fae0 2d3d
00000030: d8ea 0abc 1ead 86bc 87b5 3d3c cc1c 86bb
00000040: 7cf7 99ba 43a8 c53b f26a 3c3d 3fed 593b
00000050: 3bd6 203c 5fbe f5bc f399 f3ba 8551 5cbb
00000060: 5154 ac3c 6c30 4a3c 0879 d0ba ba96 463d
00000070: 4e5f 4e3d a7c4 1a3d 529c 563d 035b 71bc
00000080: f876 923d 7bee 823d 00be 383d bca1 f33d
00000090: 1b2d 24bc 7692 263c d8b2 663c ce19 0439
000000a0: 8338 f93b 2534 24ba a925 933c cf6d 973c
000000b0: 1a50 9d3b 8299 59bd 3bb3 6d3c aec4 44bc
000000c0: 3b67 a33d 5691 173d 78df 3f3d a817 163b
000000d0: 42e9 e93c c050 a33c 7ecb c73c 5195 c13c
000000e0: e2a7 f23c dd06 5c39 48c0 423d 65ca f43c
000000f0: 672e a43d 4fe9 3bbc 48dc 4d3d effc 9e3c

fc3.weight f4 [10, 64]
0.050620805 -0.31980303 -0.22585127 0.043023944 0.13979629 -0.10200564 0.09516978 0.239804
-0.50811094 0.0755408 0.66430277 0.19479531 0.44885963 0.22073142 -0.13396958 -0.019999985
-0.421883 0.37720037 0.1594618 0.031037983 -0.18392535 0.2854174 0.19621529 0.1862231
-0.17809688 0.32835957 -0.10225334 -0.5619299 -0.4289399 0.31820184 0.27170828 -0.014798987
0.62401557 -0.1471434 -0.22264878 -0.6622548 0.009923237 0.0560663 -0.04062173 0.024040742
-0.048667643 0.06498118 0.22737743 -0.43917942 -0.25496337 0.61784434 -0.032629307 -0.019631773
-0.19127059 -0.011294404 -0.15877251 0.31230482 -0.1687092 0.01721912 -0.2623986 -0.08279649
-0.20587267 0.263395 0.071326 0.16955182 -0.42986104 0.2076644 0.23360115 0.19928105
-0.072370544 0.46805507 0.38682407 -0.13317685 -0.1463128 0.09726552 0.19444099 -0.40330154
-0.08596951 0.33156434 0.5262811 0.024448076 0.27301127 -0.25622335 -0.09746815 0.27651656
0.0737134 0.026664434 0.053911082 -0.07766283 -0.056927904 -0.028088396 -0.2703715 0.092017144
0.12947172 0.18580765 0.37566048 -0.2647022 0.0131066395 -0.6096775 0.16681756 0.0853123
-0.7389063 0.07183333 -0.72483236 0.83831155 -0.11645744 -0.04066623 0.06514407 0.053390026
-0.121328026 -0.053965762 0.43098903 0.03656973 -0.5920843 -0.13757949 -0.33867505 -0.10690706
-0.49474534 0.2963058 0.2508752 0.19756703 -0.14208448 -0.2143242 -0.09403164 -0.17752697
0.17575726 0.17106904 -0.212488 0.026120352 0.27741262 -0.049068015 0.21093507 0.22124514
-0.14164735 0.80594414 0.10288417 0.019477403 0.27339503 -0.14919597 0.6463615 -0.19979
0.74731404 0.10671862 -0.26574096 0.27320895 0.23646332 -0.002641643 -0.27862668 -0.4462877
0.31737256 -0.012158103 0.24718952 0.3883276 -0.111897565 0.4178286 -0.35592976 0.28630227
0.35641468 0.03209529 0.3779948 0.0600342 0.15945512 0.27126268 0.39854968 0.14290112
-0.092345975 -0.52166826 0.35086802 -0.26918867 -0.19232883 0.19941352 0.0395883 0.18084419
-0.100650586 -0.049116828 -0.30151808 -0.12561558 0.117319874 0.57356596 -0.43870246 -0.24596252
0.6216425 -0.20079754 -0.57076335 0.17792402 0.5933114 0.5120847 -0.32763144 0.3064214
-0.70360893 0.09872489 0.027180837 -0.31152788 -0.5243063 0.15385945 -0.036045693 0.07139177
-0.4248098 0.12080436 0.032240123 0.13341889 0.1870929 -0.6217126 0.14126827 -0.21502155
0.023987567 -0.06090851 0.30212808 -0.15305272 -0.089894146 -0.1336741 -0.06610293 -0.015518207
0.14510958 -0.02666525 0.10539206 0.5635358 -0.5083787 0.43755645 -0.19656613 -0.028851258
-0.047764286 0.065841235 -0.07308893 -0.042179544 0.16317233 0.011749855 0.11889827 0.43318924
-0.4845436 -0.057858042 0.4241514 -0.21581897 -0.25814426 0.1723508 0.17425206 0.063116536
0.17055094 0.0665616 -0.27971858 0.80858546 0.04210474 -0.059848975 0.5194771 0.07136009
-0.3594609 -0.41764116 -0.13837388 0.14478658 0.13435355 0.44107956 0.111756444 -0.4599946
0.54043084 0.32362333 0.073980965 0.57374454 0.2911452 0.39086428 -0.36365297 -0.5633312
00000000: c357 4f3d 39bd a3be 8e45 67be e039 303d
00000010: c226 0f3e 55e8 d0bd 60e8 c23d 2e8f 753e
00000020: 8f13 02bf 23b5 9a3d bf0f 2a3f 6c78 473e
00000030: eed0 e53e 6b07 623e 522f 09be 02d7 a3bc
00000040: 0c01 d8be 6820 c13e f449 233e 5e43 fe3c
00000050: ed56 3cbe 3b22 923e a9ec 483e 45b1 3e3e
00000060: 075f 36be bf1e a83e 336a d1bd a3da 0fbf
00000070: 039e dbbe 5aeb a23e 591d 8b3e 7377 72bc
00000080: 7cbf 1f3f c2ac 16be 0bfe 63be 8889 29bf
00000090: 1395 223c c7a5 653d f962 26bd 17f1 c43c
000000a0: b957 47bd da14 853d a1d5 683e 20dc e0be
000000b0: 8f8a 82be 0c2b 1e3f 4fa6 05bd d0d2 a0bc
000000c0: 70dc 43be 2a0c 39bc 4395 22be 6be6 9f3e
000000d0: 1bc2 2cbe 1d0f 8d3c 1c59 86be 3591 a9bd
000000e0: 49d0 52be b6db 863e 5e13 923d fe9e 2d3e
000000f0: bf16 dcbe faa5 543e 2435 6f3e 5510 4c3e
00000100: 0237 94bd eaa4 ef3e ce0d c63e 835f 08be
00000110: 06d3 15be 2533 c73d 8a1b 473e 8a7d cebe
00000120: c810 b0bd cdc2 a93e 5cba 063f 5547 c83c
00000130: 22c8 8b3e b52f 83be 629d c7bd 9493 8d3e
00000140: 0df7 963d 5f6f da3c ded1 5c3d b10d 9fbd
00000150: 3c2d 69bd a319 e6bc 226e 8abe 7c73 bc3d
00000160: 3c94 043e 5c44 3e3e 9256 c03e 0c87 87be
00000170: 3bbd 563c d313 1cbf 39d2 2a3e 37b8 ae3d
00000180: f728 3dbf 5a1d 933d 9d8e 39bf 969b 563f
00000190: 3d81 eebd a291 26bd 416a 853d 80af 5a3d
000001a0: d47a f8bd 340b 5dbd 98aa dc3e 24ca 153d
000001b0: d692 17bf a3e1 0cbe d166 adbe 17f2 dabd
000001c0: 434f fdbe 65b5 973e b772 803e 034f 4a3e
000001d0: 987e 11be ce77 5bbe a993 c0bd a1c9 35be
000001e0: b6f9 333e b92c 2f3e 7496 59be 59fa d53c
000001f0: 0709 8e3e 8bfb 48bd 5dff 573e 168e 623e
00000200: 010c 11be 5b52 4e3f f0b4 d23d 138f 9f3c
00000210: 6ffa 8b3e d4c6 18be f277 253f c095 4cbe
00000220: f94f 3f3f 4b8f da3d 330f 88be 0be2 8b3e
00000230: 7123 723e 6a1f 2dbb 28a8 8ebe d27f e4be
00000240: a87e a23e c832 47bc 401f 7d3e e0d2 c63e
00000250: 8d2a e5bd a1ed d53e 6d3c b6be 3696 923e
00000260: fc7b b63e 5a76 033d 8988 c13e 6ce6 753d
00000270: 3448 233e f1e2 8a3e b40e cc3e ac54 123e
00000280: e31f bdbd 0d8c 05bf f9a4 b33e 19d3 89be
00000290: d9f1 44be 0f33 4c3e 5727 223d 382f 393e
000002a0: e521 cebd ba2e 49bd 9460 9abe 5fa1 00be
000002b0: 6745 f03d 38d5 123f 9c9d e0be 99dd 7bbe
000002c0: f623 1f3f df9d 4dbe 8c1d 12bf b731 363e
000002d0: 42e3 173f fc17 033f 4fbf a7be 44e3 9c3e
000002e0: b71f 34bf 4630 ca3d 59aa de3c 9580 9fbe
000002f0: f038 06bf 558d 1d3e a6a4 13bd d935 923d
00000300: ac80 d9be 4768 f73d 380e 043d f69e 083e
00000310: 4895 3f3e 8f28 1fbf a1a8 103e 9c2e 5cbe
00000320: 9381 c43c 347b 79bd 88b0 9a3e dab9 1cbe
00000330: 6c1a b8bd dde1 08be f960 87bd 1440 7ebc
00000340: 9b97 143e 1571 dabc cbd7 d73d e243 103f
00000350: 1b25 02bf 6607 e03e a248 49be 7959 ecbc
00000360: 7ca4 43bd c5d7 863d a6af 95bd 75c4 2cbd
00000370: a616 273e 7782 403c f080 f33d fbca dd3e
00000380: 1916 f8be 8efc 6cbd 5f2a d93e a6ff 5cbe
00000390: 7c2b 84be ba7c 303e 226f 323e 3e43 813d
000003a0: e8a4 2e3e 7351 883d 4637 8fbe 75ff 4e3f
000003b0: 0576 2c3d 3324 75bd 74fc 043f 3d25 923d
000003c0: 420b b8be 10d5 d5be e2b1 0dbe ef42 143e
000003d0: fa93 093e 2ed5 e13e 90e0 e43d 6a84 ebbe
000003e0: ad59 0a3f f5b1 a53e 5583 973d ece0 123f
000003f0: fc10 953e 5d1f c83e b930 babe 7936 10bf

fc3.bias f4 [10]
-0.0717951 0.072059914 0.012849858 -0.020167321 0.051235307 0.024297051 0.011327803 0.07330802
-0.073852 -0.07926598
00000000: 4f09 93bd 2694 933d 3688 523c f035 a5bc
00000010: 1ddc 513d 9c0a c73c 4098 393c 8422 963d
00000020: b83f 97bd 3456 a2bd
