best_neural_model.pth (torch, 475884 bytes, 6 tensors)

fc1.weight f4 [128, 784]
000000 e5 79 50 3d f2 14 4e 3d 7c 04 2d bd f3 71 b2 3d
       0.050897498 0.050312944 -0.042240605 0.0871314
000010 80 8a 5f 3d 63 29 f4 bc ec 79 6b 3d 7e d3 d2 3c
       0.054575443 -0.029804891 0.05748932 0.025735613
000020 a2 41 82 bd 52 fc f1 3c f3 ec ae bc 17 5f 05 bc
       -0.06360175 0.029539261 -0.02135322 -0.008140347
000030 23 37 88 3c 18 62 29 3d 71 20 b0 3c c8 7f fe 3d
       0.016627854 0.041353315 0.021499844 0.12426716
000040 4a f5 8f 3d ea 10 d7 bc 98 93 1f 3d 7a a4 29 bd
       0.07029207 -0.026253182 0.038959116 -0.041416623
000050 95 d4 6e 3d b6 84 14 3d 06 48 84 3c 45 8c e0 3c
       0.058308203 0.036259376 0.016147625 0.027410636
000060 91 55 10 3d ca 79 2f 3d e5 ff db bb c5 9d fa 3c
       0.035237852 0.042840756 -0.0067138546 0.030592808
000070 c8 d6 58 3c 80 e3 e8 bc ff fd 83 bb d9 9a e3 bc
       0.013234802 -0.028428793 -0.0040280814 -0.027783798
000080 b3 43 d7 3c 17 99 c0 bc 82 93 f9 bc 1b 73 28 bd
       0.026277399 -0.023510499 -0.030465845 -0.041125398
000090 ac 7d 32 3b d5 98 99 3d d7 e4 6f bc 57 08 9e bb
       0.002723555 0.074998535 -0.014641962 -0.0048227715
0000a0 e5 87 67 bd 45 10 d4 3c e2 9b 49 bd 99 aa 02 bd
       -0.056526083 0.025886664 -0.049220927 -0.031900976
0000b0 0e 4a 47 3d 04 1c 2c bd 1f c6 fb 3c 46 b8 a1 3c
       0.04865461 -0.042018905 0.03073412 0.019741189
0000c0 14 17 08 bd 45 3f 36 bd 22 f5 db bb 13 ea 04 3d
       -0.033225134 -0.044493932 -0.0067125717 0.032449793
0000d0 6f 9a 65 3d 88 ae 03 bd 3b fe a6 bc 7e 31 31 bd
       0.056055482 -0.032148868 -0.020384898 -0.04326009
0000e0 5f 28 70 bd 30 a5 f3 3c 24 ac e6 3c 02 18 32 3d
       -0.05863225 0.029741853 0.028158255 0.043479927
0000f0 fb 6d 0b 3d 53 ad f4 3a c3 e1 e1 bc f1 0a dc 3c
       0.034040432 0.0018667377 -0.027573472 0.026860686
000100 06 52 d8 bc 0f 72 eb bc 39 bb e2 3c fe a4 d8 bc
       -0.0264063 -0.02874091 0.027677165 -0.026445862
000110 d7 23 96 3c ef 2f c7 bd 77 98 0b bd 49 5e 84 3c
       0.018327637 -0.097259395 -0.03408095 0.01615824
000120 33 ec e6 bd 76 0f 32 3d 29 a7 bd bd ee b8 37 3d
       -0.1127552 0.043471776 -0.09260399 0.044854097
000130 2c 83 c4 bd 80 18 4d bd 4d 24 9e 3d a5 66 19 bb
       -0.095953315 -0.050072193 0.077217676 -0.0023407128
000140 c8 8b 04 3d c4 5f 98 bd 8f e2 18 3b 4f a0 49 3c
       0.03235987 -0.07440141 0.0023328399 0.012306287
000150 01 5b 9e bc 3c c4 35 3d ee e9 be bc bd d9 bc ba
       -0.019330503 0.044376597 -0.023304906 -0.0014408153
000160 1c 8e c3 bd 86 19 1e bb 12 93 b8 bb b9 33 7b bc
       -0.095485896 -0.00241241 -0.0056327665 -0.015332156
000170 39 33 8e bd 37 ad 21 bd 50 2b a5 bd 38 71 84 bd
       -0.06943364 -0.03947183 -0.08064902 -0.06466907
000180 df c1 d4 3b 28 84 57 bb 6d 88 db bc 67 3a 19 3d
       0.006492838 -0.0032885168 -0.026798451 0.037409212
000190 50 bf a5 bd 8c bb 20 3c 01 44 a4 3c 4f c4 b2 bc
       -0.080931306 0.00981034 0.020051958 -0.021822123
0001a0 70 d9 d1 3d fd 7b d0 bd aa a5 56 3d a3 2b f9 3b
       0.10246551 -0.10179899 0.052404083 0.007604079
0001b0 8e 25 6a 3d 79 45 8a 3d 50 98 34 3b 21 27 0e 3d
       0.05716472 0.06751532 0.0027556606 0.034705285
0001c0 9b 2f 24 bd cb 03 02 bd d0 b1 88 bc 83 fb 7b 3b
       -0.040084463 -0.0317419 -0.01668635 0.0038449473
0001d0 0b 46 8b 3b 46 bc 17 3d e6 89 a5 3d 66 82 e2 bc
       0.004250293 0.037044786 0.08082943 -0.02765007
0001e0 e8 74 df bd fe d5 9e 3b d4 b3 17 bd 71 c8 c4 bd
       -0.1091097 0.004847287 -0.03703673 -0.09608544
0001f0 46 8d 89 bd 6e f9 73 bd 8c 88 8d bb 40 c6 b3 bd
       -0.06716399 -0.059564047 -0.004319256 -0.087780476
000200 c1 ec 5d 3d 4c 07 b1 bc 19 58 23 bd 7f 2c c1 3c
       0.054180864 -0.021609925 -0.03987894 0.023580788
000210 b5 12 46 3d d9 97 e0 3d 89 8b 96 3d 3b f5 85 3d
       0.048357684 0.10966463 0.07350833 0.065409146
000220 43 59 d9 bc d3 0e d8 3c 2b 35 bb 3b 07 ad 1f 3d
       -0.026531821 0.026374256 0.005713125 0.03898337
000230 aa 36 68 bc e4 66 6c bc af 8d 52 3c a2 c8 a0 3a
       -0.014173189 -0.014428828 0.012851163 0.0012266824
000240 34 e1 b5 3c 74 38 e3 3c 05 f1 d8 bc 51 c3 f1 3c
       0.022202112 0.02773688 -0.026482115 0.02951208
000250 1b 5c 66 3c cb a6 14 bd 2c 3f ee bd ac b4 1a bd
       0.014060046 -0.03629188 -0.11633143 -0.03776996
000260 44 60 06 3c 11 a2 b9 bd f7 08 b9 bd 0b 0b 1f 3d
       0.008201662 -0.09064115 -0.09034913 0.03882889
000270 55 c1 59 bd 6c 0d 1f 3c 5b 4b 93 3b 0a d7 92 3d
       -0.05316289 0.00970779 0.004495067 0.07169922
000280 b9 c6 66 3d e8 51 58 bc 01 03 51 3d dd 3d c0 3c
       0.05634186 -0.013203122 0.051028255 0.023466999
000290 8b e8 80 3d 19 89 26 3d 2e d3 8b 3d 30 b0 41 3c
       0.06294354 0.04065809 0.06827389 0.0118217915
0002a0 bd fa ab bc 0f 6b 76 3c 1f 6e c0 3c 81 f9 89 3d
       -0.020993585 0.015040173 0.02349001 0.06737042
0002b0 44 4e 4d bd 73 a6 22 bd 1f 1a 89 3d 64 e4 d5 bc
       -0.050123468 -0.03970952 0.06694435 -0.026109882
0002c0 da db 29 3c 40 68 51 3c 39 44 4a bd 21 39 cf bb
       0.010367358 0.012781203 -0.04938147 -0.006323949
0002d0 f3 db 85 3d cd 04 ee bc 6c 3a 60 3d 26 ed 51 bd
       0.065360926 -0.029055024 0.054743215 -0.051251553
0002e0 40 3b c2 bb 8a 51 46 bd f2 53 90 3c bd b4 72 3d
       -0.0059274733 -0.048417605 0.017618153 0.059254397
0002f0 df f4 b8 3d 3f 70 fa 3b ae d5 06 3c bd e6 8d 3d
       0.090310805 0.0076427753 0.008229656 0.069287755
000300 8d 0f 67 3d 0b 06 c2 bc 05 6f 9a 3d 1a 2e 98 39
       0.056411315 -0.023684522 0.075407065 0.00029026048
000310 7d 2d ae bd e0 cc 93 bc d7 5b b6 bd 5f fa 02 bd
       -0.0850477 -0.018042028 -0.08904236 -0.031977054
000320 68 77 65 3d e7 8c 4b bd bc 99 10 bd 10 04 d2 bc
       0.056022078 -0.04969492 -0.035302863 -0.025636703
000330 aa 0a 43 bd cd ac 46 bc a1 8b dd 3c e0 95 ce bd
       -0.047617592 -0.01212616 0.02704412 -0.1008718
000340 ad 85 17 bd 78 ea ad 3c 4b 9d c1 3c 63 18 f1 bc
       -0.036992718 0.021229967 0.023634573 -0.029430574
000350 d9 2a 31 3b bb 02 77 bd 70 14 d3 bc a5 29 66 3b
       0.0027033596 -0.06030534 -0.025766581 0.0035120037
000360 ba 74 bf 3d b0 5d b9 3d 43 41 e3 3c 27 40 22 3d
       0.09348436 0.090510726 0.02774108 0.03961196
000370 85 42 1a 3d 31 d8 6d 3d b1 ec 3e bc 31 10 2d 3d
       0.037661094 0.058067504 -0.011653111 0.04225177
000380 87 51 a4 3d 0a b2 a8 bc 62 76 ed 3c f1 5e ae bd
       0.080233626 -0.020592708 0.028987113 -0.085142024
000390 e0 cf b5 3c d6 4a 43 bc 04 55 15 bd 90 63 23 bd
       0.02219385 -0.011919698 -0.03645803 -0.039889872
0003a0 7e c1 75 bb e1 3c c8 3c bb 98 11 3d e7 ea 1c 3e
       -0.0037499364 0.024443092 0.035546046 0.15323983
0003b0 60 51 8a bb 8b 5d 0f 3c 51 24 42 bd 4b 27 9e bc
       -0.0042211264 0.00875033 -0.047397915 -0.019305846
0003c0 da 90 6d bd fc fa be 3c ac ac 07 bc a6 a3 a0 3b
       -0.05799947 0.023313038 -0.008280914 0.004902321
0003d0 47 35 56 3c ab 3c 2b 3d 10 79 30 3d 67 15 c5 3d
       0.013074226 0.041805904 0.043084204 0.09623223
0003e0 69 cf 03 3e 0d 8f ca 3d e7 ff 74 3d 4d 22 cc bd
       0.1287209 0.09890566 0.05981436 -0.0996748
0003f0 98 97 16 3d 0d ed d1 bd b8 43 5c 3d 2d df 69 bd
       0.036765665 -0.10250292 0.05377552 -0.057097603

fc1.bias f4 [128]
000000 ce 49 40 3d 64 cb 0f 3e be 7b 63 3d d8 a0 a6 3b
       0.046945386 0.14042431 0.05553793 0.005085092
000010 1d 71 c8 3d a9 42 90 bd aa ad b4 3c 44 1c 5d bd
       0.097872 -0.070439644 0.022055466 -0.053982034
000020 0c 2b e7 3b 56 89 0b bd aa 93 d6 3d b9 98 17 3e
       0.007054692 -0.03406652 0.104773834 0.14804353
000030 4c df d9 bb 1d 9b 56 3d 26 ef 2f 3d 26 36 db 3c
       -0.0066489335 0.05239402 0.04295268 0.026759218
000040 b1 af 03 3d ba 64 5c 3c 37 8c 03 3e 82 81 70 bc
       0.032149974 0.013451749 0.12846456 -0.014679315
000050 63 32 67 3d 50 f6 8c bc df 87 b7 bc b2 99 28 bd
       0.056444537 -0.017207295 -0.022403656 -0.0411622
000060 d0 de 83 bc 82 d1 75 3d 45 45 21 bd c3 79 9a bc
       -0.016097456 0.060014255 -0.0393727 -0.018856889
000070 97 e1 e8 3c ce e0 06 3d 1f fb 7a bc 70 1e 1e 3c
       0.028427882 0.032929234 -0.015318661 0.009650812
000080 45 e7 ba 3d e5 87 d2 bb fd df 40 bc d0 3b 6e 3b
       0.091261424 -0.0064248913 -0.011772153 0.003635157
000090 d5 ef 4b 3d cc 4b b6 bd 2f 7f 1f bd 14 28 32 bd
       0.04978927 -0.08901176 -0.03893965 -0.043495253
0000a0 9b f0 25 3d 5d fd 32 3c 54 25 cd bc f5 0b b3 3d
       0.040512662 0.010924664 -0.025042213 0.08742515
0000b0 0b 22 9e 3d e7 43 c0 3b ae c6 59 bb 52 dc db bc
       0.07721337 0.0058674696 -0.0033229995 -0.026838455
0000c0 71 22 47 3b 49 6c 1b 3d 9b 3f 12 3c a1 e9 08 bd
       0.003038552 0.037945066 0.008926298 -0.03342593
0000d0 5f e1 cb 3d fe 5f d8 3d 96 0b 76 3c 62 4a 10 3c
       0.099550955 0.10565184 0.015017411 0.008806797
0000e0 5e 2b c9 bc b1 f6 e9 bc c9 77 41 3d 78 cb 18 bd
       -0.024556812 -0.028560014 0.047233377 -0.037303418
0000f0 9a b3 ca 3b b7 88 de bc 3d fa 4a bc 91 6d a4 bd
       0.006185961 -0.0271648 -0.012388763 -0.08028711
000100 da 11 2a ba ed 2f 46 bd 95 77 40 3d 03 06 80 bd
       -0.00064876454 -0.04838555 0.046989042 -0.06251147
000110 eb 37 a5 3b 82 ca 05 3e 57 0c 07 3d 07 78 5e bc
       0.0050420663 0.13065532 0.032970753 -0.013578421
000120 c4 d4 eb bc ca 66 5d 3d 38 c9 5e bb 4f 6e 24 3d
       -0.028787978 0.054053105 -0.0033994447 0.04014426
000130 ca 17 5a bd 6f a0 63 3d 46 0b 2b 3b 27 55 8c 3b
       -0.053245343 0.055572923 0.0026099249 0.004282612
000140 3b ae 9c 3d 35 43 60 3d 8e 6a bd 3d 10 21 d4 3c
       0.07650419 0.054751594 0.09248839 0.025894672
000150 b8 8d f0 3c 36 9a 51 bd ca ee fd 3b 4b 5e b1 3d
       0.029364452 -0.051172458 0.007749413 0.08660563
000160 b4 76 ff bb 0a b5 9d 3c c8 d1 07 3d 5d dc b5 3c
       -0.007796133 0.019251365 0.033159047 0.022199804
000170 51 26 1d 3e 49 02 87 3d 7e da 30 3d f8 d1 03 3c
       0.15346648 0.06592233 0.04317712 0.008045666
000180 04 bf dc bb eb 6a 49 bd 6f 7b cc bc ce 64 0c 3e
       -0.006736638 -0.04917423 -0.024961201 0.13710329
000190 55 88 c1 3c 20 f6 00 bd 7f 44 73 3d 8d 23 1b bd
       0.023624578 -0.031484723 0.059391495 -0.0378757
0001a0 de 97 61 3d d4 58 49 3d 33 fe e8 bc ed e3 51 3b
       0.055076472 0.04915698 -0.028441524 0.0032026723
0001b0 48 7d 20 3d 49 7f 09 3b 08 83 7b 3d 20 cc 8e 3d
       0.039181978 0.002098041 0.061404258 0.069725275
0001c0 c5 56 54 3d fd 87 ad 3d ff 7c 32 3d c0 fc e2 39
       0.051840562 0.08473203 0.043576237 0.00043294393
0001d0 68 59 18 bd b6 48 2b 3d 55 1c 07 3e 8b 36 38 bb
       -0.03719464 0.04181739 0.13194402 -0.0028108682
0001e0 4d 28 42 3d a0 86 c8 3d 7d 0a 32 3c 30 a8 9f bc
       0.047401715 0.09791303 0.010866758 -0.019489378
0001f0 50 90 46 bd f0 4e c5 bb a7 fd 7f 3d 49 d5 92 3d
       -0.04847747 -0.006021373 0.06249776 0.07169587

fc2.weight f4 [128, 128]
000000 da da 31 bd 33 87 a4 be 49 b0 c1 3d 5b 4f 4f 3e
       -0.043421604 -0.321344 0.09457452 0.20245115
000010 b3 47 d9 3d 2a a9 49 be c2 dc ba 3d 99 33 e6 bb
       0.10609379 -0.19693437 0.091241375 -0.007025194
000020 72 c0 c9 3d 60 e4 b2 bb 67 fa 43 3e 48 f8 e7 bd
       0.09851159 -0.0054593533 0.1913849 -0.11326653
000030 05 fd 55 3e 29 1c e1 3d b4 53 82 3e a0 e0 5e be
       0.208973 0.10991699 0.25454485 -0.21765375
000040 2d c0 3e 3e 78 69 cc 3d ff 87 3e 3e 69 e8 89 bd
       0.18627997 0.09981054 0.18606566 -0.06733782
000050 e9 dd 22 be d9 87 47 3d 81 a8 be 3d a1 bf d0 3b
       -0.15904965 0.04871354 0.09309483 0.0063705
000060 33 2c 96 bd f6 ec b9 bd 27 e2 e5 3d f2 5f 2a be
       -0.07332649 -0.090784 0.11224776 -0.16638163
000070 01 71 bd 3d 54 30 9f bd e2 3c b5 be 6c 06 e5 bc
       0.092500694 -0.0777289 -0.35398012 -0.027957164
000080 ab 73 8b 3b 2d 34 45 3d f5 32 95 3d 40 5b 5d 3d
       0.004255732 0.04814546 0.0728511 0.0540421
000090 1c 52 5d 3e 06 ab 4e 3d 09 44 74 bc b5 a2 2e 3d
       0.21613353 0.05045607 -0.014908799 0.04263564
0000a0 e7 7a 9a 3e a0 67 3a be b8 c5 6a bd 64 0a c3 bd
       0.30171892 -0.18203592 -0.057317466 -0.09523466
0000b0 8a 3c 27 bd 8f 96 e6 3d aa f5 08 3e d7 05 50 3d
       -0.04082922 0.112591855 0.13374963 0.05078682
0000c0 26 76 05 bd c2 ff 89 bd f7 67 0c be d2 8c 71 3d
       -0.03258338 -0.06738235 -0.13711534 0.058972187
0000d0 eb fd 55 3e a1 9f 2b bd 78 55 cd 3d 27 95 f8 3c
       0.20897643 -0.04190028 0.100260675 0.030344559
0000e0 6d 50 7f 3c 3a 5e b0 3d 0d 4d 59 bb de 06 2c bd
       0.01558314 0.08611722 -0.0033157498 -0.041998737
0000f0 12 c4 13 3d 5f 5e 4b bc 68 5e 01 be 34 30 be 3d
       0.03607566 -0.012412637 -0.1263367 0.09286538
000100 8e 86 b6 bd 9e 92 cb bd 45 10 07 3e aa 50 bc be
       -0.08912383 -0.099400744 0.131898 -0.36780292
000110 81 19 e6 ba 49 f8 2b bd 1b bc 01 be 24 67 c0 be
       -0.0017555208 -0.04198483 -0.12669413 -0.3757869
000120 dd e1 98 bc 24 93 2d 3e 5f 52 f1 bd a9 f1 12 3e
       -0.018662388 0.16950661 -0.11783289 0.14349999
000130 81 0f 7e bd 1e 9e e5 3d 01 1f 12 3e 53 f5 d8 bd
       -0.062026504 0.11211799 0.1426964 -0.10593667
000140 8b 87 50 3d 15 5a f0 bc f3 c9 5b 3d f6 df c0 bd
       0.050910514 -0.02933983 0.05365939 -0.09417717
000150 29 44 a7 bd c5 c2 26 be 6f 86 10 3e 30 3b 45 3c
       -0.081672974 -0.16285236 0.14113782 0.012038037
000160 a1 2a 9c bd 61 ed 24 3c d5 c0 8c bd 5b 72 01 3d
       -0.07625318 0.010066361 -0.06872717 0.0316032
000170 f9 cb 03 3d ce 44 d9 3d 38 c5 a6 3d bd 66 20 3e
       0.032176945 0.106088266 0.08143085 0.15664192
000180 1a 4a 37 3e 78 4f be 3b d5 0f 61 3d 61 30 76 3d
       0.17899361 0.0058078133 0.05494674 0.06010473
000190 69 51 86 bd ae 64 e3 3c 23 df 3d 3d e5 f8 11 3c
       -0.065584965 0.027757969 0.046355378 0.008909439
0001a0 ac 03 33 3e 40 33 9e be c4 6c fb 3d 28 ce 81 3d
       0.1748187 -0.30898476 0.12276605 0.06338149
0001b0 44 ca 46 3d 56 1e ab bd 81 67 f0 3c 5f 13 0e 3e
       0.04853274 -0.083553955 0.02934623 0.13874577
0001c0 03 11 f5 3d 5b ce ec 3d 68 81 19 3d 67 a8 1a 3e
       0.11966135 0.11562797 0.037476927 0.15103303
0001d0 66 19 bc bd 1b 5e 01 be 82 76 f1 3d af f8 9e bd
       -0.09184532 -0.12633555 0.11790182 -0.077622764
0001e0 cb 5e 1e bd 41 6b 4f be 27 be 28 be 16 76 c1 3d
       -0.03866462 -0.20255758 -0.16478787 0.09446351
0001f0 74 01 8d 3d c1 c2 d2 3d ea f7 20 be 98 cc 19 bd
       0.06885043 0.102910526 -0.15719572 -0.03754863
000200 f7 3e 68 3e 8c 0a d9 3d 9e 68 76 3d 35 9c 43 3e
       0.22680269 0.10597715 0.060158364 0.19102557
000210 e0 83 e8 3d 10 45 a4 bd ff b1 25 bd 22 fd 1b 3e
       0.11353278 -0.08020985 -0.040452953 0.15233281
000220 5c 8e 96 bd a4 59 87 3c 89 06 9c 3d cb 42 7d be
       -0.07351372 0.016522236 0.07618434 -0.24732511
000230 7f e0 d8 bc 35 12 49 bd 6e 48 3e be aa d5 d8 bd
       -0.026474236 -0.04908963 -0.18582317 -0.10587628
000240 66 04 a9 3d 76 2f fa bd 9c 4f 70 3e b6 8f ba 38
       0.08252792 -0.12216084 0.23467869 8.8959394e-05
000250 50 4b 6d 3e 74 fd 8c 3d fa df 68 3c 29 b6 62 3e
       0.2317326 0.0688428 0.014213556 0.22139801
000260 81 78 0d 3e 75 74 ef bd 78 b4 2f be 62 79 6d be
       0.138155 -0.11692134 -0.17158687 -0.23190835
000270 72 37 e8 bc 26 67 8a 3b b9 f0 1b 3d 44 ac a5 3b
       -0.02834675 0.004223722 0.038071368 0.005055936
000280 2f 8f 4e bc 6b 5a 68 3e 1c 40 74 be e7 73 95 3c
       -0.01260738 0.22690742 -0.23852581 0.018243743
000290 83 cb 5c 3d 83 57 23 bd ba 3a 00 be 17 2e 82 3e
       0.05390502 -0.03987838 -0.12522402 0.2542579
0002a0 d1 4d c4 bc 8f c0 09 3b 21 cb 8b 3e e9 ce cd 3e
       -0.023962887 0.0021019315 0.27303413 0.40196922
0002b0 73 fd 27 3c 13 34 d1 be ec 3a 3d bd 3a 3d 0e bd
       0.010253298 -0.40860042 -0.04619877 -0.03472636
0002c0 cf 14 55 be 8c 2b 27 3d 94 ae b9 3c db d1 1e 3d
       -0.20808719 0.040813014 0.022666253 0.038774353
0002d0 b9 f3 1e 3d b1 21 fe bc eb 70 8d 3c 10 ac fa 3d
       0.03880665 -0.031021925 0.017265758 0.122398496
0002e0 09 fc 13 3c 48 66 54 be fa f4 1c 3e ae f3 bb bd
       0.009032258 -0.20742142 0.15327826 -0.091773376
0002f0 af 49 85 3d 33 a1 46 3d b0 7b bf 3d b0 ab 05 bd
       0.06508195 0.048493575 0.093497634 -0.032634437
000300 0c 0a ba 3d 1e c8 b9 3c e9 27 01 be 4e 96 c9 3d
       0.090839475 0.022678431 -0.12612881 0.098431215
000310 8a 8d 93 3d 72 b6 ee bd 6a c7 ab bd 7b ca 2e be
       0.07204731 -0.116558924 -0.083876446 -0.17069428
000320 cb 11 4c 3e e4 d8 09 3d 3a b4 f1 3d 1f 22 b2 3e
       0.19928662 0.03365411 0.118019536 0.34791657
000330 85 1e 81 be 5c 69 1d 3d 99 c4 d7 bd 37 65 96 bd
       -0.25218597 0.038430557 -0.10535545 -0.07343524
000340 59 36 0f 3e 94 0f 92 bc a7 1f d3 3d 2c 69 9d 3d
       0.13985576 -0.017829694 0.103087716 0.076860756
000350 bc d0 35 3e 88 63 25 3e 16 b8 83 be b7 83 6c bd
       0.17755407 0.1615125 -0.25726384 -0.0577428
000360 4b 43 47 3e 0f 2a 06 be 8e 17 1d bd 20 ac ed bc
       0.19459264 -0.13101982 -0.03835254 -0.02901274
000370 8a 20 b6 3d 9b c6 e2 3c ef 74 b0 bd 1b 74 5f bd
       0.08892925 0.027682593 -0.08616053 -0.054554086
000380 bd 0e 41 3d 06 6c 3f be 01 37 0e be c9 d7 61 3e
       0.047133196 -0.18693551 -0.1388817 0.22054972
000390 d3 9a 8d bd 15 91 56 bd f1 b7 60 be ef 7a 30 be
       -0.06914296 -0.052384455 -0.21945168 -0.17234395
0003a0 f4 04 3d 3e d6 30 5a 3d 7c d5 43 be ba 0d 3b be
       0.1845892 0.05326923 -0.19124407 -0.18266955
0003b0 40 41 fc 3d e5 b5 9d be b2 32 ce bd c0 a4 af 3d
       0.12317133 -0.30802837 -0.10068263 0.085763454
0003c0 e7 b7 94 bb 68 8c 94 3d 21 51 3b bd 00 ff e2 3d
       -0.0045385244 0.07253343 -0.045731667 0.11083794
0003d0 33 fc e3 3d 02 09 07 bd 0a d1 8f bc 72 50 85 be
       0.111320876 -0.032967575 -0.017555732 -0.26037937
0003e0 3f ab 06 bd ba 1d 12 be b4 f4 bd bd 3d 9d 8f 3e
       -0.032878157 -0.14269152 -0.09275189 0.2804965
0003f0 ef 45 54 3e ba f9 f5 3b 03 67 36 3e ae 8e d9 3d
       0.20729803 0.0075065764 0.17812733 0.10622917

fc2.bias f4 [128]
000000 61 86 0c bd 80 39 ce 3c c9 20 70 bb 34 b2 2e bb
       -0.03430784 0.025173903 -0.0036640635 -0.002665651
000010 40 2b 96 bc 6a c3 e1 bc 69 f6 51 3c ed 9d 20 bd
       -0.01833117 -0.027559001 0.012815096 -0.03921311
000020 2a f8 01 3d 23 72 05 3d 41 0b d5 bc ea 68 8c bc
       0.03173081 0.032579552 -0.026006343 -0.01713987
000030 24 94 65 3c 88 87 d2 3c a8 23 15 3d d6 6d 63 3c
       0.01401237 0.025699392 0.036410958 0.013881167
000040 3c 20 94 3a 41 28 9a 3d 2d 04 a5 3c d7 02 30 3b
       0.001130111 0.07527209 0.020143593 0.0026857161
000050 ad 39 31 3d 10 f2 74 3c bf d8 f6 bc bc 59 b1 bc
       0.043267895 0.01495029 -0.03013265 -0.021649234
000060 d8 37 b4 3d 91 de c9 3c d4 4f a0 3c a6 69 08 3c
       0.08799714 0.02464226 0.019569315 0.00832597
000070 8d 10 0a 3d bd 11 09 bc 83 19 c2 3c 23 3b 53 3c
       0.03370719 -0.008366046 0.023693806 0.012892517
000080 3b f8 a3 3b af 85 1f bb 42 44 91 3d ae 57 c2 3a
       0.0050039566 -0.0024341156 0.07093097 0.0014827156
000090 d7 5e b0 bb 6f 43 6f bb e0 0e 3d 3b 61 bf c0 3c
       -0.0053823995 -0.00365087 0.0028847978 0.023528757
0000a0 f9 a8 a1 ba a7 aa ce bb 01 dd 81 bc 1f a3 85 3d
       -0.0012333683 -0.0063069644 -0.015852453 0.065252535
0000b0 d3 f7 aa bb 29 2d 75 bc ea 57 a2 3d 58 f2 89 3d
       -0.005217531 -0.01496438 0.079269245 0.067356765
0000c0 06 f6 1d bd e9 a4 d7 bc 29 8f 18 3b 3a 49 4a 3c
       -0.038564704 -0.026323752 0.002327869 0.01234656
0000d0 16 38 1a 3c d5 35 0a 3d da 1e c9 bc 4d e3 18 b9
       0.009412786 0.033742744 -0.024550844 -0.00014580526
0000e0 a4 0e 44 3c f8 73 e4 3c 5c f8 56 3d 30 47 7f 3d
       0.011966381 0.02788733 0.052482948 0.06232375
0000f0 bb 04 ce 3c 0b 24 ee 3d 0f a1 94 3c 66 0b 7a 3d
       0.02514874 0.116279684 0.018143205 0.061046027
000100 14 4a ac 3c fb c6 4e bc 28 79 99 3b d3 bb 96 bc
       0.021031417 -0.012620683 0.0046836324 -0.018400108
000110 f8 2b db bb 04 17 ce b9 d8 eb 98 3c 7b 2e a2 ba
       -0.006688591 -0.0003930853 0.018667147 -0.0012373471
000120 38 0b f2 3c fa 51 c3 bc 99 e6 14 3c 0f 12 33 3c
       0.029546365 -0.0238428 0.009088182 0.0109295985
000130 e5 ab 93 3d 22 b6 ca 3b 4c 78 94 3d 65 42 c2 3c
       0.07210521 0.0061862627 0.07249507 0.0237133
000140 b5 62 94 3b 99 b9 59 3d 33 e6 ac 3c fb d2 11 3b
       0.0045283684 0.053155515 0.021105861 0.0022250998
000150 7f cc 00 bc 77 53 87 3c 51 0d e7 3c 16 a0 c4 3c
       -0.007861256 0.016519291 0.028204592 0.024002116
000160 3d 95 78 3c 8e bb b7 3b dd c7 51 3c 77 bd 8d 3d
       0.0151723 0.005607075 0.012803999 0.06920903
000170 fb 9a 27 bc 93 43 fe 3c 80 74 72 3c 0f a4 8d bc
       -0.010229821 0.031038081 0.014798284 -0.017290143
000180 03 ea 3e 3d 00 0d 27 3d 39 70 09 bd 2f b9 d3 bc
       0.04660989 0.040783882 -0.03355429 -0.025845138
000190 6d 62 7f 3d c6 9a c7 3d 56 c5 87 3c 99 15 11 3d
       0.062349726 0.097463176 0.01657359 0.035420988
0001a0 97 3a 07 bc 98 6a 74 3c 6a a3 ec 3a a1 ca 08 bc
       -0.008253715 0.014917992 0.0018054072 -0.008349092
0001b0 0f 09 19 3d e5 29 b3 bc 94 db 77 bd 15 12 a2 3c
       0.037362155 -0.021870563 -0.06051214 0.019784013
0001c0 5a 20 1c 3d d7 a2 4f 3b f6 f7 8b 3c 21 85 1a bc
       0.03811679 0.0031682753 0.01708601 -0.0094311545
0001d0 af 32 f2 bb 31 7e 1f bc db d4 73 bb 3b a3 2a bd
       -0.007391296 -0.009734676 -0.003720573 -0.041659575
0001e0 17 01 3e 3a 5f 6e 5d 3d 91 3a 10 3b 16 6c b8 3c
       0.0007248087 0.054060336 0.0022007565 0.022512477
0001f0 bb 31 1e 3c 89 6b f8 bc e7 fd d0 3c bf a7 17 bc
       0.009655411 -0.030324714 0.025511695 -0.009256302

fc3.weight f4 [10, 128]
000000 9d 6d ff bd 2a 70 f5 bd 1e cb 3c bc 72 26 e1 bd
       -0.12472079 -0.11984284 -0.011523036 -0.10993661
000010 8c 76 63 be 07 2c 1f 3d 9b f2 b9 3c 4c b4 60 3e
       -0.22213191 0.038860347 0.022698691 0.21943778
000020 74 64 4e 3d f0 44 ee 3e 9e 91 d4 3c 4f 03 20 be
       0.05038877 0.4653697 0.025948342 -0.15626262
000030 89 a9 41 3d e2 eb 93 3d 25 d5 4d 3d 3b 31 ad 3d
       0.047280822 0.072227255 0.0502521 0.084566556
000040 34 fc 23 3e 67 b3 df be 7a f5 37 be cf 5c 85 bd
       0.16014177 -0.4369156 -0.17964736 -0.065118425
000050 87 32 21 be b0 41 db 3c d0 8e 48 3e d1 50 e5 3e
       -0.15741931 0.02676472 0.19585729 0.4478822
000060 14 b7 03 bf 8e 2a c5 3d 0f 45 b8 bd a3 39 38 be
       -0.5145123 0.09627257 -0.08997547 -0.17990737
000070 cf c8 ac bd 30 94 d3 3d c3 b7 9e bb 91 38 eb 3d
       -0.08436739 0.10330999 -0.0048436834 0.114853986
000080 e9 34 98 be b6 f2 35 bd d0 d0 3f be da 4d b4 3b
       -0.29727867 -0.04442092 -0.18732 0.0055024447
000090 50 28 8b 3d 4c fa 17 3c 9d f7 9f bd 0b 45 8c 3c
       0.067947984 0.009275984 -0.078109 0.017122766
0000a0 7d 54 00 be 41 80 1a 3d 50 25 71 3d 7e cb 80 bd
       -0.1253223 0.03771997 0.058873475 -0.06288813
0000b0 80 31 37 3e 7e 5b 1d be e5 23 84 3e eb f2 30 be
       0.17889977 -0.15366933 0.25808635 -0.17280166
0000c0 d2 be fb 3d 7e 4b e9 3e f8 68 5a bc 77 2e b8 3d
       0.122922555 0.45565408 -0.013330691 0.089932375
0000d0 d3 7b 01 3e 86 e7 8a be e7 eb a7 be 40 c8 56 be
       0.12644891 -0.27129763 -0.32797167 -0.20974827
0000e0 6b 84 7a 3d f1 f5 81 be 3b 42 65 be 6c 52 9c 3c
       0.06116144 -0.2538295 -0.22388546 0.01908227
0000f0 94 9d 10 be d0 6e 1a bf 3b 8a 77 be b4 70 be be
       -0.14122611 -0.60325336 -0.24173824 -0.3719536
000100 31 2d 4b 3e b1 12 91 be 18 99 82 be c3 26 92 3e
       0.19841458 -0.28334573 -0.25507426 0.28545198
000110 4f bc 3f 3e 6b 09 23 bd 06 9f e2 3d aa 5f 1a 3c
       0.18724178 -0.039803904 0.110654876 0.009422222
000120 38 ea 36 be 76 c9 ab 3d bf f8 4c be d5 f5 d4 3d
       -0.17862785 0.08388035 -0.20016764 0.10398451
000130 e5 75 b7 be 51 1f b8 be 79 de 4d be da 9b 0e be
       -0.35832134 -0.35961393 -0.20104398 -0.1392664
000140 25 99 a5 3e 55 f1 84 3d b3 7b b5 3e 8e 70 f5 bd
       0.32343403 0.06491343 0.35445938 -0.11984359
000150 c0 12 10 be 28 7e 8c be 47 31 03 3f 99 fc 8d bd
       -0.14069653 -0.2744 0.51247066 -0.06932945
000160 d2 6a 1e be 4c 14 21 3e 57 1c 0d 3e 02 62 7e be
       -0.15470436 0.15730399 0.13780342 -0.24842075
000170 c3 1e 27 3d ba bf 7e 3c 02 21 0d 3b d8 52 0a 3e
       0.04080082 0.015548641 0.0021534567 0.13508165
000180 82 f9 5b be a4 6e 1d 3e 7f c9 69 3e e2 ac 1e be
       -0.21481898 0.15374237 0.22830771 -0.15495637
000190 33 78 60 bb a5 e9 0b bf 02 ec 15 3e ba 1b 6d be
       -0.0034251332 -0.5465339 0.14640811 -0.23155108
0001a0 6d 3e a7 3d 7b 1b 2b 3d 3b 30 ee bd af 81 a2 3e
       0.08166204 0.041774254 -0.11630293 0.31739566
0001b0 49 b9 13 3e 1c eb 98 3e 62 d5 9a bc 1c 5e 7e ba
       0.1442615 0.29866874 -0.018900577 -0.00097033544
0001c0 c8 f2 8e 3c 37 dd 6f 3d fe e4 ed bd d6 7e b4 3e
       0.017449751 0.058560576 -0.116159424 0.35253018
0001d0 14 b4 5d be 17 36 5c 3e 96 3c 99 3e bb 0b 76 bd
       -0.21650726 0.21505009 0.29929036 -0.06006978
0001e0 56 52 ee 3d 55 e7 b6 be f6 1f 21 3d 88 5a 0e be
       0.11636798 -0.35723367 0.03933712 -0.13901722
0001f0 c9 e7 a1 3e d8 dc d4 bd b1 be 88 3d 3b 45 86 3e
       0.3162215 -0.10393685 0.066769965 0.26224694
000200 66 a2 07 bf 91 93 78 be f8 47 ce bd 20 4b 15 be
       -0.52982175 -0.24275042 -0.10072321 -0.14579439
000210 8a a4 b5 bd b6 34 0e be be fd 80 3d e3 78 14 be
       -0.08869274 -0.13887295 0.062983975 -0.1449924
000220 8d 61 9e 3c ff 86 7d 3b 0b b0 64 3d 9f a2 02 bd
       0.019333625 0.00386852 0.05583195 -0.03189337
000230 bd a8 12 3e 49 08 cf bc e6 88 79 be 17 3a 4d bd
       0.14322181 -0.025272505 -0.24368629 -0.050104227
000240 50 e5 aa 3d 75 32 9b 3e b4 1d 4b be a1 31 a6 3d
       0.08344519 0.30311933 -0.1983555 0.08114935
000250 63 d0 e0 be 8c 33 91 bc 55 90 89 3d 77 fc ac be
       -0.43908986 -0.017724775 0.06716982 -0.33786365
000260 4c 9d d9 3d c3 a4 41 3e 02 19 e3 bc ab 9d 85 3d
       0.10625705 0.18910508 -0.027721886 0.065242134
000270 58 31 10 3d 66 7e 96 bc ac af c6 3e fe a0 59 3e
       0.035203308 -0.018370818 0.38805902 0.2125282
000280 91 0e 02 3e 17 77 79 3d fa 9f dd 3e d1 f5 8c 3e
       0.12700869 0.06090459 0.43286115 0.27531293
000290 c9 54 c3 bd 3e bf bd bc 54 e1 84 bd 3e 00 1f 3e
       -0.09537656 -0.02316248 -0.064882904 0.15527436
0002a0 c3 50 52 3d 59 05 f7 3c 34 18 50 be 30 b9 00 be
       0.05134655 0.030153917 -0.20321733 -0.12570643
0002b0 27 cd 92 3e 94 c6 60 bd 91 f2 ad be bc 8f 28 3e
       0.28672144 -0.05487688 -0.33974126 0.1646108
0002c0 b4 41 b6 be 1b fc c9 bc 10 9c 99 be 8c 72 4f bd
       -0.35597003 -0.024656346 -0.3000188 -0.05064635
0002d0 66 91 40 be 17 b8 25 3d 06 6b 67 be e0 65 0c bb
       -0.18805465 0.040458765 -0.2259942 -0.0021423027
0002e0 9c c9 e5 3e 93 bd 40 3e d3 77 50 3e f8 6a 07 3d
       0.44880378 0.18822317 0.2035821 0.033060998
0002f0 73 9e 54 bd 3e e8 89 3e 96 88 de bd 3a 76 16 3e
       -0.05190892 0.26935 -0.108658955 0.14693537
000300 4f 42 03 be 61 56 c0 bc ab 8d 90 be 47 8f 9f be
       -0.12818263 -0.023478689 -0.28233084 -0.31164
000310 44 d8 52 be 2b db 0c 3e f3 cf a1 3e b9 50 cd bd
       -0.20590311 0.13755481 0.31603965 -0.10025162
000320 39 0f fa 3e fa 20 16 be e9 c6 ba bd 05 fd b3 bd
       0.4883974 -0.14661017 -0.0911997 -0.08788494
000330 66 09 aa bb 48 1d 1c bd 96 2c a3 be 4c 54 ab bd
       -0.0051891087 -0.038113862 -0.31869954 -0.08365688
000340 bf 48 db be 86 4a eb 3e 3d dd 49 3d ae 88 bd bd
       -0.42828938 0.45955294 0.049283255 -0.09254585
000350 3f e1 42 be b7 aa 3d 3e 2d 3c 23 3e e8 ec 83 3e
       -0.19031237 0.18522154 0.15940924 0.25766683
000360 1a 1e 9d 3e 67 16 c8 3d 66 e4 88 3d e8 4a 60 3e
       0.30687028 0.09769898 0.066841885 0.21903574
000370 93 de 82 ba d1 52 08 3f ff 6e 79 3d d2 cb c4 3d
       -0.0009984545 0.5325137 0.06089687 0.09609188
000380 a1 64 4c be 8c ec 69 be 5b 40 8c be 69 ab 4e 3d
       -0.19960262 -0.22844142 -0.2739285 0.05045644
000390 cf 23 4d 3e f2 d4 fd 3e f2 fd a7 bc cd 7e a0 be
       0.20033191 0.49576527 -0.020506833 -0.3134674
0003a0 ed 1c d2 bd d2 7f ac 3d f4 5c 28 3e 36 9e 21 be
       -0.102594234 0.08422817 0.16441709 -0.15783009
0003b0 90 d7 5f 3e 73 3a b5 3c a5 ad 05 bf 82 51 bf bd
       0.21859574 0.022122597 -0.52218086 -0.09341718
0003c0 49 90 78 be c5 8d 6e bd 39 26 b3 3c a7 93 52 3e
       -0.2427379 -0.05824067 0.021868812 0.20564137
0003d0 04 d8 17 3c ac 32 16 bd be b6 8f 3e f9 7c 7b be
       0.009267811 -0.03666942 0.2806911 -0.24559392
0003e0 ad 17 27 3e 37 99 15 3f 7f 6d a1 bd 83 85 14 bf
       0.16317625 0.5843691 -0.07882213 -0.5801622
0003f0 1e 1b 72 be 2c 3c 67 3e 09 81 56 3b 1a fc 3c 3e
       -0.23643157 0.22581547 0.003273072 0.18455544

fc3.bias f4 [10]
000000 d1 5f df bd 11 d7 10 3e f3 d2 d1 bc 29 f0 86 bd
       -0.109069474 0.14144541 -0.025613284 -0.06588776
000010 f2 97 86 3d f0 b0 bc 3d 9f 96 28 3d 78 ad b0 bc
       0.0657195 0.09213436 0.04115927 -0.021567091
000020 be f9 a5 bb 49 f4 e7 bd
       -0.005065172 -0.113258906
