best_model.pth (torch, 440230 bytes, 6 tensors)

fc1.weight f4 [128, 784]
000000 1c 6b 91 3d bb a9 26 bd e8 ee 8f bd dc 55 03 bd
       0.071005076 -0.04068921 -0.070279896 -0.032064304
000010 0b ff ea bc e7 a1 f1 3c 48 a5 c5 bc 0c 08 ce 3b
       -0.028686067 0.029496146 -0.024126664 0.0062875804
000020 a8 52 2d bc b6 b7 84 bd 1c 6b 43 bc 7a c2 7c bd
       -0.010578789 -0.064803526 -0.011927392 -0.061708905
000030 9e 70 a2 bd 93 20 47 bd 85 b7 10 3c 8b 97 9e bb
       -0.07931636 -0.04861505 0.008832817 -0.0048398427
000040 3c f7 1b bd 69 b1 f1 bc a4 31 dd 3d 5b c8 f8 bc
       -0.038077578 -0.029503541 0.10800484 -0.030368974
000050 7e ad 8e bd fa 9a a1 3b 45 b6 1b bd 88 28 73 bd
       -0.06966685 0.0049318047 -0.038015623 -0.059364825
000060 d4 66 6e 3d d7 c0 20 3d 96 af 16 3d 38 94 92 bc
       0.058203533 0.039246406 0.036788546 -0.017892942
000070 6f 2b 83 3c 96 7b b9 3c 63 5d 67 bd 87 56 9c 3b
       0.016011922 0.022641938 -0.056485545 0.004771057
000080 7b 26 fd 3c bb 26 44 bc 42 34 09 3d cc 88 3a 3d
       0.030902138 -0.011972125 0.033497103 0.045540616
000090 84 0b a6 3d 45 47 c9 3d e5 1c 96 3d 8e d4 d6 3d
       0.08107665 0.09828047 0.0732973 0.1048976
0000a0 03 5f c7 3c 74 19 59 bc 69 89 c2 bd 22 ae 9b 3b
       0.024337297 -0.013250697 -0.09498865 0.004750983
0000b0 94 f1 04 be b0 64 a8 bc ac 2e c9 bb cd 1b 0d bd
       -0.1298278 -0.020555824 -0.006139597 -0.03445034
0000c0 9e e7 42 bd 40 1d 56 3d 72 86 69 bd 9a c9 ea bc
       -0.04758417 0.05227399 -0.057012983 -0.028660584
0000d0 8d c7 d6 bc 33 f2 d9 3d 17 05 07 3d 4a bd 00 3d
       -0.0262182 0.10641899 0.03296384 0.03143052
0000e0 35 93 8d bc 9b 0c 05 bd 4e bf a4 3c 40 8a 0e bb
       -0.017282108 -0.032482725 0.020110752 -0.0021749884
0000f0 49 4c b6 bd d4 4f 01 3d 47 aa 1a bd 4f 8d de bc
       -0.08901269 0.03157027 -0.037760045 -0.02716699
000100 fa 77 b5 bd 08 28 52 3a e9 e9 dc bc da b5 b2 3c
       -0.08860774 0.00080168294 -0.026967006 0.02181523
000110 69 9d 24 3d 7b 74 ba bc c5 98 93 3d 89 da 38 3d
       0.04018918 -0.02276062 0.07206873 0.045130286
000120 13 f7 c5 bd 0f ad 2b bd 7d db 9d 3b 7c 76 bc 3d
       -0.09666266 -0.04191309 0.004817425 0.092022866
000130 a3 5f e2 3c 1b 68 92 bb 47 4e 46 39 36 8e 4e 3b
       0.027633494 -0.0044679767 0.00018911912 0.003151787
000140 b3 20 2f bd 36 c8 ea 3c b0 8f 2f 3d 93 c0 4c 3c
       -0.042755794 0.028659921 0.04286164 0.012497085
000150 22 ea 73 3d 1b d9 4a 3b 2f 5c 9a bd c8 cf 41 bc
       0.05954946 0.003095216 -0.07537114 -0.011829324
000160 ed 32 48 bd 2d 31 bf 3d cb 3d 87 3d d0 3f 4b bd
       -0.04887669 0.093355514 0.06603583 -0.049621403
000170 a9 dc 9d bd 24 83 d6 3d 4b 1d bb bd ea 40 91 3c
       -0.07708103 0.10474232 -0.091364466 0.017731149
000180 ec f0 b5 bc b3 1b 56 bc e8 18 06 bd 03 49 8d bd
       -0.022209607 -0.013068127 -0.032738596 -0.068986915
000190 fb 57 ab bd cb 41 8c bc 29 99 c3 bb 83 58 97 3c
       -0.0836639 -0.017121216 -0.005969186 0.018474823
0001a0 a1 9f 93 bb 2f 3d f0 bc 4c 1b 23 bd dd 0f bb bd
       -0.0045051132 -0.02932605 -0.039820954 -0.09133885
0001b0 d2 59 0b 3d 3b b2 e0 3b 4d 76 58 bd 37 09 1f bd
       0.034021206 0.006857184 -0.052847195 -0.038827147
0001c0 85 03 12 3d 62 b5 6a 3c 43 47 18 bd c7 01 6b 3d
       0.035647888 0.014325472 -0.037177335 0.057374742
0001d0 e1 bc 79 3d d1 cd a2 3c d2 18 e0 3c e6 91 ee 3d
       0.060971145 0.019873532 0.027355585 0.11648922
0001e0 ae f5 df 3c a4 75 4e 3d a5 c4 94 bc 94 f6 1d bd
       0.027338829 0.05040516 -0.018160174 -0.038565233
0001f0 12 b9 66 3d c6 53 aa bc 7d e9 83 bc c5 c2 51 bd
       0.05632884 -0.0207919 -0.016102547 -0.051211137
000200 e0 5d 90 bc b5 9c 81 bd 78 2d fe bd 4b 68 8c 3d
       -0.017622888 -0.063287176 -0.12411016 0.0685583
000210 0d 68 88 3d 47 16 91 bd 29 91 cf 3d ba ce 00 3d
       0.06660471 -0.07084327 0.10135109 0.03144715
000220 c7 95 8e 3c e4 4e 1d bd 8a ba 31 bc 20 52 50 3d
       0.017405404 -0.038405314 -0.010847697 0.05085957
000230 c4 d4 e5 3c 54 b9 0c 3d 32 0a 27 bd 70 2c 2e 3d
       0.028055556 0.03435643 -0.040781207 0.042522848
000240 52 eb 46 bd 1d c9 06 3d 11 db 33 bd 49 8f ec bc
       -0.048564263 0.03290664 -0.04391009 -0.028876917
000250 c3 44 3c bd 25 74 ba bc 25 28 bc 3d 7a 0b b6 3d
       -0.045964014 -0.02276046 0.091873445 0.08888908
000260 a6 08 85 3d 57 cb 09 3e 32 05 03 bd 53 de 74 bd
       0.0649579 0.13456474 -0.031987377 -0.059782337
000270 c1 8f 12 bc e0 f1 f2 bc 4d 6a 1e bd f8 cb 03 be
       -0.008945406 -0.02965635 -0.038675595 -0.12870777
000280 3b 24 82 bd 0e d5 1d bd 84 55 d4 3b 9e ee 20 3c
       -0.06354567 -0.038533263 0.006479921 0.009822516
000290 14 0d 58 bc 79 12 c2 bd d0 be 81 ba 58 a6 a7 3d
       -0.013186712 -0.0947618 -0.0009898786 0.081860244
0002a0 b9 03 9b 3c 03 d0 c6 bc 92 33 88 bc 96 c2 00 bd
       0.018922674 -0.02426911 -0.016626153 -0.03143557
0002b0 36 73 63 3d 8d 7e a0 bc 2f 90 86 bd 7c 70 c9 bc
       0.055529796 -0.019591594 -0.065704696 -0.02458977
0002c0 dc d4 f0 3c 88 94 31 3c 85 bc 39 3d ca 42 c7 bb
       0.029398374 0.010838635 0.0453458 -0.00608096
0002d0 ad 46 14 3d 55 31 d0 3c b2 f5 d4 3a 36 54 6a bd
       0.036200214 0.025414148 0.0016247539 -0.057209216
0002e0 c3 cb 92 3b dc 72 c2 bc 55 c2 0e bd de 15 95 bd
       0.0044798567 -0.02373641 -0.0348533 -0.072795615
0002f0 93 3d ae bc cf 28 19 bb 5b 37 a2 3d 52 cd 16 be
       -0.021269595 -0.002337027 0.079207145 -0.14726761
000300 f2 19 70 3d 6d e4 82 bc ae 04 1a 3d e2 82 59 bc
       0.058618493 -0.015978063 0.03760212 -0.013275834
000310 d7 fb 94 3d dc 81 2a 39 4e 09 b8 3b f9 96 ed bc
       0.07274597 0.0001626084 0.0056163436 -0.029002653
000320 a4 d1 e6 bc 70 ad 99 38 d6 90 84 3d 50 55 ef 3c
       -0.028176136 7.327914e-05 0.06472938 0.029215485
000330 71 b9 da 3c f9 c9 b9 3d 86 00 a7 bc f2 17 a7 3d
       0.026699753 0.09071726 -0.020385992 0.08158864
000340 52 1b d7 bb b6 8a d3 ba f4 00 3d bb 8c ac 1d b8
       -0.006564536 -0.0016139362 -0.002883968 -3.7592414e-05
000350 7e 7d 12 3d ad f2 6b bd bb 2d 29 3c ee 28 27 be
       0.03576421 -0.05760448 0.010325844 -0.16324207
000360 eb 82 b7 bd 57 7d 29 3b 87 ce 87 3d e3 d5 90 bc
       -0.089605175 0.0025862062 0.06631189 -0.017680114
000370 47 ce cc bc 4a 1d e8 3d a9 d9 61 3c 11 3a 46 bd
       -0.025000704 0.113337114 0.013784804 -0.04839522
000380 af 5d 08 3d 97 8d 02 be 59 db d0 3a 0f ce 50 bc
       0.03329247 -0.12749325 0.0015934511 -0.012744441
000390 54 a4 e4 3c 5f 85 93 bc c4 71 9a bc 74 4a 29 3c
       0.027910389 -0.018007932 -0.018853076 0.010332692
0003a0 35 4d 53 3d 81 f5 a8 bd 6c 9b e7 3d 3c 02 06 3d
       0.051587302 -0.08249951 0.11308941 0.032716975
0003b0 dd d7 9c 3d c6 a0 66 bc 37 94 91 3d eb cb 54 3c
       0.0765836 -0.014076417 0.07108348 0.012988071
0003c0 f1 84 71 bc f7 28 50 bc a8 cd 9c 3c 95 a5 d2 bd
       -0.014741168 -0.012705079 0.019141033 -0.102854885
0003d0 a8 6b 03 be f0 e5 a9 bd 49 4d 32 3c f2 2f 68 bd
       -0.12834036 -0.0829581 0.010882684 -0.05668635
0003e0 02 ee 14 bb 01 27 a8 3d b5 80 a0 bd 1c e2 b2 bb
       -0.0022724872 0.082105644 -0.07837049 -0.0054590832
0003f0 75 e9 0a 3e a0 5e be 3c c0 8c bd ba 67 ef 00 be
       0.1356562 0.02323848 -0.0014461502 -0.12591325

fc1.bias f4 [128]
000000 a5 b4 3c bc 53 05 30 3c f9 22 45 3d fd 27 70 3d
       -0.011517678 0.010743457 0.048129056 0.058631886
000010 ee 52 16 bd ff 10 37 3d 6d 8d 1a bd 3f ca ae 3c
       -0.03670018 0.044693943 -0.03773253 0.021336673
000020 a6 cf 89 3c 17 f4 9d bc bb f2 64 3d 18 dd 70 3c
       0.016822647 -0.01928143 0.05589555 0.01470115
000030 57 81 81 3c 0b fb f8 3b 29 65 b2 3b fe ce 8e 3a
       0.015808744 0.007598286 0.005444188 0.0010895429
000040 53 23 93 bc 49 1b 7c bc cc d8 6d 3c 36 0e b8 3c
       -0.01796118 -0.015387365 0.01451702 0.022467714
000050 68 70 b4 ba 85 20 46 3d 6b a4 b1 3b 57 1f f5 bb
       -0.001376641 0.048370857 0.0054212115 -0.0074805426
000060 ab 36 2b 3d 14 4b 34 3b 3c 0a b6 39 fc 6c 08 3d
       0.041800182 0.002751057 0.0003472137 0.03330706
000070 63 05 5f 3a 26 c9 84 3d 5d a3 92 3b 66 84 b1 bc
       0.00085075776 0.064836785 0.004475041 -0.021669578
000080 00 60 b7 3d 16 28 4c bc c5 e8 a1 3d 23 1f 73 bd
       0.089538574 -0.012460729 0.079057254 -0.059355866
000090 c8 50 80 3d b2 59 c3 bc 8d 41 71 3b 65 02 69 3c
       0.06265408 -0.023846481 0.0036812753 0.014221762
0000a0 4e 1e 4c 3d 4d 39 dd bc 16 30 6d 3c b2 b9 30 bd
       0.04983359 -0.027004862 0.014476797 -0.043145843
0000b0 ba c2 07 3d 1b a9 8b 37 b2 2e 5b 3d 05 e7 a9 3c
       0.03314469 1.6648837e-05 0.05351133 0.020740042
0000c0 40 ba 96 bc 84 0e 16 3d b9 71 35 3d 90 38 82 3c
       -0.018399358 0.036634937 0.044297908 0.015896112
0000d0 77 d7 84 bc 63 34 16 3d 49 5a 9b bc 6c 54 31 3d
       -0.016216023 0.036671054 -0.01896395 0.0432934
0000e0 5a ec 37 bd 8b cd 67 bc e4 da 6e 3c f4 3b a7 3d
       -0.044903137 -0.014148126 0.014578555 0.08165732
0000f0 a4 80 e5 bc 8a 45 e7 bb 16 3c bd 3c d3 c5 90 3c
       -0.028015442 -0.0070578502 0.02309994 0.017672455
000100 0b a8 0f 3b 49 07 0b 3e 53 3e e9 3d 1c 99 f6 3d
       0.002192023 0.13576998 0.113888405 0.12040922
000110 e2 a9 01 3d 28 36 50 3b d3 ab 56 3c b0 25 b9 bb
       0.031656154 0.003177056 0.0131024895 -0.0056502447
000120 fa 4d 97 3d b9 1c 09 3e 12 78 f5 bc c4 31 20 bb
       0.0738792 0.13389863 -0.02996448 -0.0024443725
000130 60 32 79 bc b7 f0 8f 3d 90 15 10 3e 3c 8d ab 3c
       -0.015209764 0.070283346 0.14070725 0.02094137
000140 22 b7 dd bd 53 16 fd 3d 3d a2 85 bc df 70 9d bc
       -0.108259454 0.12357774 -0.016312713 -0.01921886
000150 cc 2b a8 3d 0c b1 c8 bc 11 c6 09 3d 47 31 1c 3e
       0.082114786 -0.024498485 0.033636156 0.15253173
000160 51 89 a9 bc 81 79 a1 bc 53 8e 0b 3e 4c ba 13 3c
       -0.02069536 -0.019711258 0.13628511 0.009016585
000170 7e 86 6a b9 15 e4 f0 3d 6e b4 89 3d 5e f2 a0 bc
       -0.00022366081 0.11762253 0.06723867 -0.01964682
000180 13 0f a3 bc 57 f0 a6 bc e1 62 1c 3b 65 55 62 3c
       -0.019904649 -0.020378275 0.0023862647 0.013814305
000190 e7 41 a0 3c 6d 61 cf 3c ba 77 8d 3c a8 d2 45 3d
       0.019562675 0.02531501 0.017269004 0.0482966
0001a0 1b bf c5 3d 20 1b 9c 3b 50 6d ff 3c cd 99 38 bc
       0.09655591 0.0047639757 0.031180054 -0.011267138
0001b0 4e 56 b4 3c 15 dc 36 3d d2 d2 4f 3d 6c 4f 50 3c
       0.02201381 0.04464348 0.050738163 0.012714248
0001c0 96 b7 ce 3c 60 af 89 3d a1 59 f2 3b a1 92 5c 3d
       0.025234025 0.06722903 0.0073959385 0.053850774
0001d0 63 3b f8 3b a5 37 40 3b b4 3c 17 3c b2 8e 88 3d
       0.007575439 0.0029330042 0.009230781 0.06667842
0001e0 7b cf f2 bc 90 d2 ae 3c 90 66 d0 3b 30 12 27 3c
       -0.02963995 0.021340638 0.0063598827 0.010197207
0001f0 3f a8 6d bd 2c 5a 94 bb 0a c0 91 3d 15 2d c2 bc
       -0.05802178 -0.004527351 0.07116707 -0.023703137

fc2.weight f4 [64, 128]
000000 f0 39 1a 3e d4 90 27 bd 8a ea d7 3d 37 7a 3e be
       0.15061164 -0.040909603 0.10542782 -0.18601309
000010 f9 ba e3 bd a7 c9 a7 bd 34 66 02 3d bd f7 1a be
       -0.111196466 -0.08192759 0.03183575 -0.15133567
000020 b8 e0 f7 bd 5b 23 b2 bd bc f1 a0 bd c7 e9 f5 3d
       -0.121034086 -0.0869815 -0.07858607 0.1200748
000030 75 e3 01 bc 22 84 56 bd cb fd 45 be d5 28 a0 bd
       -0.007927765 -0.052372105 -0.19335096 -0.07820288
000040 bc 62 2f 3d ee c6 4a bd b9 0e 0a be 8c 3d 1e be
       0.04281877 -0.04950612 -0.13482179 -0.15453166
000050 61 de 07 be ce bf 4a be 45 54 e6 bc 02 c3 ca 3d
       -0.13268425 -0.1979973 -0.028116355 0.09900476
000060 21 3b 61 bc 96 dc 65 3d 6b 5a 8f 3c db a4 90 3d
       -0.013747008 0.05611857 0.01749917 0.07062694
000070 3d 68 83 3d 02 be 4d be 7d 56 a1 bd 5b ca 42 3e
       0.06416366 -0.20092013 -0.078778245 0.19022505
000080 d0 83 2f bd c3 c0 da bd e2 b9 cf 3c 30 64 aa bc
       -0.042850316 -0.10681298 0.02535719 -0.020799726
000090 26 93 d8 bd ae e9 4c 3e 5f fe d6 3d f3 33 0e be
       -0.10574941 0.20011017 0.10497736 -0.13887005
0000a0 d1 a4 c3 bd bc 9c e2 bd ff 75 2a be e3 78 19 be
       -0.095529206 -0.11065051 -0.16646574 -0.14987521
0000b0 17 67 5b 3d 77 48 ba bd bc 56 51 bd e2 1a b8 bc
       0.05356511 -0.09095853 -0.051108107 -0.022473756
0000c0 03 04 14 be 89 03 8d 3c be fe 28 3d 73 d9 20 be
       -0.14454655 0.0172136 0.041258566 -0.1570795
0000d0 9a 3e c0 3d 19 75 86 bd 16 49 38 be d9 36 8e 3b
       0.0938694 -0.06565303 -0.1799663 0.0043400344
0000e0 8e d4 11 be b0 74 03 be cb d2 2e be 5c 00 07 3c
       -0.1424124 -0.12837481 -0.17072599 0.008239832
0000f0 a0 23 64 3c 70 d6 1c 3d 45 41 cd 3d 41 86 b8 3d
       0.013924509 0.03829044 0.10022215 0.09009982
000100 f6 6f 42 be 76 16 d6 3d 28 9b 80 be 28 97 13 be
       -0.18988022 0.10453503 -0.25118375 -0.1441313
000110 6c 0c dc 3c 50 45 a0 3d 7d 22 0b bc a2 64 8e bd
       0.026861392 0.0782572 -0.008492109 -0.06952788
000120 0e c5 bb bc f8 8d f9 bd 79 d4 77 be d8 7d ca 3d
       -0.022921111 -0.121852815 -0.24202146 0.09887284
000130 1e 05 24 3e bd 29 97 3d 12 0f 13 3e 0f c0 96 bd
       0.16017577 0.07381008 0.14361218 -0.07360851
000140 45 16 00 3d bd 92 6d 3d c6 7a 87 3e a4 ab c3 bd
       0.031271238 0.05800127 0.26460856 -0.09554222
000150 92 f5 c3 3d 3f 80 79 3d 07 36 04 3d 4a 71 7b 3d
       0.09568323 0.06091332 0.032278087 0.061387338
000160 51 00 4f 3b a3 cf 8a 3d 0a 4d 3f 3e 2b f3 0a 3e
       0.0031585882 0.06777885 0.18681732 0.13569324
000170 64 98 90 3c ab cc 4f bc ce 60 f9 bc c4 86 82 3d
       0.01765079 -0.012683074 -0.030441668 0.06373361
000180 eb 17 bb bd b2 f4 38 be 1d 09 f9 bd 40 25 24 3c
       -0.09135421 -0.18062094 -0.12159941 0.010018647
000190 f1 f0 28 be 09 8b 2b 3e 94 0d 88 3d 3a 35 a3 3c
       -0.16498162 0.16752256 0.06643215 0.019922841
0001a0 77 8a 46 be 0b f6 73 3d 0f 04 0d 3d ee 6b 87 3b
       -0.19388758 0.059560817 0.0344277 0.0041327393
0001b0 d0 d5 81 3d a3 80 d5 bd 8a a2 40 bd 8c 46 76 3d
       0.063396096 -0.10424926 -0.04703001 0.060125872
0001c0 1f 5f bc 3d 64 f0 dd 3d c8 b3 1a be 97 7f c5 bd
       0.091978304 0.108368665 -0.15107644 -0.096434765
0001d0 dc bf 6f 3b 2d 47 02 3e 88 b7 11 be 6f 3c 57 be
       0.0036582863 0.12722464 -0.14230168 -0.21019147
0001e0 9a 3c ee bc a2 b1 77 be 01 2b 02 be dd c7 12 3e
       -0.029081631 -0.24188855 -0.12711717 0.14334054
0001f0 b3 5c 3d 3d fa 37 37 bc 42 ac 3a 3c 32 21 30 be
       0.046230983 -0.011182779 0.0113936085 -0.17200163
000200 95 b0 18 be db 81 c5 bd db 78 d4 3d 27 39 4a 3d
       -0.1491111 -0.096439086 0.10374614 0.04937091
000210 cc ff 7a bd 4d 24 28 3e ab 20 6a be bb 42 97 be
       -0.061279103 0.16420098 -0.22864024 -0.295431
000220 41 87 94 be 35 6c 30 3e 4c 81 26 be b3 d3 4c be
       -0.2900944 0.17228778 -0.1626026 -0.20002632
000230 94 f4 60 3e 6f da cb 3d 07 9c 0c be 7e 97 85 ba
       0.21968299 0.09953772 -0.13731395 -0.0010192243
000240 c2 62 1d 3e 31 c8 2c bd 5a 06 a7 bd f6 0e 56 3e
       0.15369704 -0.042183105 -0.08155508 0.20904145
000250 a5 a3 77 3d ac c7 8c 3d bc f6 7d 3d 89 62 b7 bd
       0.060458798 0.06874022 0.062002882 -0.08954341
000260 22 3d 0d be 11 da 71 bd 63 b7 54 3e a1 a8 25 3e
       -0.13792852 -0.059045855 0.20773081 0.16177608
000270 91 94 de bc 37 95 fc bc 87 61 86 3e fc 48 f8 3d
       -0.027170451 -0.03083287 0.26246282 0.12123296
000280 dc 2e a8 3d 85 a5 d3 bb 76 e3 b0 3d d4 b4 d5 3d
       0.08212063 -0.0064589405 0.08637135 0.10434881
000290 79 35 a9 3d 51 ae 13 3e 34 1a 30 bc b1 bb 0b 3e
       0.08262152 0.14421965 -0.010748435 0.13645817
0002a0 96 11 34 3e 9b 63 ff 3d a8 1f 2c be 22 87 2b 3e
       0.17584834 0.1247017 -0.16808951 0.16750768
0002b0 f3 d9 34 3e b3 60 c8 bd 9a b5 37 be 31 e7 c1 bd
       0.17661266 -0.09784069 -0.17940369 -0.094679244
0002c0 c2 95 14 3e 0c 23 a2 3e fb 3e cb 3d 82 7c e2 3d
       0.14510253 0.31667364 0.09924122 0.11058904
0002d0 aa 11 68 3d da df 8e 3c 63 83 6a be f1 0a 17 be
       0.05665747 0.017440725 -0.22901683 -0.14750268
0002e0 90 9d df bd c6 93 84 bb a3 78 bf 3c 8a 9e c0 3c
       -0.109187245 -0.0040459363 0.023372954 0.023513097
0002f0 1c 5c 1f 3e 44 12 86 3e fd 3a 1c be d2 b6 0a bd
       0.1556248 0.2618581 -0.15256877 -0.033865757
000300 32 a3 84 3e df b5 be bb 9c 12 19 be d2 57 a8 3e
       0.25905758 -0.0058200206 -0.14948505 0.32879502
000310 b3 ee e2 bd 5d 77 63 bc 84 41 fd 3c c8 6b 2a 3e
       -0.110806845 -0.013883439 0.03091503 0.16642678
000320 2f 66 97 3c 5a 42 a0 bd 9a d5 04 be bc 7d e5 bc
       0.018481342 -0.078251556 -0.12972108 -0.028014056
000330 ee a6 5c 3e 6c a2 7c be 91 6a f1 3d e3 67 73 be
       0.21548054 -0.24671334 0.11787904 -0.23770098
000340 6f 8b 14 3c 54 96 67 3e 42 4d c9 3e 17 6e 08 3d
       0.009066447 0.2261594 0.39316756 0.033308115
000350 5d ee 55 3c e1 3a 6c be 73 77 65 be 0e 96 b9 3e
       0.0130573185 -0.23069336 -0.22408848 0.36247295
000360 54 3b 96 3d 1c ed 6a be 53 1d 87 3e de 5f df 3d
       0.07335535 -0.22942013 0.2638956 0.10906957
000370 ca 36 b7 3d 00 2a 0f bd 4c c9 2d bd 25 bb 75 3d
       0.08945997 -0.034952164 -0.0424283 0.059992928
000380 4f 1c c3 bc 0e 85 a8 3e 6b e0 77 be f0 1c 8f bd
       -0.02381721 0.32914013 -0.24206702 -0.06987941
000390 7c ac c1 3e 02 5f 68 3e de eb 3a 3c d7 a9 ac bd
       0.37826908 0.22692493 0.011408774 -0.08430832
0003a0 c1 c0 b0 bd ee 6d c1 bc 67 7c a6 be 6d 40 d6 bd
       -0.08630515 -0.023611989 -0.32516786 -0.10461507
0003b0 ff 15 d6 3d b3 47 2c 3d aa 85 95 3e b8 a4 3b 3e
       0.10453414 0.042060565 0.2920354 0.18324554
0003c0 75 9a a5 bd 8a e7 09 be f8 43 47 be 58 a8 fc 3d
       -0.08086101 -0.13467231 -0.19459522 0.123367965
0003d0 e8 51 34 be cc b6 26 bd a7 b7 f9 bc 3b cc a4 bd
       -0.1760937 -0.040701672 -0.03048308 -0.08046766
0003e0 78 41 0d be 69 2b 92 3b 57 aa cf 3d 77 02 0d bd
       -0.13794506 0.0044607413 0.101399116 -0.03442618
0003f0 cd 46 93 bc de 75 dc 3d 36 83 53 3c 10 de c2 3e
       -0.017978096 0.10764669 0.012909701 0.38060045

fc2.bias f4 [64]
000000 36 e7 55 bc 71 fa a7 3d b4 0f 71 3b 90 fc 82 3c
       -0.013055613 0.08202065 0.0036783041 0.015989572
000010 d8 6e b9 3c ad ab d7 bc bc 51 f9 3b d6 a1 e4 bc
       0.022635862 -0.026326979 0.0076086204 -0.0279092
000020 b5 fa 13 bc 96 59 44 3d 6b b3 8b 3a b4 cc 4b 3c
       -0.009031941 0.047937 0.0010658329 0.012438942
000030 9d a7 9c bc 0f 8e 09 3e 3a 1c c8 bc d7 be 90 3d
       -0.019122893 0.13433097 -0.024427522 0.0706765
000040 66 49 57 3d 9d b3 91 3d 12 d4 68 bc 90 2d 06 3b
       0.052560233 0.07114337 -0.014210718 0.0020473935
000050 44 90 13 bc ff e5 08 3d 75 e5 57 3c 8f d7 af 3c
       -0.009006564 0.033422466 0.013177265 0.021465091
000060 80 a2 1a bc 58 cc 8e 3b 52 cf db 3c cd e7 83 bc
       -0.009438157 0.0043578558 0.026832256 -0.016101742
000070 5d 54 a3 3c 77 6f d2 bc d7 6b 35 bb 8e 92 8e bc
       0.019937688 -0.025687916 -0.0027682686 -0.017403867
000080 35 a4 e2 3c a1 fe bc 3c 6e 3d 0a 3d 30 f9 33 3d
       0.02766619 0.023070635 0.03374999 0.043938816
000090 4c cb b5 3b 38 32 92 bb 6d 32 17 3c 48 56 23 3d
       0.0055479165 -0.004461553 0.009228331 0.039877206
0000a0 24 fa a6 3d 17 90 24 3d 0a 82 22 bc b6 76 33 3d
       0.08153179 0.040176477 -0.009918699 0.043814383
0000b0 71 1e 6f 3c 1f 83 08 bd 63 3f d6 bc 28 dd 68 3d
       0.01459466 -0.03332817 -0.026153272 0.056851536
0000c0 f8 6b 06 bb fc e8 a8 3c b8 fd 8f 3d 95 4b 92 3d
       -0.0020511132 0.020618908 0.07030815 0.071433224
0000d0 41 02 49 bb c4 a6 85 3d 9b 4b 3a 3d 38 fc 1b 3d
       -0.003067151 0.06525949 0.04548226 0.03808233
0000e0 d0 34 73 bc 9c f7 57 b9 3e f1 a6 bb 87 2d 63 3d
       -0.014844134 -0.0002059624 -0.0050946763 0.05546334
0000f0 4e 5a 90 3d 07 da 82 3b 52 b9 a5 ba e4 4f 94 3d
       0.07048474 0.003993276 -0.0012643731 0.072418004

fc3.weight f4 [10, 64]
000000 da cb f0 bd 33 fa a4 be ca f3 22 3e b4 6d 3d be
       -0.117576316 -0.32222137 0.1591331 -0.1849888
000010 fe 25 49 bc f2 2a d2 bd 45 97 6f be f4 c6 53 be
       -0.012277124 -0.102620974 -0.23397548 -0.20681363
000020 c9 04 aa 3e cb ce ff be f8 cd 28 bd c0 12 94 be
       0.33206776 -0.49962458 -0.041212052 -0.28920555
000030 1e 0d 0a bf b5 c3 0b be 01 cd 2a be 0e b6 02 bf
       -0.53926265 -0.13648875 -0.16679765 -0.51059043
000040 48 4b 7a 3c 51 df b4 3d e1 2f 47 be 9f c3 b2 3d
       0.0152767375 0.08831657 -0.19451858 0.08728718
000050 fb 7d 7b be 30 83 a8 3d 21 70 1b 3e a3 50 ed 3d
       -0.24559776 0.08228147 0.15179493 0.11587646
000060 e6 56 f5 bb 05 8b 75 3e 22 43 35 3d 95 2e a7 3d
       -0.0074871657 0.23978813 0.044253476 0.08163182
000070 e0 7c 78 bd 51 f8 84 3e a9 58 06 bc a7 0b 78 bd
       -0.060665965 0.259707 -0.008199849 -0.060557988
000080 9d 6d 1b 3e 82 22 b8 3d f2 13 24 be 25 54 11 3d
       0.15178533 0.08990957 -0.16023234 0.035480637
000090 d5 46 0b bd 0a 91 43 3e d1 81 38 bd cf 9a fc 3e
       -0.034003098 0.19098297 -0.045045678 0.4933686
0000a0 82 85 8d be 94 5d 0b 3e 7f 96 72 be 12 3e 88 3b
       -0.2764092 0.13609916 -0.23690222 0.00415779
0000b0 79 89 07 3e 4a 69 e8 3e 43 d1 82 bd c5 61 2a be
       0.13236035 0.4539283 -0.0638757 -0.16638859
0000c0 a2 79 36 bd d5 c8 7c 3e 1a d8 a1 be 74 f2 03 3d
       -0.04454959 0.24685986 -0.31610185 0.032213643
0000d0 42 ef 83 3e 9e e5 0f 3d fd 31 92 3f 70 1e 72 3e
       0.25768477 0.03513109 1.1421505 0.23644423
0000e0 59 94 04 be 53 df 82 3c f0 ba cc 3e 25 5c 82 be
       -0.12947215 0.01597563 0.39986372 -0.25460926
0000f0 96 b7 3b be e7 a5 bd 3e b7 ec 6b bd 39 10 9a be
       -0.18331751 0.37040636 -0.057598796 -0.30090502
000100 9c a9 2d 3e 0b 7a 29 3f 89 e2 04 3d 5c 5f 9f 3d
       0.16959232 0.6620185 0.032442603 0.0778186
000110 97 f4 e5 bd c1 88 8e 3d 64 57 00 3f 46 37 72 bd
       -0.112282924 0.069596775 0.5013335 -0.059134744
000120 a2 64 c6 bd c6 ec bc 3e 0a 34 eb 3e 59 e3 1b bd
       -0.09687163 0.36899394 0.4593814 -0.038058612
000130 9b 20 f0 3d a9 10 32 3f 2d 12 a8 3d f3 10 57 bf
       0.11724969 0.6955667 0.08206592 -0.8401024
000140 8f ea b7 be e1 30 9c 3e e5 a1 dd bd d7 87 be 3d
       -0.35921142 0.30506042 -0.108218946 0.09303253
000150 cd 0d a7 3d e4 04 93 3d c4 00 fc bb 72 20 60 be
       0.08156929 0.07178667 -0.007690521 -0.21887377
000160 9a c7 c8 be 4b ab e4 be 72 c5 39 3e fc 72 39 3e
       -0.39214784 -0.44661936 0.18141726 0.1811027
000170 09 0c 89 3e e2 4e 2d bd e8 76 a8 bd 99 74 9c 3e
       0.26766995 -0.042311557 -0.082258046 0.30557707
000180 b3 84 18 3d 99 85 1b bd 77 71 ca 3c b7 c7 5f 3e
       0.037235927 -0.037969206 0.024712307 0.21853529
000190 d5 7f 0d 3e b3 ee a6 3e 81 aa 53 be 9d af ef be
       0.13818295 0.32603988 -0.20670511 -0.4681367
0001a0 2a 90 c8 be 19 35 af 3e 87 be 81 3c 8e d6 15 be
       -0.39172488 0.34220198 0.01583792 -0.14632627
0001b0 89 44 34 3b 40 1f 36 be 3f 7b 52 bd 2f 07 ec 3c
       0.002750667 -0.17785358 -0.051387068 0.02881202
0001c0 65 d3 89 bd bf 80 8c be d2 3c 16 bf ba ad 0a 3f
       -0.067297734 -0.27441975 -0.58686554 0.54171336
0001d0 9e cf c0 bd 1f 5b 94 be 62 a8 c4 be 1e 08 12 3e
       -0.094146 -0.2897577 -0.38409716 0.14260909
0001e0 6b 08 9e 3e 48 1c 08 be e0 53 94 3e 55 a3 17 3e
       0.30865797 -0.13292038 0.28970242 0.148084
0001f0 a4 d4 31 3d 21 32 19 be ae b6 63 3d 6f 1f 88 3e
       0.04341568 -0.14960529 0.05559414 0.26586482
000200 80 0b 4f 3e 6e fe 8b be c0 95 29 be 3d 36 90 3e
       0.2021923 -0.27342552 -0.16561031 0.2816638
000210 8a fc 47 3e 1d 87 41 be f8 5b c0 be d9 b1 f1 bd
       0.1952993 -0.18899198 -0.37570167 -0.118015
000220 77 a4 08 be 18 0f 60 3e 28 47 12 3f e4 cb 5f 3d
       -0.13343988 0.21880758 0.57139826 0.054637805
000230 6d fe b1 3d 80 76 45 bf d4 ac f1 3e 37 cb 3e bf
       0.08691106 -0.7713394 0.4720217 -0.7452883
000240 a7 ab a8 3e 11 52 5d 3e b5 b6 35 be e7 80 4b bd
       0.3294346 0.21613337 -0.17745478 -0.049683478
000250 ce b0 8d 3e a9 cf a7 3e 97 4d 13 3d fc 39 08 bf
       0.27673954 0.3277562 0.035962667 -0.5321348
000260 cc eb 25 3e 44 1c 03 3f c7 8d 53 be 36 82 a1 3e
       0.1620323 0.51215005 -0.20659553 0.31544656
000270 61 d9 b7 bd 83 7b 71 be 9a bb 63 3d 8f 04 42 be
       -0.089770086 -0.23582272 0.055598833 -0.18947051
000280 a3 75 f2 3e 12 3a 07 bf d3 2a dc be e7 b5 2a bc
       0.47355375 -0.52822983 -0.43001422 -0.010419345
000290 8d a1 18 3e d3 6f 3b 3d ae 56 1c 3f c5 fa d8 be
       0.14905377 0.04576094 0.6106976 -0.42378822
0002a0 42 df aa be 74 9f fc bc 8f 50 20 3d 03 0c 7d 3e
       -0.33373457 -0.030837752 0.039139327 0.24711613
0002b0 1b 11 90 be 4f 53 22 be 3d b8 1e 3d af 45 b2 bd
       -0.2813805 -0.15852092 0.038749922 -0.08704697
0002c0 32 65 db 3e 04 d3 8b 3b ac 52 1c bf bf 01 ad be
       0.42850643 0.0042670984 -0.6106365 -0.33790395
0002d0 cc af fd bd 36 bc 0f 3f cd 64 38 be f7 67 01 3e
       -0.12387046 0.5614656 -0.18007202 0.12637316
0002e0 e2 83 a8 be 6f 6f 14 be 25 26 31 3f a7 4a 45 3e
       -0.3291312 -0.14495634 0.6919883 0.19266759
0002f0 c5 23 19 3f 2b 77 05 3d 1f 6b 10 3e 94 11 85 3c
       0.59820205 0.03258435 0.14103363 0.016243733
000300 13 9f 77 3e c5 33 d0 3e 40 71 98 3e 35 63 58 3e
       0.24181776 0.40664497 0.29773903 0.21131594
000310 5d 1b 21 3d 9d aa 01 bf 98 d6 04 3f 66 04 b5 3e
       0.039332736 -0.5065096 0.51889944 0.35354918
000320 31 5c 99 3e 88 6e 16 3e d8 28 a2 3e 22 c3 48 3e
       0.2995315 0.14690602 0.31671786 0.19605687
000330 ab db d8 3e cf b1 4e bf d0 f8 b7 3e a2 39 97 bd
       0.42355093 -0.80740064 0.35932016 -0.073840395
000340 97 43 02 3e d2 78 f7 be 78 b2 63 3e 37 04 fd 3d
       0.12721096 -0.48334366 0.22236049 0.123543195
000350 70 5c cf 3e 74 58 83 bd c7 30 03 3d 34 12 ac 3e
       0.40500212 -0.064133555 0.03202894 0.33607638
000360 65 06 9a be 9e 73 5e 3d 83 12 5f 3e d1 7e 22 3e
       -0.30083004 0.05430948 0.21784405 0.15868689
000370 0d e6 34 3d 78 29 5d 3f 7d 38 d7 bd f4 7a d8 3e
       0.044164706 0.863914 -0.10508821 0.42281306
000380 3b cc 45 be d9 56 5f be 68 b8 30 be 56 66 98 3e
       -0.19316189 -0.21810474 -0.17257845 0.29765576
000390 9e 2b 08 3e 38 9f e7 bd db f9 ec 3b 61 be 44 bf
       0.13297889 -0.113096654 0.0072319335 -0.76852995
0003a0 e6 b2 00 bf 04 af d5 3d cb 77 ae 3d 86 28 91 be
       -0.5027298 0.10433772 0.085189424 -0.2835123
0003b0 c4 1d cd 3d fb ae ed 3e a6 24 8c 3e 1a 4b 93 be
       0.10015443 0.46422562 0.2737171 -0.28768235
0003c0 3a e7 96 3c 59 c0 d8 3e 8f 48 f1 3e 0f 3e 0d bf
       0.018420804 0.4233425 0.4712567 -0.5517282
0003d0 40 4f a0 3d f3 e4 2c bf a1 61 17 bf d3 cf 94 3d
       0.07827616 -0.6753685 -0.59133345 0.07266202
0003e0 66 01 88 3d c8 69 9c 3d 18 72 84 be 80 76 30 3d
       0.06640892 0.07637364 -0.25868297 0.04308176
0003f0 da 1a bd bd 60 51 d8 3e 9a 44 d1 bd ae 58 b7 bd
       -0.09233637 0.42249584 -0.10218163 -0.08952461

fc3.bias f4 [10]
000000 5a 33 9b bd bf 32 24 3d 4c fd 99 3c 55 ef bb bd
       -0.07578154 0.040087458 0.01879754 -0.09176508
000010 6c f6 c5 3c ff 4f ee 3c b8 cd 26 3d c4 7e 5e bb
       0.024165355 0.02909088 0.040723532 -0.003395007
000020 b0 e4 ee 3b ca ac 30 3c
       0.0072904453 0.010783384
