best_neural_model.pth (torch, 476237 bytes, 6 tensors)

fc1.weight f4 [128, 784]
0	0xbd6354ad	-0.055500675
1	0xbcffd515	-0.031229535
2	0x3d8478a0	0.0646832
3	0xbaf6b5be	-0.0018822474
4	0xbcd97f7a	-0.026550043
5	0x3d24c7dc	0.040229663
6	0x3b2169c6	0.0024629696
7	0x3cba899e	0.0227707
8	0x3dbf0068	0.09326249
9	0xbc751338	-0.014958195
10	0xbd5a6d51	-0.05332691
11	0x3bfde228	0.007747907
12	0xbcbdca60	-0.023167789
13	0x3dc05d1b	0.093927585
14	0xbc4d24c4	-0.012520973
15	0x3d2a5f01	0.04159451
16	0x3cf54eba	0.029944766
17	0x3d5ea572	0.054357
18	0xbdc8c733	-0.09803619
19	0xbcad2687	-0.021136535
20	0xbd523c45	-0.05132701
21	0x3d56b772	0.05242104
22	0xbdd11a10	-0.10210049
23	0x3d491c9e	0.049099557
24	0xb9119df1	-0.00013887115
25	0xbc1e5add	-0.009665218
26	0x3c3b4f40	0.011432469
27	0xbc860251	-0.016358526
28	0x3da976d2	0.08274616
29	0xbd977f95	-0.07397381
30	0xbd746d20	-0.059674382
31	0x3cb830d7	0.022484226
32	0x3b52c4c3	0.0032160736
33	0xbd6d605c	-0.057953224
34	0x3aac83f4	0.0013161884
35	0xbde18e87	-0.11013513
36	0xbccb137f	-0.02478957
37	0xbb65cc55	-0.0035064418
38	0xbd4ff80a	-0.050773658
39	0xbb81f1b2	-0.00396558
40	0x3daaeaea	0.083455876
41	0x3d7a1b0e	0.061060958
42	0xbdcca8a1	-0.09993101
43	0x3c42d1c9	0.011890837
44	0x3c9c0c30	0.01904878
45	0xbdc03843	-0.09385731
46	0x3cd4f96d	0.025997842
47	0xbc8549c1	-0.01627052
48	0xbe13e778	-0.14443767
49	0x3c0f8912	0.008760707
50	0x3d44f7bf	0.04808783
51	0xbd6910fe	-0.05690097
52	0xbd15957f	-0.036519524
53	0x3d49c064	0.049255744
54	0xbdc1e5e4	-0.09467676
55	0xbceb9b92	-0.028760705
56	0x3d6ceda5	0.057843823
57	0xbbebf7cc	-0.0072011705
58	0x3dc776a9	0.097394295
59	0x3d6447af	0.055732425
60	0x3ceeb215	0.02913765
61	0x3c51f67f	0.012815117
62	0x3cee1c5b	0.029066255
63	0xbbc831a1	-0.006109432
64	0xbb47337f	-0.0030395684
65	0x3cf8b363	0.030358976
66	0x3c7e2a3d	0.015513
67	0x3dfb83b2	0.12280978
68	0xbc1b4253	-0.009476262
69	0x3d1c9552	0.03822834
70	0x3d8fbbc5	0.07018236
71	0x3de06437	0.109566145
72	0xbb5e04d4	-0.003387739
73	0x3db00f65	0.08596686
74	0xbd0fe3fd	-0.035129536
75	0x3c129f40	0.008949101
76	0x3cfe8afb	0.03107213
77	0xbd084e46	-0.033277772
78	0xbcd8467c	-0.026400797
79	0x3cb813b2	0.022470329
80	0x3c9ba12d	0.018997753
81	0xbd628f69	-0.055312548
82	0xbb9b4e72	-0.004739576
83	0xbcdd5067	-0.027015878
84	0xbd55a333	-0.052157592
85	0x3c6f857f	0.01461923
86	0xbd1ef500	-0.03880787
87	0xbd940588	-0.072276175
88	0xbce2653c	-0.027636163
89	0xbc294b9c	-0.010332968
90	0xbd0dd03e	-0.034622423
91	0x3d527ada	0.05138669
92	0x3ddb0a85	0.10695366
93	0x3d639579	0.05556247
94	0xbd7b8445	-0.06140544
95	0x3d73fcaa	0.05956713
96	0xbd58a0a7	-0.052887585
97	0x3ddbbba2	0.107291475
98	0x3e09cdc6	0.13457403
99	0x3dc3e8e8	0.09565908
100	0x3b85d763	0.004084514
101	0x3ca35606	0.01993848
102	0xbdc2951e	-0.09501098
103	0x3bb612bc	0.0055564325
104	0xbb2ff569	-0.0026849157
105	0xbd5f6b87	-0.054545905
106	0x3cea53dc	0.02860444
107	0x3cd8cee4	0.02646584
108	0x3dbb3e8d	0.0914279
109	0xbd5ff076	-0.05467268
110	0xbb94ea01	-0.004544497
111	0x3d043eb4	0.03228636
112	0xbd53587c	-0.051598057
113	0xbc862f0a	-0.016379852
114	0xbc0605e1	-0.008180113
115	0xbc9d57c9	-0.019206898
116	0x3dc06b67	0.09395485
117	0x3c468cba	0.012118513
118	0x3c0b347b	0.008496399
119	0x3cefae84	0.02925802
120	0x3d8f4662	0.06995846
121	0xbdb31942	-0.08745052
122	0x3dd08a4d	0.10182629
123	0x3dc7e779	0.09760947
124	0x3d4529c1	0.048135523
125	0x3dc7ea45	0.0976148
126	0x3c479241	0.012180866
127	0x3dc730f2	0.097261325
128	0xbd388c73	-0.045055818
129	0x3b6613e1	0.0035107064
130	0x3c74c2e7	0.014939046
131	0xbde6afb9	-0.11263985
132	0xbd75bb57	-0.059993114
133	0xbb16023e	-0.002288952
134	0x3b183f69	0.0023231155
135	0x3d3eaa0e	0.046548896
136	0xbcda0e49	-0.02661814
137	0x3c3d61dc	0.011558976
138	0xba064ff0	-0.0005123606
139	0xba2f9467	-0.0006697834
140	0xbd072881	-0.032997612
141	0x3da41244	0.080112964
142	0xbb186399	-0.0023252724
143	0x3cd86a49	0.026417868
144	0x3bddb205	0.0067656063
145	0x3dafbb9e	0.08580707
146	0xbdf52f37	-0.11971896
147	0x3d0d7b7e	0.0345416
148	0x3d2717f9	0.040794346
149	0xbdab9922	-0.08378817
150	0x3db89e35	0.090145506
151	0x3d037178	0.032090634
152	0x3d094d43	0.03352095
153	0x3d274785	0.04083969
154	0x3e0ab894	0.13546973
155	0xbc1e9304	-0.009678606
156	0x3d0a0e04	0.033704773
157	0xbc4d600b	-0.012535105
158	0xbc25ded6	-0.010123929
159	0xbd86784f	-0.06565916
160	0x3bac9f96	0.0052680476
161	0x3c0d6af0	0.008631453
162	0xbd924660	-0.07142329
163	0xba81905f	-0.0009884945
164	0x3dd06550	0.10175574
165	0xbd83cded	-0.064357616
166	0xbde2ee4d	-0.110806085
167	0x3c6ffd84	0.014647845
168	0x3cb4d034	0.022071935
169	0xbd251cd9	-0.040310714
170	0xbb1abe0d	-0.0023611814
171	0xbd0d7860	-0.034538627
172	0xbcafd1a6	-0.021462273
173	0xbb39ab30	-0.0028330795
174	0xbb679126	-0.0035334318
175	0x3ce8137f	0.028329609
176	0x393d516f	0.00018054781
177	0x3d6772c8	0.05650595
178	0x3d84332c	0.06455073
179	0xbd48e43e	-0.049045794
180	0x3e0cb1f1	0.13739754
181	0xbce738c0	-0.028225303
182	0xbd552e73	-0.05204625
183	0x3d6a0185	0.057130355
184	0x3db8a0fe	0.09015082
185	0x3bc49ef1	0.0060003926
186	0x3d03b31e	0.03215324
187	0x3df568c4	0.11982873
188	0x3d994aea	0.07484992
189	0xbd9e3450	-0.077248216
190	0xbd4e8520	-0.050419927
191	0xbbd34403	-0.0064473166
192	0x3cfd40a2	0.030914608
193	0x3d0bc5fb	0.034124356
194	0xbdc775c5	-0.0973926
195	0xbd4b9a93	-0.04970796
196	0xbdb8a7c7	-0.09016376
197	0x3d9c8f11	0.07644475
198	0xbde2989a	-0.11064263
199	0xbcc9e3d2	-0.024644766
200	0x3d48c1f9	0.04901311
201	0x3d45d530	0.048299015
202	0xbd7f87a7	-0.062385228
203	0xba75750a	-0.00093634485
204	0xbae54961	-0.0017493182
205	0xbd7424e4	-0.059605494
206	0xbaf4689c	-0.0018646899
207	0x3d846690	0.06464875
208	0x3d4b3939	0.04961512
209	0x3d14b06b	0.036301058
210	0x3d406648	0.046972543
211	0x3c87d633	0.01658163
212	0x3ca6f619	0.02038102
213	0xbcc995bb	-0.02460753
214	0xbd98307c	-0.07431123
215	0xbd853ec3	-0.065061115
216	0xbd0e659d	-0.034764875
217	0xbd11edcf	-0.035627183
218	0xba0b53e3	-0.00053149293
219	0x3d841c4d	0.064507104
220	0xbd4da90a	-0.050210036
221	0x3d05bdb8	0.032651633
222	0x3d86bcc2	0.065789714
223	0x3c46fa3b	0.0121446205
224	0xbcd6f54d	-0.026240015
225	0x3c4b9acc	0.012427043
226	0x39cbd4fd	0.00038877866
227	0x3b9b9a8f	0.0047486494
228	0x3d3e31bc	0.04643415
229	0x3d8d2ea4	0.068936616
230	0x3bee62fa	0.0072749825
231	0xbdbea5ca	-0.093089655
232	0x3d4857c7	0.048911836
233	0x3d6d535f	0.057940837
234	0x3d092d7f	0.033490654
235	0x3dbf4e1b	0.09341069
236	0x3c9a18d0	0.01881066
237	0x3d4d18b1	0.050072376
238	0x3cfa6aac	0.030568443
239	0xbd87e0c8	-0.066346705
240	0x3c5ea10b	0.0135882
241	0xbd047fb2	-0.032348342
242	0xbda621d0	-0.08111918
243	0xbdf01b40	-0.117239475
244	0xbacebfc6	-0.0015773706
245	0xbc6b6e6c	-0.014369588
246	0xbdbb8dc2	-0.091578975
247	0xbdc86ea2	-0.097867265
248	0xbcd704c3	-0.026247388
249	0x3da59566	0.08085136
250	0xbcd99d4a	-0.02656426
251	0x3bb30ca6	0.0054641543
252	0xbcebf3af	-0.02880272
253	0xbcab8be8	-0.020940736
254	0x3cd19e86	0.025588285
255	0x3c18b1d9	0.009319746

fc1.bias f4 [128]
0	0xbc2d0cc3	-0.010562125
1	0x3cf57403	0.029962545
2	0x3d370336	0.044680797
3	0x3ca1116b	0.019661626
4	0x3d0bb5fe	0.03410911
5	0xbb8ba1da	-0.0042612376
6	0x3c4f64ab	0.012658278
7	0x3cdbaa54	0.026814617
8	0x3d3c8212	0.046022482
9	0x3dcfd0c1	0.101472385
10	0x3d04a1c8	0.03238085
11	0x3d4ac1c6	0.049501203
12	0xbd1eb38a	-0.03874544
13	0x3d6d02de	0.057864062
14	0x3d98725e	0.07443689
15	0xbc602b4a	-0.013682196
16	0xbd531920	-0.051537633
17	0xbba1c3a3	-0.004936652
18	0x3d567e09	0.05236629
19	0xbcbf5799	-0.0233572
20	0x3dc750af	0.09732186
21	0x3d19b1f8	0.03752324
22	0x3dc614ff	0.096719734
23	0x3d49edeb	0.049299162
24	0x3cbe04e0	0.023195684
25	0x3d618eb9	0.05506775
26	0xbcbd1d97	-0.023085399
27	0xb95ec6e1	-0.00021245658
28	0xbc12f0ed	-0.008968574
29	0x3d12e7e6	0.035865687
30	0x3d46710a	0.048447646
31	0x3d87c042	0.06628467
32	0xbbf84f30	-0.0075777993
33	0x3b30bbd3	0.002696742
34	0x3df26132	0.11834945
35	0x3ddb1c56	0.10698764
36	0x3d9f44a7	0.07776766
37	0x3c0ddd88	0.008658774
38	0xbca8e150	-0.02061525
39	0xbbf90af2	-0.0076001817
40	0x3d020f3e	0.031752817
41	0xbc9a3657	-0.01882474
42	0xbc9334fe	-0.017969605
43	0xbcf3323a	-0.029687036
44	0x3d1dbf72	0.038512655
45	0xbd34a695	-0.044104178
46	0x3cc9be2d	0.024626816
47	0x3d28bf3a	0.041197993
48	0x3bcf8ef2	0.006334179
49	0xbbe1e83b	-0.006894139
50	0x3ce5c81c	0.028049521
51	0x3d49f086	0.049301647
52	0x3da8778c	0.08225927
53	0xbbf2b0ea	-0.0074063437
54	0xbd88c9e2	-0.06679131
55	0x3cf6db35	0.030133823
56	0xbd0758fd	-0.03304385
57	0x3d0965fd	0.03354453
58	0x3bda1d97	0.0066563594
59	0x3da41521	0.080118425
60	0xbd3f16e5	-0.046652693
61	0x3b055e3b	0.0020350355
62	0x3df5e585	0.12006668
63	0xbcc99e42	-0.024611596
64	0x3d93ecbd	0.072228886
65	0x3d0ecfee	0.034866266
66	0x3d39aff5	0.04533382
67	0x3c86c480	0.01645112
68	0xbc2c7827	-0.010526693
69	0x3d099e3a	0.033598162
70	0x3c888576	0.016665202
71	0x3cf8208b	0.030288955
72	0x3dea672e	0.11445461
73	0x3c33c9c7	0.0109734
74	0x3b91c8af	0.004448972
75	0x3d08bd1e	0.03338348
76	0x3db9fb65	0.09081153
77	0x3c3ee106	0.011650329
78	0x3c1b8645	0.009492462
79	0x3c96ab80	0.018392324
80	0xbaff9896	-0.001950043
81	0x3da79540	0.08182764
82	0xbc4f52ed	-0.012654048
83	0xbc9a4ba6	-0.0188349
84	0x3b3e3fc9	0.0029029718
85	0xbc5c51d7	-0.0134472465
86	0x3ca1ad4d	0.019735957
87	0xbb85a176	-0.0040780855
88	0x3cdc3da1	0.026884856
89	0x3d81433f	0.06311654
90	0x3bda38c1	0.0066595976
91	0x3d083320	0.03325188
92	0x3cce5357	0.025186224
93	0x3bb1a769	0.005421568
94	0x3c7759f3	0.015097129
95	0x3cc8a043	0.024490481
96	0xbd47f64d	-0.048818875
97	0xbce3cb42	-0.027806882
98	0xbd1321d4	-0.035920933
99	0x3d20e312	0.03927905
100	0x3d2fb95b	0.042901378
101	0x3df87737	0.121321134
102	0x3c79233b	0.0152061535
103	0x3d1d04fc	0.03833483
104	0x3d90754d	0.07053623
105	0xbd1b3bb8	-0.03789875
106	0x3dc9581f	0.09831261
107	0xbb6adbe1	-0.0035836624
108	0x3d5625fb	0.052282315
109	0xbc4a86dd	-0.0123612555
110	0x3a9af0a5	0.0011820985
111	0xb948fd6d	-0.00019167895
112	0x3cddaa39	0.027058708
113	0xbd82e16a	-0.063906506
114	0x3cf5eae4	0.030019231
115	0xbc53ae32	-0.012919949
116	0x3cd57e50	0.026061207
117	0x3d925b20	0.07146287
118	0x3c8bf276	0.017083388
119	0xbc15e92c	-0.009149831
120	0x3aae483f	0.0013296677
121	0x3b8bf918	0.0042716376
122	0x3cac1193	0.021004474
123	0x3d844655	0.06458727
124	0x3d6674fc	0.05626391
125	0x3d93c35a	0.07214995
126	0x3c3fc899	0.011705541
127	0x3d3c99ff	0.0460453

fc2.weight f4 [128, 128]
0	0xbd3279f7	-0.043573346
1	0xbc8af9fe	-0.016964909
2	0xbdcb3f4f	-0.099241845
3	0x3d826937	0.063677244
4	0xbdd12066	-0.10211258
5	0x3c64b892	0.013960021
6	0xbd41d65d	-0.047323573
7	0xbde70576	-0.112803385
8	0xbe01e255	-0.12683995
9	0x3e12b830	0.14328074
10	0x3e03d93d	0.12875839
11	0x3bd47551	0.006483712
12	0xbe3cdd77	-0.18443857
13	0x3c8d49dd	0.017247135
14	0x3d88d501	0.06681252
15	0xbd9c616d	-0.0763577
16	0xbcd093f4	-0.025461175
17	0xbc9c08f7	-0.019047244
18	0x3def3175	0.11679355
19	0x3c401064	0.011722658
20	0x3e7a41e6	0.24439201
21	0xbdbfb59d	-0.09360812
22	0xbd07a696	-0.033117853
23	0xbe0328f8	-0.12808597
24	0x3e28851a	0.16457024
25	0xbd5563d4	-0.052097157
26	0x3cb0e355	0.021592775
27	0xbe729eed	-0.23693438
28	0x3dc7f6b4	0.09763852
29	0x3e031fdb	0.1280512
30	0xbde6013f	-0.112307064
31	0xbe4c6378	-0.1995982
32	0x3b10f6f4	0.0022119852
33	0x3c889361	0.016671838
34	0x3cd58c47	0.026067866
35	0x3db6895e	0.089129195
36	0xbd819841	-0.06327868
37	0x3e179c39	0.14805688
38	0xbd7db190	-0.061936915
39	0x3e4eedcf	0.20207904
40	0x3e5c3208	0.2150346
41	0x3dcc2d94	0.09969631
42	0x3e5d6563	0.21620707
43	0xbd86e6da	-0.06587
44	0x3dd38745	0.10328535
45	0xbe9475a6	-0.2899601
46	0xbd8fc195	-0.07019345
47	0x3e05388b	0.1300985
48	0x3d2ca2dd	0.042147506
49	0x3dce1823	0.100631975
50	0x3e78ff5f	0.24316166
51	0x3e80b4ff	0.2513809
52	0x3e459562	0.19295266
53	0x3df22aa4	0.11824539
54	0x3e72c22e	0.23706886
55	0x3d08d1ce	0.03340321
56	0xbe44f0e1	-0.19232513
57	0x3dfff811	0.12498487
58	0x3d29d75f	0.04146516
59	0x3db3a910	0.087724805
60	0xbd875804	-0.066085845
61	0xbc2d82e5	-0.01059029
62	0xbde64a78	-0.112446725
63	0x3dc46cd2	0.09591068
64	0xbe05087c	-0.12991518
65	0xbd260377	-0.040530648
66	0x3e18b7ff	0.14913939
67	0x3cf6b5cb	0.030115983
68	0xbdeb16cf	-0.1147896
69	0xbbe99cc5	-0.007129284
70	0xbc50d92e	-0.012747092
71	0xbd0ac641	-0.033880476
72	0xbcf23b65	-0.029569337
73	0xbe448eea	-0.19195142
74	0x3e8761ab	0.26441702
75	0x3d529cc7	0.051419046
76	0x3cbe2e15	0.023215333
77	0x3e2626fc	0.16225809
78	0xbd45bf48	-0.048278123
79	0x3de00bae	0.10939728
80	0xbe2daab3	-0.16959648
81	0xbeac332b	-0.33632788
82	0x3dce1419	0.10062427
83	0xbe1deff6	-0.15423569
84	0xbea1014f	-0.3144631
85	0x3dc0f6f5	0.09422103
86	0xbccdf0ba	-0.025139201
87	0x3e528d47	0.20561706
88	0xbe81bdbf	-0.25340077
89	0xbe001e98	-0.1251167
90	0xbd493148	-0.049119264
91	0x3e0ef4fd	0.13960643
92	0x3d6b5411	0.05745322
93	0x3ea1a539	0.31571367
94	0x3e2276eb	0.15865676
95	0xbcc39fcc	-0.023879908
96	0x3eaf844e	0.34280628
97	0x3d8f419f	0.06994938
98	0xbe1b1f69	-0.15148701
99	0x3d152e95	0.036421377
100	0xbd58e954	-0.052956894
101	0x3d8882b1	0.066655524
102	0xbd480073	-0.048828553
103	0x3e8de287	0.2771189
104	0x3d4754ea	0.048664965
105	0x3c9e1249	0.019295828
106	0x3d34c90b	0.044137042
107	0x3c5ee107	0.013603455
108	0x3d9da30e	0.07697116
109	0x3db9c3fc	0.09070584
110	0x3d166d52	0.03672535
111	0x3da9e15e	0.082949385
112	0x3c94e20e	0.018174198
113	0xbdd53b7e	-0.10411738
114	0x3e139ddf	0.14415692
115	0xbda9db5f	-0.08293795
116	0x3e918656	0.28422803
117	0xbe27cfb1	-0.16387822
118	0xbe3cc1b0	-0.18433261
119	0xbd260c80	-0.040539265
120	0xbde9adfe	-0.114101395
121	0xbd3d7de7	-0.046262648
122	0xbd63bdd4	-0.055600956
123	0x3d156840	0.036476374
124	0x3e328dfe	0.17436978
125	0x3c04a70f	0.0080964705
126	0x3ddf1275	0.10892192
127	0x3de923e6	0.113838
128	0xbda8d465	-0.08243636
129	0x3ead0941	0.33796123
130	0xbdb658c6	-0.08903651
131	0xbdd96440	-0.10614824
132	0x3e859e31	0.26097253
133	0xbcb6f569	-0.022333818
134	0xbdf9f6de	-0.12205289
135	0x3b91992f	0.0044433097
136	0xbd193f81	-0.037414078
137	0xbdf70f33	-0.12063446
138	0x3e44839f	0.19190834
139	0x3cc2972b	0.023753723
140	0xbce5076c	-0.02795764
141	0xbdba6106	-0.09100537
142	0x3da8e654	0.082470566
143	0x3d75ac62	0.05997885
144	0xbd4129a2	-0.047158845
145	0x3dd7740c	0.10520181
146	0x3e2a0cf2	0.166065
147	0x3d784713	0.060614657
148	0xbd516976	-0.051125966
149	0xbdb4eb4b	-0.08833941
150	0x3b888c7b	0.004167137
151	0x3d14f6bd	0.03636812
152	0xbdb483f3	-0.0881423
153	0x3db401bb	0.087893926
154	0xbd5824e2	-0.05276955
155	0xbdea1640	-0.11430025
156	0xbe12d589	-0.1433927
157	0x3c8cd8fd	0.017193312
158	0x3dacc761	0.08436466
159	0xbd728198	-0.05920562
160	0x3d148408	0.036258727
161	0xbd5b18d1	-0.053490464
162	0xbde1ef95	-0.11032025
163	0xbe396445	-0.18104656
164	0x3d8e1116	0.06936853
165	0xbcfffe55	-0.031249205
166	0xbe7ebf5a	-0.24877682
167	0x3dea23d7	0.11432617
168	0xbe579847	-0.21054183
169	0x3d9fca3d	0.07802246
170	0xbdd9f66b	-0.106427036
171	0xbe6c6a85	-0.23087509
172	0xbdefcec6	-0.11709361
173	0x3e3f672a	0.18691698
174	0x3dadddb5	0.08489553
175	0x3e00e55d	0.12587495
176	0xbd0e58e5	-0.034752745
177	0x3dffe4ad	0.12494788
178	0xbd8efbf7	-0.06981652
179	0xbd46005b	-0.048340183
180	0x3cbbf92d	0.022945965
181	0x3dcd0a5f	0.10011744
182	0x3e2ab050	0.1666882
183	0x3e8f4b89	0.27987316
184	0x39e465e9	0.00043563478
185	0xbe00f689	-0.12594046
186	0xbdd20a3e	-0.1025586
187	0x3d5231c4	0.05131699
188	0xbe05477e	-0.13015553
189	0x3c66719d	0.014065173
190	0xbdab6331	-0.08368529
191	0xbce55b13	-0.02799753
192	0x3d9fb1f8	0.07797617
193	0x3aba4074	0.0014209882
194	0x3c8e3c87	0.017362846
195	0xbd877103	-0.06613352
196	0xbe693567	-0.22774278
197	0xbb4e262c	-0.0031455858
198	0x3c67053e	0.014100371
199	0xb93ce44d	-0.00018014126
200	0x3df81058	0.12112492
201	0x3e2df209	0.1698686
202	0xbdbba944	-0.09163144
203	0x3e04a919	0.1295513
204	0xbdf7373c	-0.12071082
205	0xbe13a917	-0.14419971
206	0xbe127497	-0.14302288
207	0x3d5cef32	0.053939052
208	0xbdcc0a24	-0.09962872
209	0xbe0806df	-0.13283871
210	0x3d2bd7a1	0.041953687
211	0x3cdccca4	0.026953049
212	0xbe7389a0	-0.23782969
213	0xbe5a9be8	-0.21348536
214	0x3c2f4a48	0.010698862
215	0x3e03092a	0.12796465
216	0x3d1ebfd8	0.038757175
217	0x3df21131	0.11819685
218	0x3c9c8921	0.019108357
219	0x3da258b6	0.079270765
220	0x3cd3a358	0.025834724
221	0xbcb8f6b7	-0.02257858
222	0xbd0e9bff	-0.03481674
223	0xbdadcf80	-0.08486843
224	0xbd9a35a9	-0.07529766
225	0x3d5724ed	0.05252545
226	0xbd48e5b7	-0.0490472
227	0x3ddbd996	0.107348606
228	0x3d59f95f	0.053216334
229	0x3ba46449	0.0050168377
230	0xbd626099	-0.055267904
231	0xbde87c9d	-0.11351893
232	0xbdbb6d40	-0.09151697
233	0x3d3f1c9f	0.046658155
234	0xbdd74f25	-0.105131425
235	0xbb429819	-0.0029692708
236	0xbd629350	-0.05531627
237	0x3cc7fdce	0.024413016
238	0xbe6b21b3	-0.22962074
239	0xbd9957c7	-0.07487445
240	0xbd30d08a	-0.04316763
241	0x3e97f6ca	0.29680473
242	0x3d05a90a	0.03263191
243	0xbda2bb5d	-0.07945893
244	0x3e3ae03c	0.18249601
245	0x3e329101	0.17438127
246	0x3d520049	0.051269803
247	0x3dc108a0	0.09425473
248	0x3e87a498	0.26492763
249	0xbe7d1917	-0.24716602
250	0xbdaea261	-0.08527065
251	0xbc716c81	-0.014735342
252	0x3d90d547	0.070719294
253	0xbb682f0d	-0.0035428435
254	0xbe087cf4	-0.13328916
255	0x3d657269	0.056017313

fc2.bias f4 [128]
0	0x3d316f05	0.043318767
1	0x3a68ff1d	0.00088881125
2	0x3c891bba	0.016736854
3	0x3d176820	0.036964536
4	0x3caffc6b	0.021482667
5	0x3d752866	0.05985298
6	0xbd33cb1f	-0.043894883
7	0x3bbf5e39	0.0058400896
8	0x3c9bfaf6	0.019040566
9	0x3d970ca4	0.07375458
10	0xbbb2fe9d	-0.005462481
11	0x3c6b954a	0.014378855
12	0xbc83b425	-0.01607711
13	0x3d72d4ee	0.059285097
14	0x3c91d216	0.017800372
15	0x3cffcbf2	0.031225178
16	0x3d471493	0.048603605
17	0x3d0e6288	0.034761935
18	0x3caa808b	0.020813247
19	0x3a6b09d8	0.00089660054
20	0x3b82d26f	0.003992371
21	0x3cd5bbb7	0.026090486
22	0x3c1a3443	0.009411874
23	0x3d4342a3	0.04767097
24	0x3b3784a2	0.002800264
25	0x3cd31082	0.025764707
26	0x3b14b6ff	0.0022692082
27	0xbbe67b48	-0.0070337392
28	0x3d03ed2c	0.032208607
29	0xbbd99ed3	-0.006641248
30	0xbb6e7274	-0.0036384137
31	0x3db4e819	0.088333316
32	0x39dc65d2	0.00042037532
33	0x39c6aa80	0.00037892535
34	0x3c8380a0	0.016052544
35	0xbc8fa6f7	-0.01753567
36	0x3cdba3d1	0.026811512
37	0x3b84bf3d	0.0040511177
38	0x3ceef319	0.029168652
39	0x3c0b9d92	0.008521454
40	0x3da904e4	0.08252886
41	0xbb338fdb	-0.0027398977
42	0x3d0a7b42	0.033808954
43	0x3d15a3f9	0.03653333
44	0xbc9ad411	-0.01889995
45	0xba3b44f3	-0.0007143758
46	0x3b04d08b	0.0020265903
47	0x3ab1eb6f	0.0013574193
48	0xbca7ad1d	-0.020468289
49	0x3b08ad55	0.0020855267
50	0xbbf7d458	-0.007563155
51	0x3d2d7d12	0.042355604
52	0x3cc96893	0.024585998
53	0x3bc6f48c	0.0060716327
54	0x3a3f57cb	0.0007299154
55	0x3d5ddb98	0.0541645
56	0x3b054f41	0.0020341428
57	0xbc7fc749	-0.015611478
58	0x3cf84c2c	0.03030976
59	0xbc3ca716	-0.011514446
60	0x3c93acec	0.018026792
61	0x3c8302aa	0.015992481
62	0x3a4c2538	0.00077875284
63	0x3d7a58f9	0.061120007
64	0x3c68af2a	0.014201919
65	0xbcdb0f1e	-0.026740607
66	0x3c05651e	0.008141784
67	0x3ce78a3e	0.028264161
68	0x3d29b9d3	0.04143698
69	0x3bd5256a	0.0065047042
70	0x3d544fa7	0.051833775
71	0x3cfcccc0	0.030859351
72	0x3b77666b	0.0037750255
73	0x3c430458	0.011902891
74	0x3beec21c	0.0072863232
75	0x3bd3a9be	0.006459444
76	0xbc8b1a15	-0.01698021
77	0x3c86bd31	0.016447635
78	0xbcbbf8ef	-0.02294585
79	0x3c3dc7a8	0.011583246
80	0x3ce36c8f	0.027761726
81	0xbbdaf810	-0.0066824034
82	0x3cb846e2	0.022494737
83	0x3d108059	0.035278652
84	0x3c44d51d	0.012013701
85	0x3d64c6ee	0.055853777
86	0x3bd1c466	0.0064015863
87	0x3d33e83b	0.043922644
88	0x3bee2106	0.0072671203
89	0x3be94193	0.0071184128
90	0xbae1ccae	-0.0017227137
91	0x3ced6d6e	0.028982844
92	0x3c132cd2	0.008982854
93	0xbbaa6420	-0.005199924
94	0x3c78a4a1	0.015175969
95	0xbd0d529a	-0.034502603
96	0xbbb3b0df	-0.005483731
97	0x3ce554d2	0.027994547
98	0x3d44691c	0.047951803
99	0x3c3c872f	0.01150684
100	0x3c1fab25	0.009745394
101	0xbb41ba9c	-0.002956069
102	0x3cc4120e	0.02393439
103	0x3d25df8c	0.040496394
104	0x3c149723	0.009069237
105	0xbd2eb78f	-0.042655524
106	0x3d3fd620	0.046835065
107	0x3cab8046	0.020935189
108	0xba3955f2	-0.0007069997
109	0xbd0ec028	-0.034851223
110	0x37aa6489	2.0312395e-05
111	0x3cf39ad3	0.029736912
112	0x3d3d0f68	0.04615727
113	0xbbd6a13b	-0.006549982
114	0xb93208f2	-0.00016978735
115	0x3be9a138	0.0071298145
116	0x3cb88389	0.022523658
117	0xbccd229a	-0.025040913
118	0x3da1e90a	0.07905777
119	0x3c9bd6d2	0.019023333
120	0xbb1187de	-0.0022206227
121	0x3cca523f	0.024697421
122	0x3d3184fe	0.04333972
123	0x3ca5e702	0.020251755
124	0x3c86ecfb	0.016470423
125	0x3cc371d1	0.023857983
126	0x3b637b19	0.0034710823
127	0x3c38788b	0.011259208

fc3.weight f4 [10, 128]
0	0xbdfa86fd	-0.12232778
1	0x3c9b62a5	0.018967936
2	0xbee69275	-0.45033613
3	0xbd9cd26b	-0.076573215
4	0x3bd7a1e7	0.0065805796
5	0x3e0a3cf2	0.13499811
6	0xbc63a708	-0.013894804
7	0xbe21229e	-0.15735862
8	0xbe710154	-0.23535663
9	0x3e18c653	0.14919405
10	0xbd27ecb5	-0.040997226
11	0xbd93ff65	-0.07226447
12	0x3e3bc2dd	0.18336053
13	0xbebb90c6	-0.3663389
14	0xbca23552	-0.019800816
15	0xbda0e7ab	-0.07856687
16	0xbe422c1b	-0.18962137
17	0xbe5debc6	-0.21671972
18	0x3dd179d6	0.102283165
19	0xbcca3b0c	-0.024686359
20	0xbe80dfae	-0.25170654
21	0x3e610379	0.21973981
22	0xbe606fa6	-0.2191759
23	0xbed317a9	-0.4122899
24	0xbd29cc50	-0.041454613
25	0x3d7e97f0	0.062156618
26	0x3e6d5470	0.23176742
27	0x3e287b02	0.16453174
28	0xbdaa6498	-0.08319968
29	0xbd0ad8ca	-0.033898152
30	0x3e89c8f2	0.26911122
31	0xbef5ebe9	-0.48031548
32	0xbe160007	-0.14648448
33	0x39f23af6	0.00046201766
34	0xbece287e	-0.40265268
35	0xbd6ba479	-0.0575299
36	0xbcaa0283	-0.02075315
37	0x3e693fcd	0.22778244
38	0x3d94dec5	0.072690524
39	0x3e82d713	0.25554714
40	0x3e432c6c	0.19059914
41	0xbe2df962	-0.16989663
42	0xbd543b24	-0.051814213
43	0xbe0cf07e	-0.13763615
44	0x3df095b8	0.117473066
45	0x3d5d825d	0.054079402
46	0xbd77f230	-0.060533702
47	0xbdac1fac	-0.084044784
48	0xbe291b45	-0.16514309
49	0xbdfa68a4	-0.1222699
50	0x3e975b47	0.29561827
51	0x3e87da04	0.2653352
52	0x3cc048ea	0.023472268
53	0xbe906cbd	-0.2820796
54	0xbcb0b32c	-0.02156981
55	0xbee11c04	-0.43966687
56	0x3db7c919	0.08973903
57	0x3e42532b	0.18977039
58	0x3d6d3971	0.05791611
59	0x3ed4239b	0.41433415
60	0xbf1fb961	-0.6239224
61	0x3ddc0a30	0.107441306
62	0x3dfea612	0.12434019
63	0xbe4c3fc8	-0.19946206
64	0xbe132604	-0.1436997
65	0x3ea176ca	0.3153594
66	0xbd973f86	-0.07385163
67	0x3e9d0ba5	0.30672947
68	0x3d857dcf	0.06518137
69	0x3e8344e1	0.25638488
70	0xbd976689	-0.07392604
71	0x3d90b029	0.0706485
72	0x3d47c09e	0.04876768
73	0x3db72eb9	0.089444585
74	0x3e227c9c	0.15867847
75	0x3c3bdd34	0.011466313
76	0x3f04220e	0.51614463
77	0xbe240cf7	-0.1602057
78	0xbcd9366d	-0.02651521
79	0x3bce25f9	0.006291148
80	0xbe7b37bb	-0.24532978
81	0xbc76390a	-0.015028248
82	0x3c3d22d8	0.011543952
83	0x3d3b8bdf	0.04578769
84	0xbea9a1fd	-0.331314
85	0xbd633bb0	-0.055476844
86	0x3e1fdeb3	0.15612297
87	0x3e2ec968	0.17069018
88	0xbde30f53	-0.11086907
89	0x3d7df40a	0.062000312
90	0x3e3b1da8	0.18273032
91	0xbe001c6c	-0.12510842
92	0x3eae1e1a	0.3400734
93	0xbe060b8e	-0.13090345
94	0xbddc6d56	-0.10763042
95	0x3c8e4adc	0.01736968
96	0x3e7c8a61	0.24662162
97	0xbe251d37	-0.16124426
98	0xbee6fa9b	-0.45113072
99	0xbe47fc71	-0.19529893
100	0xbf141691	-0.57846934
101	0x3e817ad8	0.25289035
102	0x3ce23e0d	0.027617479
103	0x3e1d8b7d	0.15385242
104	0xbe0b8a3b	-0.1362695
105	0x3f1998bc	0.5999868
106	0x3e9379cd	0.28803864
107	0x3e974775	0.29546705
108	0xbe55f34f	-0.20893596
109	0x3e74d92f	0.23910974
110	0x3b772678	0.0037712138
111	0xbd2d42f9	-0.0423002
112	0xbd5cf56b	-0.053944986
113	0xbc80dbca	-0.015729804
114	0xbd922944	-0.07136777
115	0x3d2c1a69	0.042017374
116	0x3e970f78	0.2950399
117	0x3ede97b1	0.43475106
118	0xbe8d0c4b	-0.2754844
119	0xbeabf020	-0.33581638
120	0xbc90c762	-0.017673198
121	0xbefb996d	-0.49140492
122	0x3c501219	0.012699627
123	0x3e6b5d20	0.22984743
124	0xbe8b47dc	-0.27203262
125	0xbd4debdc	-0.05027376
126	0xbd46e9a7	-0.048562672
127	0x3db4ce0f	0.08828365
128	0x3eb844f3	0.35990104
129	0xbcbf30cb	-0.023338696
130	0xbe8765fb	-0.26444992
131	0xbdd04239	-0.10168881
132	0x3d2d42c8	0.042300016
133	0x3e0896b0	0.13338733
134	0x3e757f3f	0.23974322
135	0xbf06c2f3	-0.5264122
136	0xbc4a53fb	-0.012349124
137	0x3d866622	0.06562449
138	0xbee677a9	-0.45013168
139	0xbe4483ef	-0.19190954
140	0xbdad51f1	-0.08462895
141	0x3d6da846	0.058021806
142	0xbdcf9f6a	-0.10137828
143	0x3ea4607b	0.3210486
144	0xbe5694bd	-0.20955177
145	0xbda11533	-0.078653716
146	0x3eac846a	0.33694774
147	0xbe4ec5c6	-0.20192632
148	0x3d0fa04d	0.035064984
149	0x3e867737	0.2626283
150	0x3e532528	0.20619643
151	0x3e4168c6	0.18887624
152	0xbe96295c	-0.2932843
153	0x3dcf998c	0.101367086
154	0x3df0bbb9	0.11754555
155	0xbe6c9659	-0.23104228
156	0x3e35b76c	0.17745751
157	0xbd1f6611	-0.038915697
158	0xbe0a2d24	-0.13493782
159	0x3f2cbc87	0.6747517
160	0x3d94d7a4	0.07267693
161	0x3e2ae735	0.16689761
162	0xbd93476b	-0.07191356
163	0xbdcf53c2	-0.101233974
164	0x3ea5b162	0.32361895
165	0xbe0b63ef	-0.1361234
166	0x3ea875c2	0.32902342
167	0x3d8dd14c	0.06924686
168	0x3ed6f8df	0.4198675
169	0x3d2e1249	0.042497907
170	0x3e3a9a78	0.18222988
171	0x3e02cfaf	0.12774538
172	0xbebc62b9	-0.3679407
173	0x3ddb0d9e	0.10695957
174	0xbe0604b3	-0.1308773
175	0x3e14934b	0.14509313
176	0xbe33edc9	-0.17571177
177	0xbe8f9feb	-0.28051695
178	0x3e67fc2c	0.2265479
179	0xbf227be1	-0.63470274
180	0xbe44d6fd	-0.19222637
181	0x3ddf0a00	0.10890579
182	0x3dc31935	0.09526292
183	0x3e028a2c	0.12748021
184	0x3ed19a4a	0.40938026
185	0xbe7ca300	-0.24671555
186	0xbd63763d	-0.055532683
187	0xbc745a4c	-0.014914107
188	0xbe1db068	-0.15399325
189	0x3c72c4ce	0.01481743
190	0x3e7bff2b	0.24609058
191	0x3ec708e4	0.3887397
192	0x3e42c9f6	0.19022354
193	0xbe274491	-0.1633475
194	0xbe238b17	-0.15971027
195	0x3e82eedd	0.25572863
196	0x3d97968c	0.074017614
197	0xbe62905f	-0.22125386
198	0xbd09f47a	-0.033680417
199	0x3d9f9c1f	0.077934496
200	0x3e8870bb	0.26648507
201	0xbe19c1e1	-0.15015365
202	0x3de92217	0.11383455
203	0xbe333e51	-0.1750424
204	0xbe0a2a16	-0.13492617
205	0x3d86ab95	0.065756954
206	0xbd83fddd	-0.06444905
207	0x3e489e53	0.19591646
208	0xbdf33498	-0.11875266
209	0x3dd4866e	0.10377203
210	0xbeae9464	-0.34097588
211	0xbd1a91c9	-0.037736688
212	0x3e7a5103	0.24444966
213	0x3e23ec1d	0.16008039
214	0xbeb956c1	-0.36199
215	0x3eb32d13	0.34995326
216	0x3db1a23a	0.086735204
217	0x3d9dcbe3	0.07704904
218	0xbd3c1e07	-0.045927074
219	0x3dd23a68	0.10265046
220	0xbe2f0bce	-0.17094347
221	0x3c8a95ba	0.016917098
222	0x3e877f21	0.2646418
223	0xbe432a29	-0.19059052
224	0xbc86a723	-0.016437119
225	0x3e268ff6	0.16265854
226	0xbec76816	-0.389466
227	0xbcc48566	-0.02398939
228	0x3d913444	0.07090047
229	0x3c1c2c3a	0.009532029
230	0xbe86e78b	-0.26348528
231	0xbeda41da	-0.42628366
232	0x3e415b44	0.18882471
233	0x3d07c2c4	0.033144727
234	0xbe8b3e7a	-0.27196103
235	0x3e0779d4	0.13230067
236	0xbe094e01	-0.13408662
237	0xbe8c2ada	-0.27376443
238	0xbd2f3587	-0.042775657
239	0xbc904d08	-0.017614856
240	0x3eca435a	0.3950451
241	0x3e80f1e0	0.25184536
242	0x3de4553f	0.11149072
243	0x3d25c795	0.04047354
244	0xbdbee8a0	-0.093217134
245	0x3ea45f5a	0.32103997
246	0xbd32c00d	-0.043640185
247	0xbebf5130	-0.3736663
248	0xbe011249	-0.12604631
249	0x3e6d0dc8	0.23149788
250	0x3eea3b89	0.45748547
251	0xbcdedee8	-0.0272059
252	0xbd73088c	-0.059334323
253	0x3e2f7242	0.1713343
254	0x3da0abfc	0.078453034
255	0x3e6685d5	0.2251199

fc3.bias f4 [10]
0	0xbdb4ea91	-0.088338025
1	0x3d4fb239	0.050707076
2	0xbbbe61ef	-0.0058100144
3	0xbcabe2e8	-0.02098222
4	0x3d2ca31e	0.04214775
5	0x3d878f12	0.06619085
6	0xbbdc112a	-0.0067159133
7	0x3c212e1b	0.009837653
8	0xbda2e7a4	-0.07954338
9	0x3d052304	0.032504097
