best_neural_model.pth (torch, 440364 bytes, 6 tensors)

fc1.weight f4 [128, 784]
0.004117503 0.06552095 0.19853762 -0.082217835 -0.06772573 0.010167886 0.028525343 0.049237076
0.00555138 -0.09565453 -0.038118597 0.009684749 -0.02152438 -0.03385752 0.01640331 0.08326378
0.015620373 -0.12188483 0.08406581 0.00835343 0.04082908 0.044313632 -0.034781426 0.0065746466
-0.014062799 0.07570351 0.074216954 -0.017285954 0.08295569 -0.07193135 -0.012505423 -0.1371139
0.102552086 -0.038840678 -0.07302493 -0.021038868 -0.053553466 -0.05749675 -0.026726473 0.055617183
0.04916639 -0.018285144 0.08029847 -0.0060715466 0.03245215 -0.056154504 0.0032027462 -0.0866716
0.073694594 0.057688802 0.029157175 0.013932088 -0.020471979 0.037961278 -0.0003231141 0.03729096
-0.023132274 -0.02915594 0.0056461464 -0.0005091318 0.08820681 0.028262628 0.034167152 0.051573098
-0.06998953 -0.007127408 0.0772458 -0.047555972 -0.07285156 -0.024958076 0.018937511 0.012103216
-0.07195816 0.053972993 -0.05508929 0.09714799 0.005900764 -0.03876363 -0.008117962 0.011128578
0.011545289 0.04733901 0.07572319 0.044548355 0.070410706 0.004221405 -0.07377272 0.062026065
0.0054894937 -0.024249732 0.050400537 -0.073539145 0.0018880457 0.03452099 0.06568806 0.0038764933
0.014739561 0.023239708 0.036009476 -0.012047398 0.028235842 -0.0104515245 -0.086147554 0.104973875
0.057802014 -0.017105093 -0.03551529 0.038530465 -0.007906584 0.009232804 0.09170827 0.015200263
0.050257385 0.010838726 -0.08193037 -0.045305137 -0.07425672 -0.056782212 0.13060696 -0.0026334513
-0.047449123 -0.010038395 -0.012658096 0.097883515 0.03074682 -0.015279559 0.02347613 0.04113583
0.0074531506 0.04933292 0.07234231 -0.08787779 -0.015976189 -0.02078229 -0.006026356 0.031671777
0.005581107 -0.029992111 0.04214132 -0.09781058 0.06430487 -0.02685067 0.033479124 0.0015491762
0.023091441 0.015967874 -0.015996078 -0.026222691 0.051384687 0.03662355 0.08654341 0.04045459
0.065393455 0.11471931 -0.021333143 0.0071410784 0.09122612 0.020668108 -0.0012200217 0.016500387
0.042755242 0.045587994 -0.044243336 0.010956852 0.016672503 -0.017386248 -0.027192065 -0.09201719
-0.027204229 0.037386958 0.021063343 -0.03407032 -0.027386619 -0.024025375 -0.090149015 0.07732373
-0.05442795 0.015891755 0.021684691 0.041042563 0.10090592 -0.0324353 0.08685929 0.19978015
-0.0011577997 -0.008725737 0.04622198 -0.072244294 0.04393185 -0.065538265 -0.0037966773 0.03262291
0.055224076 0.047596138 -0.02687491 -0.04439937 0.03631815 0.08705799 0.02715323 -0.10882316
-0.06693412 0.036184337 -0.017886532 -0.01604485 0.06612874 0.03925589 0.0020716803 0.044588104
0.15263087 -0.059095006 0.056227926 0.025714342 -0.044812948 0.09140295 -0.018315284 -0.030748308
0.028072702 -0.03786529 -0.020136314 0.0074543394 -0.021025252 0.043803226 0.03835884 0.040104214
0.0951746 -0.03680265 0.03221881 0.023224888 -0.012852995 0.058000173 0.04764148 -0.06264583
0.030138047 0.07545462 0.1158842 0.080680035 -0.042703252 -0.07121487 0.010582767 -0.06874079
-0.10054752 -0.048701074 -0.041435264 -0.060535032 -0.050212543 -0.11580381 -0.18750262 -0.10648829
-0.054358505 0.005165173 -0.05843385 0.009721954 0.010821123 0.06139636 0.064317055 0.074804135
00000000: 1eec 863b d92f 863d 724d 4b3e d361 a8bd
00000010: cab3 8abd 3497 263c fbad e93c d1ac 493d
00000020: 5ae8 b53b 86e6 c3bd 3f22 1cbd c8ac 1e3c
00000030: e653 b0bc 2fae 0abd 3c60 863c 3386 aa3d
00000040: 98ec 7f3c c19e f9bd b22a ac3d d3dc 083c
00000050: 653c 273d 3682 353d f876 0ebd 2270 d73b
00000060: a767 66bc 710a 9b3d 0fff 973d 469b 8dbc
00000070: ace4 a93d be50 93bd 8ce3 4cbc 9667 0cbe
00000080: d406 d23d 6717 1fbd 188e 95bd b459 acbc
00000090: e15a 5bbd b681 6bbd 7af1 dabc d8ce 633d
000000a0: b262 493d baca 95bc 8673 a43d d3f3 c6bb
000000b0: 8cec 043d 4402 66bd 2ae5 513b e180 b1bd
000000c0: 31ed 963d 184b 6c3d 07db ee3c 6a43 643c
000000d0: dab4 a7bc 497d 1b3d a467 a9b9 68be 183d
000000e0: e57f bdbc 70d8 eebc 4f03 b93b 4277 05ba
000000f0: c6a5 b43d 0787 e73c dbf2 0b3d 503e 533d
00000100: ac56 8fbd 088d e9bb 0c33 9e3d 0dca 42bd
00000110: 3333 95bd e174 ccbc d722 9b3c 914c 463c
00000120: cd5e 93bd c912 5d3d 4fa5 61bd 86f5 c63d
00000130: 325b c13b 9dc6 1ebd 3301 05bc a454 363c
00000140: 7428 3d3c 8de6 413d c314 9b3d 5678 363d
00000150: 7d33 903d b653 8a3b 2716 97bd 0b0f 7e3d
00000160: 36e1 b33b 60a7 c6bc cb70 4e3d b19b 96bd
00000170: 4d78 f73a e265 0d3d 7687 863d c40c 7e3b
00000180: 337e 713c 3361 be3c ac7e 133d 7362 45bc
00000190: da4e e73c df3c 2bbc 216e b0bd 8bfc d63d
000001a0: cec1 6c3d fb1f 8cbc 7b78 11bd 1fd2 1d3d
000001b0: 9e8a 01bc 3045 173c 8cd1 bb3d 860a 793c
000001c0: b0da 4d3d e994 313c 1ccb a7bd e191 39bd
000001d0: e813 98bd 7794 68bd d5bd 053e fb95 2cbb
000001e0: 035a 42bd 1578 24bc e763 4fbc 2777 c83d
000001f0: c1e0 fb3c 1e57 7abc 0351 c03c 0b7e 283d
00000200: 8f39 f43b 5111 4a3d 3428 943d 45f9 b3bd
00000210: 7fe0 82bc 9f3f aabc bd78 c5bb 44ba 013d
00000220: b8e1 b63b 04b2 f5bc 609c 2c3d ea50 c8bd
00000230: 46b2 833d f0f5 dbbc 6821 093d ba0d cb3a
00000240: 432a bd3c 0fcf 823c 350a 83bc f8d0 d6bc
00000250: c078 523d 9302 163d ac3d b13d b6b3 253d
00000260: 01ed 853d f5f1 ea3d d8c2 aebc b5ff e93b
00000270: c3d4 ba3d 2a50 a93c 23e9 9fba d22b 873c
00000280: 1f20 2f3d 7aba 3a3d 8038 35bd 5e84 333c
00000290: c694 883c 9b6d 8ebc e5c1 debc 8273 bcbd
000002a0: 67db debc 1123 193d 088d ac3c 528d 0bbd
000002b0: e759 e0bc ddd0 c4bc 0ca0 b8bd e75b 9e3d
000002c0: d8ef 5ebd 6d2f 823c 18a4 b13c 3f1c 283d
000002d0: c3a7 ce3d e1da 04bd 49e3 b13d 2b93 4c3e
000002e0: 50c1 97ba 65f6 0ebc 4253 3d3d d1f4 93bd
000002f0: e2f1 333d ed38 86bd add1 78bb 9a9f 053d
00000300: a432 623d 2bf4 423d c528 dcbc 1ddc 35bd
00000310: 57c2 143d 764b b23d 7370 de3c adde debd
00000320: c214 89bd 0736 143d c786 92bc 7d70 83bc
00000330: 816e 873d c9ca 203d 07c5 073b 04a2 363d
00000340: 444b 1c3e 9b0d 72bd 414f 663d e2a6 d23c
00000350: c88d 37bd 7831 bb3d ef09 96bc e0e3 fbbc
00000360: b9f8 e53c a218 1bbd e9f4 a4bc 8843 f43b
00000370: 263d acbc 036b 333d 291e 1d3d 5144 243d
00000380: e7ea c23d 60be 16bd dff7 033d 1f42 be3c
00000390: 5e95 52bc 9791 6d3d b623 433d 754c 80bd
000003a0: 11e4 f63c f487 9a3d b254 ed3d 933b a53d
000003b0: 9be9 2ebd 1ad9 91bd 5863 2d3c f9c7 8cbd
000003c0: dceb cdbd c77a 47bd 06b8 29bd 95f3 77bd
000003d0: abab 4dbd 8c2a edbd b000 40be 8816 dabd
000003e0: 06a7 5ebd 9d40 a93b 5558 6fbd d548 1f3c
000003f0: 144b 313c c07a 7b3d a9b8 833d e932 993d

fc1.bias f4 [128]
-0.016956052 0.025529811 -0.046008937 0.0063839005 -0.016076904 -0.017955935 -0.029086126 0.029202482
0.0057602725 0.038406495 0.10714347 0.048266597 0.010655566 0.07804089 0.0119367605 0.02159828
0.07567424 0.035920307 0.029601598 0.012647014 -0.034051914 -0.013767771 0.027550505 0.036696084
-0.054052077 0.047010843 -0.0063785994 0.11451677 -0.02252939 0.050428446 -0.009125074 0.056967247
-0.089963004 -0.0042498447 -0.001588815 0.030237881 -0.041878246 0.039164297 -0.038372476 0.053435616
-0.020967994 0.08939034 0.00057114125 -0.047212806 0.020704404 0.080291644 -0.014493028 0.033538993
0.08537219 0.027500032 -0.004275108 -0.037024084 0.02467867 0.07972224 -0.0050621917 -0.053238634
0.020208143 0.0007476974 0.024190087 0.015024314 0.0907653 0.004663917 0.068648174 -0.022235267
-0.003868649 -0.030634027 0.051768545 0.03468054 0.012176536 0.04215192 0.11234423 -0.02856731
-0.041465256 0.009623433 0.08230775 -0.016357042 0.039781258 0.024234578 -0.0063714576 0.17073873
0.047169093 -0.0014097326 0.017745283 -0.009235283 0.021962188 -0.019103581 0.03412104 0.0031956087
0.0043725683 0.038156267 0.04703499 0.09748789 -0.01944984 0.033749025 0.03463119 0.03458052
0.0077431905 -0.05785545 0.021131922 -0.051624116 -0.0036901138 0.03765129 0.063787304 0.058246426
0.031339187 -0.012691278 0.02197498 0.037526827 0.058437336 0.07044722 0.014041206 0.0023463136
0.003465808 0.004456154 -0.054605998 0.06093606 -0.038676355 0.029192122 -0.014616423 -0.011605524
-0.016182141 0.00033085287 0.003788974 0.0028400917 -0.0092536695 0.086303376 0.06177799 0.019454904
00000000: 6be7 8abc e523 d13c de73 3cbd 0a30 d13b
00000010: b6b3 83bc 5318 93bc 0746 eebc 0b3a ef3c
00000020: abc0 bc3b 2150 1d3d 096e db3d 32b3 453d
00000030: af94 2e3c e7d3 9f3d 6792 433c e0ee b03c
00000040: 19fb 9a3d 2c21 133d 0d7f f23c 6c35 4f3c
00000050: 057a 0bbd 3892 61bc 99b1 e13c a24e 163d
00000060: b665 5dbd 718e 403d 9203 d1bb c587 ea3d
00000070: 8e8f b8bc 0f8e 4e3d 5681 15bc 7d56 693d
00000080: 863e b8bd 4842 8bbb c93f d0ba 6fb5 f73c
00000090: 8688 2bbd be6a 203d 752c 1dbd 4edf 5a3d
000000a0: 12c5 abbc 4812 b73d a4b8 153a 3762 41bd
000000b0: 489c a93c f26f a43d 2a74 6dbc 2f60 093d
000000c0: 9dd7 ae3d bf47 e13c 3516 8cbb 91a6 17bd
000000d0: ec2a ca3c 6a45 a33d bee0 a5bb c110 5abd
000000e0: 8c8b a53c 2001 443a 4a2a c63c 8a28 763c
000000f0: 28e3 b93d c5d3 983b 6a97 8c3d bc26 b6bc
00000100: 2989 7dbb 36f4 fabc 410b 543d 2f0d 0e3d
00000110: 1880 473c 7ea7 2c3d bb14 e63d fe05 eabc
00000120: 79d7 29bd 9bab 1d3c f790 a83d 34ff 85bc
00000130: acf1 223d 9887 c63c a9c7 d0bb 22d6 2e3e
00000140: 6134 413d c7c6 b8ba 8e5e 913c 964f 17bc
00000150: 0cea b33c 1d7f 9cbc 81c2 0b3d 6b6d 513b
00000160: c347 8f3b bf49 1c3d c3a7 403d bba7 c73d
00000170: 4555 9fbc 6b3c 0a3d 6fd9 0d3d 4ea4 0d3d
00000180: 97ba fd3b d6f9 6cbd da1c ad3c cf73 53bd
00000190: d6d5 71bb 3d38 1a3d eba2 823d ce93 6e3d
000001a0: 855d 003d 14ef 4fbc e004 b43c bbb5 193d
000001b0: fd5b 6f3d a246 903d 160d 663c 9cc4 193b
000001c0: 9c22 633b ee04 923b 8aaa 5fbd 1798 793d
000001d0: 196b 1ebd 5124 ef3c b979 6fbc 1925 3ebc
000001e0: 6990 84bc 5276 ad39 6f50 783b d520 3a3b
000001f0: b49c 17bc d3bf b03d eb0a 7d3d e45f 9f3c

fc2.weight f4 [64, 128]
-0.07097635 0.102320336 -0.2081471 -0.19827504 0.22499646 0.07701032 -0.03206822 0.10621127
-0.08570609 -0.025409415 0.16500676 -0.14357592 -0.009938655 0.060860798 -0.11814028 0.068680786
0.03269155 0.08260371 -0.034098662 -0.0084188385 -0.088887826 0.055071753 0.1709531 0.15174383
0.051934145 -0.014469843 -0.15108044 0.14175135 -0.10579328 -0.10626038 0.26046318 -0.02430062
-0.16548286 0.050987463 0.067226194 0.22921014 0.15541479 0.050960977 -0.11997405 0.11082247
0.1375407 0.00043760953 -0.15603027 -0.10166297 0.22346412 -0.03819023 -0.09452038 -0.018723313
0.048906054 0.057901226 -0.0076685427 -0.05024293 0.042343743 0.046524543 0.07646146 -0.10539063
0.24742514 0.19379364 0.09073152 0.08024419 0.021855915 0.014695057 -0.16065457 -0.008763126
-0.0024606357 0.008156934 -0.12010777 -0.10635622 0.062300783 -0.22615416 0.07018948 0.01565321
-0.054899663 0.030001635 0.013962592 -0.004215055 -0.08065934 -0.088970505 0.04571542 -0.19639835
0.09925244 -0.12656224 0.0938553 -0.05079151 -0.09001573 0.11607767 0.12305723 0.10659665
-0.093302935 -0.006992793 0.043925468 0.08555987 -0.22184075 -0.22031811 -0.21465136 -0.07531168
0.16944377 -0.16214882 -0.035445403 -0.09642115 0.2267112 -0.0037361714 0.11703021 0.18464234
-0.029861396 0.07928402 0.120218284 -0.019003883 0.026923869 0.12897788 -0.14914998 0.06358236
0.21403134 -0.054995492 -0.22602656 0.032661375 0.014471342 -0.108523935 0.29183832 -0.054770365
-0.19602807 0.13273075 0.04774664 -0.10625416 -0.318259 0.030976124 0.03782791 0.16075344
0.022544846 0.0039496254 -0.02612213 -0.06231595 0.058093145 0.07749694 0.15499707 0.00019946002
-0.04206955 0.0814605 0.07852216 0.024064582 -0.20427662 0.09104811 -0.08784058 0.049096383
-0.008470721 0.25406355 -0.19373271 0.058402527 0.16919544 -0.048176464 -0.053331174 -0.1691673
0.1427267 0.15631157 -0.15651755 -0.05424384 -0.0509743 0.020217888 0.30423766 -0.06446545
0.05967207 0.13364325 -0.016936537 -0.0687964 0.2464629 0.14028463 -0.075705245 0.20093074
0.051920798 -0.031724457 0.07039832 0.007405126 0.021635689 -0.09341463 -0.10328227 0.046845753
-0.029375346 -0.20179136 -0.016190775 -0.26277173 -0.22468853 -0.13126124 -0.15012887 0.1549613
-0.075641245 -0.10637228 -0.21653673 0.079320475 -0.06618861 0.11633963 0.050406232 -0.19894546
-0.069913894 0.08746071 0.060819924 -0.111954994 -0.061370455 -0.045810312 -0.23028733 0.085537344
-0.034477256 0.18108377 -0.199968 -0.14604436 -0.043335643 -0.14084162 0.13860188 -0.11055757
-0.14042993 0.13579498 0.14380248 -0.10680159 -0.027492117 0.037554905 -0.29177478 -0.062329452
-0.24010272 0.19234414 -0.18091772 0.076062 0.30139068 0.0019312688 -0.04749522 -0.082130656
0.06390907 0.18192498 0.024314733 0.045613095 0.027995288 -0.059289332 -0.10555648 0.09681126
-0.15357709 0.0019000978 -0.084216215 -0.140814 -0.10455459 0.05103875 0.15793942 0.04998554
0.08389379 -0.13984267 -0.012389885 0.027570747 0.043700926 -0.12757841 0.16409734 0.006866448
0.069359705 -0.03272279 0.0462703 0.12777938 -0.15781406 -0.23062485 -0.030444656 0.10773768
00000000: 0c5c 91bd 538d d13d 8324 55be 9d08 4bbe
00000010: 7965 663e 96b7 9d3d f759 03bd 4b85 d93d
00000020: ad86 afbd 6827 d0bc 88f7 283e 9105 13be
00000030: bed5 22bc 2c49 793d 88f3 f1bd 83a8 8c3d
00000040: 93e7 053d 222c a93d 0aab 0bbd 2bef 09bc
00000050: d20a b6bd eb92 613d 540e 2f3e bc62 1b3e
00000060: e6b8 543d ec12 6dbc d5b4 1abe 4427 113e
00000070: 26aa d8bd 0b9f d9bd 6e5b 853e 1812 c7bc
00000080: 5774 29be 3bd8 503d e3ad 893d 10b6 6a3e
00000090: 0e25 1f3e 75bc 503d f4b4 f5bd e4f6 e23d
000000a0: 78d7 0c3e f56e e539 66c6 1fbe ad34 d0bd
000000b0: c7d3 643e 5c6d 1cbd e793 c1bd a261 99bc
000000c0: b751 483d d629 6d3d 6648 fbbb 88cb 4dbd
000000d0: a270 2d3d 8590 3e3d d397 9c3d 0bd7 d7bd
000000e0: 045d 7d3e d771 463e 72d1 b93d 1157 a43d
000000f0: 2d0b b33c 89c3 703c a282 24be 3793 0fbc
00000100: 9e42 21bb a9a4 053c 10fb f5bd 4ad1 d9bd
00000110: 1b2f 7f3d f594 67be 81bf 8f3d 293b 803c
00000120: 78de 60bd fdc5 f53c 5bc3 643c 721e 8abb
00000130: b930 a5bd 2b36 b6bd 1840 3b3d a61c 49be
00000140: dd44 cb3d 8899 01be 3537 c03d c20a 50bd
00000150: 2b5a b8bd 21ba ed3d 6e05 fc3d 584f da3d
00000160: 9c15 bfbd cd23 e5bb 31eb 333d 033a af3d
00000170: 392a 63be 129b 61be 91cd 5bbe 033d 9abd
00000180: ab82 2d3e 570a 26be 332f 11bd 7478 c5bd
00000190: fb26 683e 8eda 74bb 89ad ef3d e212 3d3e
000001a0: e39f f4bc a95f a23d 0135 f63d 08ae 9bbc
000001b0: 728f dc3c c712 043e c6ba 18be 7837 823d
000001c0: 082b 5b3e f442 61bd 8273 67be efc7 053d
000001d0: 3519 6d3c cc41 debd d56b 953e e456 60bd
000001e0: 95bb 48be 92ea 073e fb91 433d c89b d9bd
000001f0: d8f2 a2be a4c1 fd3c 70f1 1a3d 8d9c 243e
00000200: f8af b83c dc6b 813b 14fe d5bc 023f 7fbd
00000210: 14f3 6d3d b7b6 9e3d 8db7 1e3e 2426 5139
00000220: 1f51 2cbd c3d4 a63d 3ad0 a03d 1623 c53c
00000230: e42d 51be 6e77 ba3d c3e5 b3bd 4a19 493d
00000240: c7c8 0abc 9e14 823e de61 46be 7d37 6f3d
00000250: 9241 2d3e af54 45bd ca71 5abd 313a 2dbe
00000260: f326 123e 2410 203e 2346 20be ca2e 5ebd
00000270: 6dca 50bd fc9f a53c 0ac5 9b3e 7606 84bd
00000280: b36a 743d c7d9 083e 7ebe 8abc 21e5 8cbd
00000290: c560 7c3e c6a6 0f3e 5a0b 9bbd cac0 4d3e
000002a0: e7aa 543d 81f1 01bd ff2c 903d b3a6 f23b
000002b0: 543d b13c 2b50 bfbd a885 d3bd 55e1 3f3d
000002c0: 91a4 f0bc 65a2 4ebe 84a2 84bc 048a 86be
000002d0: c014 66be 5969 06be 62bb 19be 2dae 1e3e
000002e0: cce9 9abd b6d9 d9bd cebb 5dbe c672 a23d
000002f0: e58d 87bd 7943 ee3d c476 4e3d 5cb8 4bbe
00000300: 042f 8fbd 9a1e b33d 501e 793d a948 e5bd
00000310: 965f 7bbd 98a3 3bbd 71d0 6bbe 342e af3d
00000320: 0638 0dbd 066e 393e 69c4 4cbe a78c 15be
00000330: b780 31bd c938 10be a7ed 0d3e 026c e2bd
00000340: ddcc 0fbe d70d 0b3e f540 133e cbba dabd
00000350: 2637 e1bc 2cd3 193d 8163 95be 2b4d 7fbd
00000360: 7ddd 75be ddf5 443e 7f42 39be 65c6 9b3d
00000370: e14f 9a3e a122 fd3a 598a 42bd 1e34 a8bd
00000380: c2e2 823d 8b4a 3a3e b12f c73c ccd4 3a3d
00000390: 6056 e53c 5fd9 72bd ff2d d8bd fb44 c63d
000003a0: 5043 1dbe b40c f93a 8d79 acbd 8c31 10be
000003b0: b820 d6bd 020e 513d dfba 213e a3bd 4c3d
000003c0: 82d0 ab3d eb32 0fbe f2fe 4abc 0cdc e13c
000003d0: beff 323d eaa3 02be 2209 283e f1ff e03b
000003e0: 760c 8e3d 5508 06bd ed85 3d3d 99d8 023e
000003f0: 029a 21be ec28 6cbe 1267 f9bc 93a5 dc3d

fc2.bias f4 [64]
-0.010348546 -0.0022526765 0.03618293 0.125595 -0.05655084 -0.03966311 0.051103763 0.014160596
0.03679991 -0.024880845 0.14086603 -0.011415649 0.026452752 -0.018673718 -0.025943175 -0.019117337
-0.014967616 0.0763855 0.031214183 0.06809314 0.07274748 0.041853134 0.04877207 0.047683753
0.0481502 -0.0018886807 0.0019899134 -0.02774663 0.03457942 0.020955198 -0.008068439 0.03613074
0.04596119 0.012834046 0.006629653 -0.024665825 -0.026798777 0.0041196165 -0.037477627 0.0319264
0.12383476 -0.025379498 0.028650029 -0.0013599845 0.003299799 0.05985699 -0.014011651 -0.0018141737
0.0046019745 -0.0018176439 0.035777994 0.014175364 0.01682369 0.0055565117 -0.060894057 -0.04790685
0.02670908 0.014955684 0.11654398 0.013367204 0.111252055 -0.010074997 0.0406391 0.04076596
00000000: f38c 29bc a4a1 13bb 8d34 143d fa9b 003e
00000010: dba1 67bd c975 22bd 2e52 513d d801 683c
00000020: 81bb 163d ead2 cbbc 2f3f 103e b408 3bbc
00000030: 71b3 d83c a0f9 98bc c886 d4bc f69b 9cbc
00000040: bb3a 75bc 0070 9c3d e3b4 ff3c 6b74 8b3d
00000050: a1fc 943d 316e 2b3d 39c5 473d 0a50 433d
00000060: 2539 453d 9c8d f7ba 3569 023b e74c e3bc
00000070: 26a3 0d3d 3caa ab3c 7c31 04bc d4fd 133d
00000080: cd41 3c3d e445 523c 8f3d d93b fc0f cabc
00000090: 1c89 dbbc d9fd 863b 2482 19bd 42c5 023d
000000a0: 149d fd3d aae8 cfbc 77b3 ea3c 8241 b2ba
000000b0: 7141 583b 9a2c 753d 2091 65bc 91c9 edba
000000c0: 29cc 963b 023e eeba f28b 123d c93f 683c
000000d0: d6d1 893c 6613 b63b 0c6c 79bd f939 44bd
000000e0: 00cd da3c af08 753c 9cae ee3d 1e02 5b3c
000000f0: 1ed8 e33d 9a11 25bc 2f75 263d 35fa 263d

fc3.weight f4 [10, 64]
-0.081351005 0.2829282 0.07429267 -0.4233294 -0.09965867 -0.015216623 0.3041981 -0.32669154
-0.06618027 -0.1379698 0.42787126 -0.07430619 0.3969652 -0.029291093 -0.31609035 -0.55492693
-0.2930135 0.3818634 -0.20882685 -0.10548917 0.25771916 0.013258968 0.14203233 -0.24025927
0.07668365 0.15260348 -0.0279956 -0.037150547 -0.26328748 -0.12380128 0.42238033 0.008150886
-0.013716392 -0.05924236 0.025642905 0.4415444 0.099696435 0.5669419 0.22080113 -0.12217157
-0.2958372 -0.18594137 -0.12582557 0.32742777 -0.18889377 -0.3428507 0.36439982 -0.010850098
-0.18459202 -0.010094582 0.08069026 0.018265229 0.4246778 0.090379715 -0.12539563 0.45584112
-0.1754509 -0.08714308 0.7973489 0.07942215 -0.16006106 -0.4179838 -0.17361042 0.121194065
-0.19229177 -0.13390635 -0.097628266 0.24547075 -0.33347246 0.17259145 -0.12936279 0.25743517
0.25330198 -0.3900435 0.060427003 0.114408135 0.18029547 -0.065191105 -0.017348941 0.0917147
-0.34379637 0.11899794 0.23336825 0.5289496 -0.36077473 0.21156403 0.436442 -0.029113317
0.1090809 -0.013683079 0.1048432 0.18840201 -0.011588553 0.105592 -0.060621258 -0.10306343
0.22800407 -0.49765658 -0.5354523 -0.6784108 0.013514933 0.50382566 0.114976875 0.08236465
0.09056742 0.3909 -0.27626684 0.15188925 -0.024682447 -0.19916567 -0.13653307 -0.038330305
0.008322661 -0.12046018 -0.111874945 -0.1372969 -0.120496675 -0.42552766 -0.5517956 -0.21169631
0.2737495 0.22914131 0.23004624 -0.29505575 0.57921153 0.4350298 0.048055008 0.3462626
0.49752852 0.22627841 0.6008623 -0.57017475 -0.292405 0.46488148 -0.38462666 0.005910792
-0.5589686 0.57653826 -0.09626323 0.29473245 -0.06594588 -0.13232166 0.11174873 0.21362738
-0.120358646 0.08253277 0.88597214 0.6293794 -0.07638809 0.4876711 -0.24190061 0.093385115
-0.118667416 -0.00073043955 0.1774366 -0.17435318 -0.045095153 0.031973563 -0.5138945 0.09377269
0.3363761 -0.30379766 -0.26018342 0.34276673 -0.22200653 0.0376664 -0.16680412 -0.23502645
0.60345453 0.07797484 0.33583346 0.042987246 -0.13681479 -0.58277994 0.08494817 0.1602194
-0.16239749 -0.057124585 -0.19525486 0.13094117 0.24495195 0.024329422 0.024939412 0.3295477
-0.20879573 -0.34674063 -0.46658966 -0.15152451 0.033362404 0.12204079 -0.7155741 -0.2715547
0.0030478917 -0.25562865 0.79437214 0.027059209 0.10153218 -0.40324184 -0.021757351 -0.3525529
-0.19211781 0.18578193 -0.37919912 0.025136039 -0.23124343 0.006457745 0.24915616 0.581766
-0.11269957 -0.83597517 -0.013718013 0.25226274 -0.42592052 -0.66681 -0.17448172 0.61567163
-0.43548256 0.109468594 0.09804157 0.12566622 0.0053452216 -0.48658612 0.38704017 -0.103621796
0.1213436 -0.3420948 0.026347116 0.46501228 -0.024346309 -0.012147229 -0.24116854 -0.01098302
-0.40253845 0.5090354 0.107766986 -0.16896023 0.024440289 0.10710371 -0.14889705 -0.021629246
0.66462994 0.30130577 0.10830466 0.014550909 0.027407246 -0.3976207 0.33886728 -0.24442558
0.08206726 0.31491938 -0.25387436 0.20792973 0.022322342 0.19997223 0.019850153 -0.39399296
00000000: 5b9b a6bd f7db 903e c126 983d a2be d8be
00000010: d819 ccbd 254f 79bc dabf 9b3e 1d44 a7be
00000020: 8589 87bd f547 0dbe f111 db3e d82d 98bd
00000030: 063f cb3e e0f3 efbc 98d6 a1be b10f 0ebf
00000040: de05 96be 9983 c33e b5d6 55be b50a d8bd
00000050: c4f3 833e 243c 593c ec70 113e 8706 76be
00000060: 510c 9d3d 1644 1c3e 0757 e5bc 2c2b 18bd
00000070: 9ecd 86be 878b fdbd 3c42 d83e 4b8b 053c
00000080: b8ba 60bc 1ea8 72bd 1211 d23c 1c12 e23e
00000090: a52d cc3d 1b23 113f b119 623e 1735 fabd
000000a0: f977 97be 6a67 3ebe 6bd8 00be 9da4 a73e
000000b0: 5e6d 41be 208a afbe 9d92 ba3e 9cc4 31bc
000000c0: b105 3dbe bf63 25bc ef40 a53d f6a0 953c
000000d0: 5e6f d93e 0019 b93d b667 00be 0264 e93e
000000e0: 67a9 33be 1278 b2bd 0f1f 4c3f 15a8 a23d
000000f0: 0ce7 23be f901 d6be eec6 31be 9834 f83d
00000100: 22e8 44be bf1e 09be 54f1 c7bd af5c 7b3e
00000110: e7bc aabe d0bb 303e ae77 04be 8bce 833e
00000120: ccb0 813e c8b3 c7be 4e82 773d d04e ea3d
00000130: 609f 383e ea82 85bd 5e1f 8ebc ebd4 bb3d
00000140: 1406 b0be 31b5 f33d 16f8 6e3e 3e69 073f
00000150: 77b7 b8be 3ea4 583e 5375 df3e 0d7f eebc
00000160: cf65 df3d fe2e 60bc 08b8 d63d 75ec 403e
00000170: eadd 3dbc 9e40 d83d ff4d 78bd eb12 d3bd
00000180: e679 693e d8cc febe 6713 09bf 55ac 2dbf
00000190: bd6d 5d3c b8fa 003f ff78 eb3d ccae a83d
000001a0: 697b b93d 0b24 c83e d972 8dbe db88 1b3e
000001b0: d832 cabc 16f2 4bbe 53cf 0bbe 3d00 1dbd
000001c0: c55b 083c d4b3 f6bd b11e e5bd 8f97 0cbe
000001d0: f6c6 f6bd c3de d9be 7a42 0dbf ebc6 58be
000001e0: e528 8c3e 05a4 6a3e 3e91 6b3e 8c11 97be
000001f0: 3547 143f 3abc de3e 54d5 443d 5549 b13e
00000200: 0fbc fe3e 87b5 673e 1dd2 193f f9f6 11bf
00000210: 1cb6 95be f204 ee3e c9ed c4be 51af c13b
00000220: 9118 0fbf 0398 133f a825 c5bd 2ce7 963e
00000230: a20e 87bd 547f 07be 85dc e43d 23c1 5a3e
00000240: 987e f6bd f106 a93d 12cf 623f 021f 213f
00000250: 5c71 9cbd 07b0 f93e cbb4 77be b240 bf3d
00000260: e707 f3bd f87a 3fba f1b1 353e a489 32be
00000270: b2b5 38bd b6f6 023d 978e 03bf e50b c03d
00000280: 7d39 ac3e 5e8b 9bbe c336 85be 1f7f af3e
00000290: ae55 63be 1548 1a3d b3ce 2abe c6aa 70be
000002a0: ff7b 1a3f 46b1 9f3d 5df2 ab3e 6513 303d
000002b0: 2d19 0cbe 1131 15bf 4ef9 ad3d 8e10 243e
000002c0: 874b 26be 78fb 69bd e4f0 47be 7115 063e
000002d0: afd4 7a3e 7f4e c73c bd4d cc3c 7aba a83e
000002e0: 8cce 55be fd87 b1be d7e4 eebe 3e29 1bbe
000002f0: 04a7 083d 86f0 f93d dd2f 37bf 3809 8bbe
00000300: 23bf 473b c2e1 82be f95b 4b3f 46ab dd3c
00000310: 1bf0 cf3d b775 cebe 793c b2bc d081 b4be
00000320: 88ba 44be 9e3d 3e3e 6326 c2be 18ea cd3c
00000330: 14cb 6cbe 7e9b d33b cb22 7f3e 9eee 143f
00000340: 08cf e6bd 7802 56bf 84c1 60bc 9528 813e
00000350: 4112 dabe 0fb4 2abf 56ab 32be a89c 1d3f
00000360: 92f7 debe 1231 e03d 05ca c83d a5ae 003e
00000370: f826 af3b d121 f9be 212a c63e aa37 d4bd
00000380: fe82 f83d 0d27 afbe e8d5 d73c 1716 ee3e
00000390: e971 c7bc 2c05 47bc e3f4 76be 20f2 33bc
000003a0: 8519 cebe 2550 023f f0b4 dc3d e903 2dbe
000003b0: 0037 c83c 3159 db3d 7878 18be d12f b1bc
000003c0: 3025 2a3f c044 9a3e d5ce dd3d f066 6e3c
000003d0: 2985 e03c f194 cbbe 0380 ad3e b34a 7abe
000003e0: e112 a83d 1d3d a13e d2fb 81be 88eb 543e
000003f0: 58dd b63c 85c5 4c3e ca9c a23c 72b9 c9be

fc3.bias f4 [10]
-0.04579741 0.14675394 0.026836535 -0.11094421 -0.07957314 0.21569088 0.037029967 -0.03981384
-0.09645494 -0.053729367
00000000: 1196 3bbd aa46 163e 4bd8 db3c b836 e3bd
00000010: 3ef7 a2bd 12de 5c3e bcac 173d d613 23bd
00000020: 2b8a c5bd 5313 5cbd
