best_model.pth (torch, 440230 bytes, 6 tensors)

fc1.weight f4 [128, 784]
0	0x3b2e252a	0.0026572444
1	0x3d08b14e	0.033372216
2	0x3dae8fd3	0.08523526
3	0x3d545fdb	0.051849227
4	0xbbacbfc8	-0.0052718855
5	0xbc2a9bf6	-0.010413161
6	0x3d1b1b58	0.037867874
7	0xbcef7090	-0.029228479
8	0xbd10f36c	-0.035388395
9	0xbd9bfc77	-0.07616513
10	0xbd59f571	-0.053212587
11	0x3d8e6f51	0.06954826
12	0x3d8591f5	0.0652198
13	0x3b8a3daa	0.0042187767
14	0xbe06bca8	-0.13157904
15	0xbb3e5030	-0.0029039495
16	0x3d04cd0a	0.032422103
17	0xbc929a82	-0.01789594
18	0xbd0a5499	-0.033772085
19	0xbdfee2d1	-0.124456055
20	0x39ca03b6	0.00038531207
21	0x3df3c19e	0.11902164
22	0xbe06b3d6	-0.1315454
23	0xbe04a587	-0.12953769
24	0xbd2d9c2a	-0.042385258
25	0x3d5d8698	0.054083437
26	0xbd2dd99e	-0.042443864
27	0x3cf7103f	0.030159114
28	0xba7b44e3	-0.0009585155
29	0x3ce19d2c	0.027540766
30	0xbc03b045	-0.008037631
31	0x3c9526df	0.018207012
32	0xbcdab46e	-0.026697364
33	0xbc92a9b7	-0.017903192
34	0x3ccfa5dc	0.025347643
35	0x3c07891a	0.008272434
36	0xbcaccf1b	-0.02109485
37	0x3c798a5f	0.015230744
38	0xbcdd61d9	-0.027024196
39	0x3ca2ce03	0.019873625
40	0xbd9ad399	-0.0755989
41	0x3d692f04	0.056929603
42	0xba4ddfe7	-0.00078534934
43	0xbd0f6848	-0.03501156
44	0x3d2146c3	0.039374124
45	0xbd032ae6	-0.032023333
46	0x3d2a1c72	0.041531034
47	0x3b994d16	0.004678379
48	0xbd2a9062	-0.0416416
49	0xbccfac24	-0.025350638
50	0xbb4a4552	-0.0030864072
51	0xbcb4c298	-0.022065446
52	0xbd79a4f3	-0.060948323
53	0xbdc4bc9d	-0.09606288
54	0xbddfdc67	-0.1093071
55	0x3d5d0bc1	0.053966288
56	0xbb658d0a	-0.0035026693
57	0xbc360727	-0.011110104
58	0xbcc2fac4	-0.023801215
59	0xbcccbfde	-0.024993833
60	0x3d18733c	0.03721927
61	0x3cc9ccda	0.024633814
62	0xbc82269e	-0.015887555
63	0xbe28419c	-0.16431278
64	0xbb5a7ee5	-0.0033339795
65	0x3cbee2e4	0.02330155
66	0xbd5d0aba	-0.053965308
67	0x3c3feb6f	0.011713847
68	0x3b562dc6	0.0032681092
69	0xbdc22fa9	-0.09481747
70	0x3d474924	0.048653737
71	0x3cfe81ae	0.031067695
72	0xbb798847	-0.0038075612
73	0xbd827394	-0.06369701
74	0xbd84dd32	-0.06487502
75	0xbc46b162	-0.012127252
76	0xbd842559	-0.06452436
77	0xbd5107d4	-0.051032856
78	0xbbbc3288	-0.0057433285
79	0x3c37c802	0.011217119
80	0xbcfd10b7	-0.03089176
81	0x3d26bfd8	0.0407103
82	0xbd7b48e8	-0.061348826
83	0xbd191f94	-0.03738363
84	0xbd62ae1d	-0.05534183
85	0x3ade95a0	0.0016981848
86	0xbbe2563d	-0.006907253
87	0x3bc909d1	0.0061352034
88	0xbdadd4b1	-0.08487833
89	0xbd073162	-0.03300608
90	0xbd37d532	-0.044881053
91	0x3d96c48d	0.07361708
92	0xbcbd3f9c	-0.02310162
93	0xbc8d2807	-0.017231
94	0x3d504992	0.050851412
95	0x3d94d1cd	0.07266579
96	0xbd0e4b70	-0.03473991
97	0xbbd2b358	-0.006430071
98	0x3d2192b5	0.03944655
99	0xbd2747dd	-0.04084002
100	0x3d6c080d	0.057624865
101	0xbd45eb1c	-0.04831992
102	0x3c826b9b	0.01592045
103	0x3c57a44e	0.013161732
104	0xbd2d9fc5	-0.042388696
105	0xbd3bd6c6	-0.04585912
106	0xbc9a8b23	-0.018865174
107	0x3b55155e	0.0032513957
108	0x3cc2934a	0.023751874
109	0xbd82488d	-0.06361494
110	0xbd153953	-0.03643162
111	0x3d14601f	0.03622448
112	0x3dc40b14	0.095724255
113	0xbb724e39	-0.0036972894
114	0x3d75f622	0.060049184
115	0xbb9af5de	-0.0047290167
116	0xbcb21de6	-0.021742772
117	0xbc165816	-0.009176275
118	0xbdaab51e	-0.083353266
119	0xbd70c5dd	-0.058782447
120	0x3d1aa2b9	0.03775284
121	0xbc84f647	-0.016230715
122	0xbbe2f62c	-0.0069263186
123	0x3d6b2ac0	0.057413816
124	0xbd62fe86	-0.055418514
125	0xbc3aaa75	-0.011393179
126	0xbc7e23ae	-0.015511436
127	0xbc13d531	-0.009022997
128	0x3cee5694	0.029094018
129	0x3c1c3944	0.009535138
130	0xbcb8289f	-0.022480307
131	0xbdf2d0fe	-0.11856268
132	0xbd7026ad	-0.058630634
133	0xbd2eecc1	-0.042706255
134	0xbcd2b107	-0.025719179
135	0xbd7247cb	-0.0591505
136	0x3d046a40	0.03232789
137	0xbcd677e0	-0.026180208
138	0xbc87159a	-0.016489793
139	0x3c7fe1c9	0.015617796
140	0x3c3f966b	0.011693577
141	0x3d164d29	0.03669468
142	0x3b66dcef	0.0035226902
143	0xbd40e867	-0.047096636
144	0x3be5c336	0.0070117963
145	0x3d2d5216	0.04231461
146	0xbbd4fa2d	-0.00649955
147	0x3d91d396	0.07120435
148	0x3d14256b	0.036168497
149	0xbcf326a3	-0.02968151
150	0x3d0172cf	0.03160363
151	0x3c91bd11	0.01779035
152	0x3d478b66	0.048716925
153	0x3d15c903	0.036568653
154	0x3d11f2e8	0.035632044
155	0x3bbd38bc	0.0057745855
156	0x3c4fb1c2	0.012676658
157	0xbd083be3	-0.033260237
158	0x3aeb6896	0.0017960246
159	0xbd77ed98	-0.06052932
160	0xbcbbfb51	-0.022946985
161	0xbd93096f	-0.07179534
162	0x3cfe0a80	0.031010866
163	0x3d5c1bde	0.053737514
164	0xbd2887bf	-0.041145083
165	0x3d4d4aad	0.050120044
166	0xbc963a92	-0.018338475
167	0x3d150909	0.03638557
168	0x3bdd2a65	0.0067494386
169	0xbd10f965	-0.03539409
170	0x3c376161	0.0111926505
171	0x3caababe	0.020840999
172	0x3c5aef71	0.013362751
173	0x3d4ee8c2	0.050514944
174	0x3de338bf	0.11094808
175	0x3d9da594	0.07697597
176	0x3bd70105	0.006561401
177	0xbd8a500b	-0.06753548
178	0xbbf7efec	-0.0075664427
179	0x3cdbe7cc	0.026843928
180	0x3d670e98	0.056410402
181	0xbdade42e	-0.084907874
182	0xbd80a1f0	-0.06280887
183	0x3d4ab1ae	0.049485855
184	0x3ce0eb9c	0.027456097
185	0xbb01e44d	-0.0019819916
186	0x3d49b429	0.04924408
187	0xbdac5b26	-0.08415823
188	0xbcd96faa	-0.026542503
189	0xbdd1f12f	-0.1025108
190	0xbce29b73	-0.027662015
191	0xbe0c2de8	-0.13689387
192	0x3cdca07c	0.026931994
193	0x3bd59ed6	0.006519179
194	0x3da322bb	0.07965609
195	0xbd4f3a28	-0.05059257
196	0x3d061a96	0.032740198
197	0x3d126140	0.035737276
198	0x3d772afe	0.060343735
199	0xbd902896	-0.07038991
200	0xbcd78a76	-0.02631114
201	0x3cbd78f0	0.023128957
202	0x3c5e1e90	0.013557091
203	0x3d8e29a7	0.06941538
204	0xbd78ef57	-0.060775127
205	0x3c50bc6b	0.012740235
206	0xbd2182c2	-0.03943134
207	0xbdc019ae	-0.09379898
208	0xbd943be1	-0.072379835
209	0x3d81a0fe	0.06329535
210	0xbbc4554e	-0.0059916144
211	0x3d5da209	0.054109607
212	0x3d9692d7	0.07352226
213	0x3d43f290	0.047838748
214	0xbcf10ec1	-0.02942598
215	0xbd6bd929	-0.057580147
216	0xbe3fc7c3	-0.18728547
217	0xbdda1a96	-0.10649602
218	0x3c811ee9	0.01576181
219	0x3be57628	0.0070026107
220	0xbd3ec4a4	-0.04657425
221	0x3d1322fb	0.03592203
222	0xbc8e583c	-0.017376058
223	0xbd503310	-0.050829947
224	0xbd08d616	-0.033407293
225	0x3db4bfbc	0.08825633
226	0x3b08e12d	0.0020886168
227	0x3d260d60	0.0405401
228	0x3da08e5e	0.078396544
229	0x3deb1fd5	0.11480681
230	0xbaab734c	-0.0013080626
231	0x3e0711e4	0.13190418
232	0x3d5f561c	0.05452548
233	0xbda75bc1	-0.081717975
234	0x3d10af8d	0.03532367
235	0xbce62d4b	-0.02809777
236	0xbc4e500e	-0.012592329
237	0xbda9fd59	-0.08300275
238	0x3ccc56b2	0.024943683
239	0x3d4fe535	0.0507557
240	0x3dbfd1f7	0.093662195
241	0x3d759893	0.05995996
242	0x3cc39e67	0.023879243
243	0xbd910915	-0.070818104
244	0xbe01c03f	-0.12670992
245	0xbd274e2c	-0.040846035
246	0xbd02e684	-0.031958118
247	0xbd3eb6e7	-0.046561148
248	0xbd7283c0	-0.059207678
249	0xbd22eec9	-0.039778505
250	0x3cbd7200	0.023125648
251	0x3ce841ca	0.028351683
252	0xbc8360ab	-0.016037306
253	0x3d749bae	0.05971878
254	0xbba1ba21	-0.0049355184
255	0x39d7fd1d	0.0004119658

fc1.bias f4 [128]
0	0x3cd2c6c3	0.025729543
1	0x3b5e649b	0.0033934477
2	0x3c95cadb	0.018285206
3	0x3d823bdb	0.06359073
4	0xbc844cbc	-0.016149871
5	0x3d284d3e	0.04108929
6	0xbb186d61	-0.0023258554
7	0x3dea8510	0.11451161
8	0x3cc61a0a	0.024182338
9	0x3d8f403d	0.06994674
10	0x3b18a7b1	0.0023293311
11	0x3c341c32	0.01099305
12	0x3ca7f61c	0.020503096
13	0xbca93bfe	-0.02065849
14	0x3d27c69d	0.040960897
15	0xbae2c1f1	-0.0017300231
16	0x3ca6989c	0.020336442
17	0x3b2036bf	0.0024446694
18	0x3c9c4de6	0.019080114
19	0x3d114c10	0.03547293
20	0x3db7f396	0.08982007
21	0xbd7895cc	-0.060689732
22	0xb8e539a1	-0.00010930305
23	0xbb732437	-0.0037100443
24	0x3d290091	0.041260306
25	0x3da379c9	0.07982213
26	0x3ceab1bb	0.028649202
27	0x3d3c7b5a	0.046016075
28	0xbbc36082	-0.0059624324
29	0x3c9edeaa	0.019393284
30	0x3cc4ec1c	0.024038367
31	0x3d6c41b4	0.057679847
32	0x3de5efc3	0.112273715
33	0x3d5e2c73	0.05424161
34	0xbcda6cca	-0.026663203
35	0x3d52f0c4	0.051499143
36	0x3d19dac3	0.037562143
37	0x3c9e61d4	0.019333757
38	0x3a7dc8cc	0.0009681105
39	0x3cfddd93	0.030989444
40	0x3c609a16	0.013708612
41	0x3b2e3278	0.0026580375
42	0xbcaf0d9d	-0.021368796
43	0x3c821aeb	0.015881976
44	0x3c0ba506	0.008523231
45	0x3d08f7f3	0.033439588
46	0x3d98fb75	0.074698366
47	0xbcb12a42	-0.021626595
48	0xbc454d06	-0.01204229
49	0xbd1cd865	-0.038292307
50	0xbcacef90	-0.021110326
51	0x3d2dabfb	0.04240034
52	0x3d678e8f	0.05653244
53	0x3d09eaad	0.03367107
54	0x3dbfa4a3	0.09357574
55	0x3d3c7e1c	0.046018705
56	0xbc91e2d6	-0.01780836
57	0x3cb0fc5e	0.021604713
58	0x3d7d76a6	0.06188073
59	0x3d871bee	0.06597124
60	0x3ddab322	0.10678698
61	0x3d49486e	0.04914134
62	0x3cb8e1ed	0.022568667
63	0x3d043efb	0.032286625
64	0x3d5dc099	0.054138754
65	0x3d2a5a8a	0.04159025
66	0xbd47b405	-0.048755664
67	0x3d3a3e5b	0.045469623
68	0xbbc31a45	-0.0059540593
69	0x3c7b7e52	0.015349941
70	0xbaebbc90	-0.0017985273
71	0x3daac24d	0.08337841
72	0x3b4154ac	0.0029499931
73	0x3cef8c1b	0.029241612
74	0x3ccdb12c	0.025108896
75	0xbc04b9a2	-0.008100899
76	0x3d33535f	0.04378068
77	0x3ce7e4ff	0.028307436
78	0xbce01d65	-0.027357766
79	0x3bd4c68d	0.0064933957
80	0xbc00897c	-0.007845279
81	0xbc118283	-0.008881214
82	0xbc0ea30d	-0.0087058665
83	0x3d7c4402	0.061588295
84	0x3d4283d4	0.047489002
85	0xbc21a32f	-0.009865566
86	0x3c64974e	0.0139520895
87	0x3b6ac05e	0.0035820226
88	0x3d9463ea	0.072456196
89	0x3cdcb7f0	0.026943177
90	0x3cbaf241	0.022820594
91	0xbcf7ca34	-0.030247785
92	0xbc07e7be	-0.008294998
93	0xbc24e460	-0.0100642145
94	0xbbb213c1	-0.0054344838
95	0xbbd37bc0	-0.006453961
96	0x3d0d4416	0.03448876
97	0x3cc36a88	0.023854509
98	0xbaf968e6	-0.0019028455
99	0xbce6500e	-0.028114345
100	0xbc6164b0	-0.013756916
101	0xbcf6cc98	-0.030126855
102	0x3d120862	0.035652526
103	0x3cf578eb	0.029964885
104	0x3d7426ac	0.059607193
105	0x3d53332f	0.051562484
106	0xbd932586	-0.071848914
107	0xbcb285a0	-0.021792233
108	0x3dc818d9	0.09770364
109	0x3ad69e73	0.0016374126
110	0x3d51cefb	0.051222783
111	0x3d30d5df	0.043172713
112	0x3c8c4796	0.017123979
113	0xbc24da72	-0.010061847
114	0x3cde6310	0.027146846
115	0x3ce742bc	0.028230064
116	0x3c8fcf78	0.017554983
117	0x3e0e31f9	0.1388625
118	0xbd4af08f	-0.04954582
119	0x3dbb9c6a	0.09160693
120	0x396afc34	0.00022409932
121	0x3bafbda7	0.0053631845
122	0x3c8d4235	0.017243484
123	0x3cab6a89	0.020924823
124	0x3cedefd0	0.029045016
125	0x3b7cf2da	0.00385969
126	0x3d2fd8d0	0.042931378
127	0xbcb9d0e9	-0.022682624

fc2.weight f4 [64, 128]
0	0x3d9f5bf1	0.07781208
1	0xbe6150b6	-0.22003445
2	0x3e1e3933	0.15451507
3	0x3d045a93	0.03231294
4	0xbd9ca951	-0.07649482
5	0x3e12f638	0.14351737
6	0x3e134d02	0.14384845
7	0xbe49eeac	-0.19719952
8	0x3de36a65	0.111042775
9	0x3e0409f6	0.12894425
10	0x3e1566df	0.14590023
11	0x3df6569a	0.12028237
12	0xbdf48c67	-0.11940842
13	0xbe18a968	-0.14908373
14	0xbda53a96	-0.08067815
15	0xbe8b18eb	-0.27167448
16	0x3d253db2	0.04034204
17	0x3e6439bf	0.22287653
18	0x3e00bc93	0.12571935
19	0x3c81fdd1	0.0158681
20	0x3dad274d	0.08454762
21	0x3da16335	0.0788025
22	0xbe09a376	-0.13441262
23	0xbbf0b70c	-0.0073460396
24	0xbcf77f40	-0.030212045
25	0xbe24e233	-0.16101913
26	0x3e25dbd2	0.16197136
27	0xbe2abdca	-0.16673961
28	0x3dd50f71	0.10403336
29	0x3d886474	0.06659785
30	0x3e4b10cb	0.19830625
31	0x3ebd4f31	0.3697448
32	0x3cc9e1f2	0.024643872
33	0xbe26b732	-0.16280821
34	0xbea8fd93	-0.33005962
35	0x3e1c089c	0.15237659
36	0x3e1aeb96	0.15128931
37	0xbdf638d2	-0.12022556
38	0x3d003899	0.031303976
39	0x3d9a935f	0.0754764
40	0x3d3a5534	0.045491412
41	0x3b3f286a	0.0029168376
42	0x3ce97d7b	0.028502217
43	0xbe6c741c	-0.23091167
44	0xbe1c423e	-0.15259644
45	0xbe23d18a	-0.15997902
46	0xbe80addf	-0.25132653
47	0xbe8e56c2	-0.27800566
48	0xbc7587f7	-0.01498603
49	0xbe85eb81	-0.26156238
50	0x3e647299	0.2230934
51	0xbb15941c	-0.0022823876
52	0xbe35819d	-0.17725225
53	0x3dd26ee1	0.10275055
54	0xbe4be41c	-0.19911236
55	0x3cb1333a	0.021630872
56	0x3db0b3b7	0.08628028
57	0xbe09d7f2	-0.13461283
58	0xbe352780	-0.1769085
59	0xbe00d235	-0.12580188
60	0x3e80fa3f	0.25190923
61	0x3e29774f	0.16549419
62	0x3e10652f	0.14101098
63	0xbe03e9a7	-0.128821
64	0x3de97be8	0.11400586
65	0x3e0730e9	0.13202251
66	0x3d3dc14f	0.04632693
67	0x3da9be15	0.082882084
68	0x3dab10c3	0.083528064
69	0xbbfdd99f	-0.0077468897
70	0xbe9e6c2b	-0.309419
71	0xbd8efe7e	-0.06982134
72	0xb9c853b3	-0.00038209333
73	0x3c3df30d	0.011593592
74	0x3d25decb	0.040495675
75	0x3e350e7e	0.1768131
76	0x3e22cd8f	0.15898727
77	0x3e137a3d	0.14402099
78	0x3d047c29	0.03234497
79	0x3cddea6b	0.027089318
80	0x3ddb2ee4	0.10702303
81	0xbc99196f	-0.018688885
82	0xbd9a5216	-0.07535188
83	0xbc059ee7	-0.008155561
84	0x3d9ee894	0.077592045
85	0xbda4ffb7	-0.08056586
86	0x3cd1247e	0.025530096
87	0xbdeebd68	-0.1165722
88	0x3ea2ecb1	0.31821206
89	0x3e8b88e0	0.27252865
90	0xbd950f43	-0.072783016
91	0xbdcd6bb8	-0.10030311
92	0x3e93c7a7	0.2886326
93	0x3e6b6117	0.22986256
94	0xbd7f8bd7	-0.06238922
95	0x3ddc602d	0.107605316
96	0x3e0ab25d	0.13544603
97	0xbddff03f	-0.10934495
98	0x3e5d6565	0.2162071
99	0xbc9fdb69	-0.019513803
100	0xbdc8054c	-0.09766635
101	0x3d439693	0.04775102
102	0x3e44e6ae	0.19228622
103	0x3d379e4c	0.044828698
104	0x3dbc13f5	0.09183494
105	0xbe5c993f	-0.21542834
106	0x3e314541	0.17311575
107	0xbcef6ba1	-0.029226126
108	0x3e8bed8f	0.2732968
109	0x3eddb641	0.4330311
110	0x3cdd36ff	0.027003763
111	0xbe617725	-0.22018106
112	0x3e18e25f	0.14930104
113	0x3bfc200c	0.00769425
114	0x3d509313	0.05092151
115	0x3e42354d	0.18965645
116	0xbc9ff1d7	-0.019524498
117	0xbe9d7904	-0.3075639
118	0x3cf793f4	0.030221917
119	0xbd957172	-0.072970286
120	0xbd5d3b50	-0.054011643
121	0xbe1cf4f1	-0.15327813
122	0x3e4cae42	0.19988349
123	0x3d034cf8	0.032055825
124	0x3e1faed4	0.15594035
125	0xbe3d7f8a	-0.18505684
126	0xbd0df6d7	-0.034659233
127	0x3d5c8b15	0.053843576
128	0x3b8235dd	0.003973706
129	0x3d40c6fb	0.047064763
130	0xbd051a2b	-0.03249566
131	0xbe04a3b1	-0.12953068
132	0x3dbda0dc	0.09259197
133	0x3e098a1b	0.1343159
134	0xbb05e379	-0.0020429774
135	0xbd8ac953	-0.06776681
136	0xbbadfa21	-0.0053093587
137	0x3c19ebd3	0.009394604
138	0xbcab13d8	-0.020883486
139	0xbd0cd135	-0.034379203
140	0x3caf3b1d	0.021390492
141	0x3dd239b4	0.10264912
142	0x3c318434	0.010834742
143	0xbddbdb3c	-0.10735175
144	0x3da954e4	0.08268145
145	0x3b580b7d	0.0032965832
146	0x3e0ef868	0.13961947
147	0x3dc8aca0	0.097985506
148	0x3df29752	0.11845268
149	0x3dcb506f	0.09927451
150	0xbdb84e06	-0.08999257
151	0xbec170c4	-0.37781346
152	0x3e840227	0.25782892
153	0xbdd63e1c	-0.10461065
154	0xbe80d0d6	-0.2515933
155	0xbe040a1f	-0.12894486
156	0x3e227393	0.158644
157	0x3d8f8779	0.07008261
158	0xbdae7008	-0.08517462
159	0xbb254585	-0.0025218439
160	0x3d16c459	0.036808345
161	0x3cea3b1b	0.028592637
162	0xbd98c9e1	-0.0746038
163	0x3d30defd	0.04318141
164	0xbd90ddb9	-0.0707354
165	0xbcc6741f	-0.024225293
166	0xbe616907	-0.22012721
167	0xbd94f657	-0.07273548
168	0xbc59ddd4	-0.013297517
169	0xbcbd3395	-0.023095885
170	0x3d71455f	0.058904048
171	0xbe1f39d4	-0.15549403
172	0xbd27382c	-0.040825054
173	0xbdb7852b	-0.08960947
174	0x3d2b9948	0.041894227
175	0x3dec1aad	0.115285255
176	0x3d0af821	0.03392804
177	0x3d4acd73	0.049512338
178	0x3d53146b	0.051533144
179	0x3dd81380	0.10550594
180	0xbe1189e4	-0.14212757
181	0x3b4d54ac	0.0031330986
182	0xbd80a5ee	-0.062816486
183	0x3e931b3b	0.28731713
184	0x3e5307a9	0.20608391
185	0xbe91daf2	-0.28487355
186	0xbc52250a	-0.012826214
187	0x3d157c14	0.036495283
188	0x3e548bbc	0.2075643
189	0x3db56fa1	0.08859182
190	0x3d896c07	0.06710058
191	0xbe3ca8e7	-0.18423806
192	0xbdbaf822	-0.09129359
193	0x3d5f41f4	0.054506257
194	0xbe2696bc	-0.16268438
195	0x3cf8451b	0.03030639
196	0xbdbe19aa	-0.09282239
197	0x3db38435	0.08765451
198	0xbdb53823	-0.08848598
199	0xbd06c71f	-0.03290474
200	0xbc1d5168	-0.009601928
201	0x3df114fd	0.11771581
202	0xbdf3ee8e	-0.11910735
203	0x3e219b48	0.15781891
204	0xbcfad6c2	-0.030619983
205	0x3de3fba6	0.111319825
206	0xbe0cec04	-0.13761908
207	0x3b4030ea	0.002932603
208	0xbdbbb950	-0.09166205
209	0x3c4a120a	0.012333402
210	0xbd042bee	-0.032268457
211	0x3e07759c	0.13228458
212	0xbd64f384	-0.055896297
213	0x3bcc44b3	0.0062337755
214	0x3e8c9d19	0.27463606
215	0xbc3edfd0	-0.011650041
216	0xbc93243d	-0.017961616
217	0xbcff045a	-0.031130005
218	0x3d913ebd	0.070920445
219	0x3e12ccee	0.14335987
220	0xbb42a17b	-0.00296983
221	0xbdc86c52	-0.097862855
222	0x3e1d6f15	0.15374406
223	0xbba4e069	-0.0050316346
224	0x3d15dc07	0.036586788
225	0x3e2334fb	0.15938179
226	0x3d9b17c8	0.07572895
227	0xbec51819	-0.38494948
228	0xba1d2578	-0.0005994658
229	0xbe8ba93b	-0.2727755
230	0xbd4adebf	-0.049528833
231	0xbdb41ca5	-0.08794526
232	0x3cdb294a	0.026753087
233	0x3d9bff62	0.0761707
234	0xbdc08345	-0.09400038
235	0x3c7f715c	0.015590992
236	0x3e544f94	0.20733482
237	0xbdd92fb4	-0.10604802
238	0x3ebe0b9d	0.37118235
239	0xbbb80fde	-0.005617126
240	0xbe8ed0c5	-0.27893654
241	0x3e879876	0.26483506
242	0xbe017b4b	-0.12644689
243	0x3e7a4838	0.24441612
244	0xbecd0320	-0.40041447
245	0xbc8a99cf	-0.016919045
246	0x3d748a66	0.0597023
247	0x3e74c424	0.23902947
248	0xbb813daf	-0.003944121
249	0x3ec06436	0.37576455
250	0x3e254dae	0.16142914
251	0x3e034665	0.12819822
252	0x3d930ebf	0.07180547
253	0x3bff41fd	0.007789849
254	0x3dbc7973	0.09202852
255	0xbd99b098	-0.07504386

fc2.bias f4 [64]
0	0x3d601b2a	0.054713406
1	0x3c276583	0.010217073
2	0xb923a291	-0.00015605452
3	0xbae0a1d4	-0.0017138072
4	0x3d1ab5c6	0.03777101
5	0x3e030eff	0.1279869
6	0x3ccb5b75	0.024823884
7	0x3d699862	0.05703009
8	0xbc533bc4	-0.012892667
9	0xbbad3e61	-0.005286977
10	0x3db0c1f8	0.086307466
11	0x3d990604	0.074718505
12	0xbd3ed29d	-0.046587575
13	0x3ccc9dcd	0.024977589
14	0x3d173c9d	0.03692304
15	0x3c0ba8e2	0.0085241515
16	0x3d550452	0.052006073
17	0x3c0068f4	0.007837523
18	0x3d4bb49c	0.04973279
19	0xbcc30fe1	-0.023811283
20	0x3bccb156	0.006246726
21	0x3d859b08	0.065237105
22	0x3a5941c2	0.0008287692
23	0x3d86bc58	0.065788925
24	0x3caf7e56	0.021422546
25	0xbb5a2848	-0.003328817
26	0x3c1f7251	0.009731845
27	0x3bbc3f61	0.00574486
28	0x3d86fbd1	0.06590999
29	0x3ba7adec	0.0051171687
30	0x3c851fed	0.016250575
31	0x39415037	0.00018435797
32	0xbd301bb1	-0.04299516
33	0x3d5fdf79	0.05465648
34	0xbdb90e90	-0.09035981
35	0x3d18dc89	0.037319694
36	0x3d7bb7aa	0.061454453
37	0x3da8faca	0.08250959
38	0xbb4ac212	-0.0030938429
39	0x3c8d9120	0.017281115
40	0x3d219bfc	0.0394554
41	0x3ced2491	0.0289481
42	0xbb0c5d5b	-0.002141795
43	0x3d0a84f5	0.033818204
44	0xbd12901e	-0.035781972
45	0x3d4d470c	0.050116584
46	0x3c3ca093	0.011512893
47	0x3d93ba5f	0.07213282
48	0xbb76aae4	-0.003763848
49	0x3cc582e1	0.02411026
50	0x3d8c3475	0.06845943
51	0x3d47247c	0.04861878
52	0xbc6ae38a	-0.014336476
53	0x3aa003fa	0.0012208216
54	0x3d2d40d4	0.042298153
55	0x3b4326ba	0.0029777722
56	0xbc698e00	-0.014255047
57	0xbba323f5	-0.0049786516
58	0x3c7ae000	0.015312195
59	0x3be8a351	0.007099547
60	0x3c189486	0.0093127545
61	0xbc979844	-0.018505223
62	0x3c1c02c2	0.009522142
63	0xbbb47fb4	-0.0055083875

fc3.weight f4 [10, 64]
0	0x3e6a1fc2	0.22863677
1	0x3ec389db	0.38191113
2	0x3c473c2d	0.012160343
3	0x3e615c76	0.22007927
4	0xbf033561	-0.51253325
5	0xbecaeb56	-0.39632672
6	0x3db79dec	0.08965668
7	0xbd95408f	-0.07287704
8	0xbd6c9924	-0.057763234
9	0xbe03c18d	-0.12866803
10	0xbe63c296	-0.22242197
11	0xbedfbe52	-0.4369989
12	0x3d77385b	0.06035648
13	0x3ea36450	0.3191247
14	0xbeaff0c6	-0.34363383
15	0x3c01bae4	0.007918093
16	0xbda5e45e	-0.08100198
17	0x3e8522a9	0.26003006
18	0xbcb6e894	-0.022327699
19	0x3d151f35	0.036406714
20	0x3e8f8238	0.28029037
21	0xbecc6a0c	-0.39924657
22	0xbea189c2	-0.31550413
23	0x3da98727	0.082777314
24	0x3e910edd	0.28331652
25	0xbd7dd0df	-0.061966773
26	0x3f012f8d	0.5046318
27	0xbe23c2a3	-0.15992217
28	0xbf00d37e	-0.5032271
29	0xbe447c6a	-0.19188085
30	0x3d4e07f6	0.05030056
31	0xbd2cd985	-0.04219963
32	0x3c255d83	0.010093096
33	0xbaba4e18	-0.0014213948
34	0x3ee70b28	0.451257
35	0x3ce156b1	0.027507158
36	0xbf0e7fd3	-0.55663794
37	0x3ce35e5c	0.027754955
38	0x3dab8341	0.08374644
39	0xbe2f0f33	-0.17095642
40	0x3e0e37de	0.13888499
41	0xbece1ad0	-0.4025483
42	0x3e1f2c81	0.1554432
43	0x3bf165fa	0.007366893
44	0xbdf56a13	-0.11983123
45	0xbf140886	-0.57825506
46	0xbd330eb5	-0.043715198
47	0x3ea372ae	0.3192343
48	0x3c2b3a18	0.010450862
49	0x3eaee9c4	0.34162724
50	0x3e9928b3	0.29913864
51	0x3e2007cd	0.15627976
52	0x3e561cae	0.20909378
53	0xbe7a88b3	-0.24466209
54	0xbebd71fd	-0.3700103
55	0xbeb4ff29	-0.35350922
56	0xbd9fdf5a	-0.07806273
57	0xbd91b546	-0.07114653
58	0x3e206c1e	0.15666243
59	0x3f2c1b69	0.67229325
60	0x3e31496f	0.17313169
61	0x3dda8aa4	0.10670975
62	0x3e5c79a4	0.21530777
63	0x3dd338f2	0.10313596
64	0x3d1eb410	0.03874594
65	0xbe8293ae	-0.25503296
66	0x3e474c12	0.19462612
67	0x3bde97a7	0.0067929807
68	0x3e55e33a	0.20887461
69	0x3f526bde	0.8219584
70	0x3ed3e97d	0.41389075
71	0x3f033104	0.51246667
72	0x3e78ebff	0.24308775
73	0xbeb493f1	-0.3526912
74	0xbd535107	-0.051590946
75	0xbe876d06	-0.26450366
76	0x3daa2fbb	0.08309885
77	0xbe6ac27d	-0.22925754
78	0xbdb0e999	-0.08638305
79	0xbdec8fd2	-0.11550869
80	0xbeebe584	-0.46073544
81	0xbec86e29	-0.39146546
82	0xbec52b82	-0.38509756
83	0x3db40401	0.08789826
84	0xbe177f4f	-0.14794658
85	0xbd95b388	-0.073096335
86	0x3ce7f0ee	0.028313126
87	0x3d65db1c	0.056117162
88	0xbdaf1490	-0.08548844
89	0xbec46e80	-0.38365555
90	0x3e0286e5	0.1274677
91	0xbcfd72ea	-0.030938584
92	0x3e74344f	0.23848079
93	0xbce33bae	-0.027738418
94	0xbc620636	-0.013795426
95	0x3de3de40	0.11126375
96	0x3ef0edc8	0.47056413
97	0x3df51a70	0.11967933
98	0xbf35b402	-0.70977795
99	0xbe6baaa1	-0.23014309
100	0x3ec6fdbb	0.38865456
101	0xbedfb60d	-0.4369358
102	0x3e8ec6a3	0.27885923
103	0x3e461ae7	0.193462
104	0xbf017c1b	-0.50579995
105	0xbe366363	-0.1781135
106	0x3ea4e904	0.32209027
107	0x3e0ec4d5	0.13942273
108	0xbe1e1f58	-0.15441644
109	0x3d00e400	0.031467438
110	0x3e87f565	0.2655441
111	0xbeb62e81	-0.35582355
112	0x3dad70fb	0.08468815
113	0x3ebe9555	0.37223306
114	0x3e0bedcc	0.13664931
115	0xbe38d582	-0.18050197
116	0x3d2a7c2b	0.041622322
117	0xba9781a3	-0.001155902
118	0x3d147f24	0.036254063
119	0x3ea6d4f8	0.32584357
120	0xbd819c00	-0.06328583
121	0xbeb4a4b0	-0.35281897
122	0x3e863976	0.26215714
123	0xbd454a77	-0.04816672
124	0xbeb00830	-0.34381247
125	0xbe65b444	-0.22432047
126	0xbd33c0a5	-0.043884892
127	0x3e311e27	0.17296658
128	0x3edc24aa	0.42996722
129	0xbe43f1e3	-0.19135241
130	0xbe1bc312	-0.15211132
131	0xbde98363	-0.11402013
132	0x3e1bf3f7	0.15229784
133	0x3cdc4cf3	0.026892161
134	0xbd907f88	-0.07055575
135	0xbec51547	-0.38492796
136	0xb615cffe	-2.2323798e-06
137	0x3f383d28	0.7196832
138	0xbd9e5739	-0.0773148
139	0xbe96980d	-0.2941288
140	0x3e580eb4	0.21099359
141	0xbd80c39b	-0.06287309
142	0x3e945ce2	0.28977114
143	0xbeb2f8fe	-0.3495559
144	0xbca73d10	-0.020414859
145	0x3f4661ca	0.77492964
146	0xbef83021	-0.4847422
147	0x3e32aba2	0.17448285
148	0x3e03bfaa	0.12866083
149	0xbe2a1d9f	-0.16612862
150	0x3e69f2cb	0.22846524
151	0x3e7e9f79	0.24865521
152	0x3ca93379	0.020654427
153	0x3e2ea7d3	0.17056207
154	0xbd844f3c	-0.06460425
155	0x3e45d445	0.19319256
156	0x3d31b30e	0.04338365
157	0x3d30a618	0.04312715
158	0x3e3ee634	0.18642503
159	0x3d2c8806	0.04212191
160	0xbeb3416b	-0.35010847
161	0xbe7fcf75	-0.24981482
162	0xbea92e21	-0.33043006
163	0x3e30c6c6	0.17263326
164	0x3f08111f	0.53151125
165	0x3ddc2c1e	0.10750602
166	0xbe79f519	-0.24409904
167	0xbde0ff5c	-0.10986206
168	0x3f2af40d	0.6677864
169	0x3ece144f	0.4024987
170	0x3ea75030	0.32678366
171	0x3ec8acf8	0.39194465
172	0xbe3f2497	-0.18666302
173	0xbeadf0b6	-0.3397271
174	0xbf3f2e77	-0.74680275
175	0xbec77f87	-0.38964483
176	0x3e4f9796	0.20272669
177	0x3f1021a2	0.5630132
178	0xbefbb531	-0.49161676
179	0xbe9ae768	-0.30254674
180	0xbde08124	-0.109621316
181	0xbe00beec	-0.12572831
182	0x3e9d24f5	0.30692258
183	0xbe905d96	-0.281964
184	0x3d15fe88	0.036619693
185	0xbe35a7f5	-0.17739852
186	0x3e317067	0.17328034
187	0xbf2564c7	-0.646069
188	0xbc1594ce	-0.009129716
189	0x3d7af7bb	0.06127141
190	0xbed015de	-0.40641683
191	0x3e77a4d9	0.24183978
192	0xbe4333eb	-0.19062774
193	0xbedb4689	-0.42827252
194	0x3e0c60e9	0.13708843
195	0x3ee80156	0.4531352
196	0x3eb2130d	0.3478016
197	0xbe30e700	-0.1727562
198	0x3e7aba89	0.2448522
199	0xbdb90e22	-0.09035899
200	0x3f05a505	0.52204925
201	0x3f21317c	0.6296613
202	0xbeeab8e6	-0.4584419
203	0xbe6f937d	-0.23396106
204	0xbcbf4bea	-0.023351628
205	0x3ea5649d	0.32303324
206	0xbd3f63ef	-0.046726163
207	0x3e117bba	0.14207354
208	0x3e24cc9b	0.16093676
209	0xbee7d947	-0.45282957
210	0xbe766430	-0.24061656
211	0x3db33366	0.08750038
212	0xbf137b76	-0.5761026
213	0x3ca8ba93	0.020596778
214	0xbdccec00	-0.10005951
215	0xbf6853c1	-0.907528
216	0xbee6e035	-0.4509293
217	0x3dcdae30	0.10042989
218	0x3e546e41	0.20745184
219	0xbeb32656	-0.34990185
220	0xbeb24e73	-0.34825477
221	0xbe458f6a	-0.1929299
222	0x3ea0ea91	0.3142896
223	0xbdd73942	-0.10508968
224	0x3f201da2	0.62545216
225	0xbed7b17d	-0.421276
226	0x3ea8fb97	0.33004448
227	0xbbd4c121	-0.0064927493
228	0x3f0860d2	0.53272736
229	0xbf077fdf	-0.5292949
230	0xbd5ba213	-0.053621363
231	0x3e83acc7	0.25717756
232	0xbdb93f22	-0.09045245
233	0x3ddad73e	0.106855854
234	0x3f23c881	0.6397782
235	0xbe0b9f07	-0.13634883
236	0x3e20d1ae	0.15704986
237	0x3e3d183c	0.18466276
238	0x3edaed38	0.4275911
239	0xbd824cd2	-0.063623086
240	0x3df59842	0.119919315
241	0xbd504dac	-0.050855324
242	0x3d38e7eb	0.04514305
243	0x3ec1d734	0.378595
244	0x3cf3254a	0.029680867
245	0x3ea38524	0.31937516
246	0xbb7e3ea6	-0.0038794666
247	0x3e1bed23	0.15227179
248	0xbcc341ab	-0.023835024
249	0x3e918567	0.2842209
250	0xbcd4317d	-0.025902504
251	0xbe567f41	-0.20946981
252	0x3dd20cd2	0.102563515
253	0x3f34be27	0.7060265
254	0x3c7abb47	0.015303439
255	0xbdb70dae	-0.08938156

fc3.bias f4 [10]
0	0xbd2b7e48	-0.041868478
1	0x3dbddbc7	0.09270435
2	0x3a832903	0.0010006729
3	0xbdbce363	-0.09223058
4	0x3dc94157	0.09826916
5	0x3d72d92f	0.059289154
6	0xbbd72c15	-0.0065665343
7	0x3d3de103	0.046357166
8	0xbdcb374c	-0.099226564
9	0xbd6c7686	-0.05773022
