best_model.pth (torch, 475814 bytes, 6 tensors)

fc1.weight f4 [128, 784]
0.050897498 0.050312944 -0.042240605 0.0871314 0.054575443 -0.029804891 0.05748932 0.025735613
-0.06360175 0.029539261 -0.02135322 -0.008140347 0.016627854 0.041353315 0.021499844 0.12426716
0.07029207 -0.026253182 0.038959116 -0.041416623 0.058308203 0.036259376 0.016147625 0.027410636
0.035237852 0.042840756 -0.0067138546 0.030592808 0.013234802 -0.028428793 -0.0040280814 -0.027783798
0.026277399 -0.023496054 -0.030379318 -0.041070726 0.0028111788 0.07505262 -0.014652592 -0.004839542
-0.056517594 0.025871271 -0.049273953 -0.031871833 0.048786342 -0.04202986 0.03063919 0.019657215
-0.03325842 -0.044512976 -0.0067344005 0.032448113 0.056055482 -0.032148868 -0.020384898 -0.04326009
-0.05863225 0.029741853 0.028158255 0.043479472 0.034040425 0.0018857347 -0.027507283 0.026885802
-0.026377259 -0.028672235 0.027734121 -0.026475802 0.018825231 -0.09663881 -0.033598453 0.01612931
-0.11297294 0.043388776 -0.092785396 0.044886164 -0.09589655 -0.050117504 0.077128515 -0.0023689608
0.0323549 -0.0744015 0.0023328399 0.012306287 -0.019330503 0.044376597 -0.023291208 -0.0014411133
-0.09549375 -0.002435017 -0.0057086023 -0.015365013 -0.069413915 -0.039334342 -0.08028767 -0.064140484
0.007482987 -0.0027328925 -0.026208935 0.037827797 -0.08048004 0.010103598 0.020214213 -0.021764927
0.10248362 -0.10191917 0.052179035 0.0074215154 0.057154685 0.067547575 0.0027452048 0.034705285
-0.040084463 -0.0317419 -0.016637517 0.003858842 0.0042581097 0.036937736 0.08081662 -0.027489338
-0.10896831 0.004945344 -0.036663845 -0.09605973 -0.06712852 -0.05827343 -0.0035875305 -0.08621963
0.055231255 -0.021283144 -0.04005195 0.023217455 0.047647767 0.1087227 0.07340262 0.065050445
-0.026695475 0.02633115 0.005627971 0.038953394 -0.014173189 -0.014428828 0.012859575 0.0012537093
0.022287276 0.02773392 -0.026241038 0.029940264 0.014041627 -0.03662701 -0.11564787 -0.037753362
0.007386675 -0.090843216 -0.09124605 0.03832463 -0.053267684 0.00946702 0.003829556 0.070726246
0.055673763 -0.013106085 0.051129084 0.023239681 0.062528096 0.040334713 0.06813716 0.011778077
-0.020993585 0.015040391 0.023503065 0.06743405 -0.05001064 -0.039830007 0.06720085 -0.025767466
0.009867012 0.012913277 -0.048535455 -0.004979111 0.06613546 -0.028573664 0.05410591 -0.051750075
-0.005989754 -0.048601214 0.016924031 0.058473084 0.08950544 0.008150962 0.008482531 0.0692075
0.056191575 -0.023889512 0.07533904 0.00023659857 -0.0850477 -0.018038733 -0.0890785 -0.031989902
0.056311313 -0.049761668 -0.034941178 -0.025217952 -0.047342267 -0.012121154 0.026583446 -0.09952611
-0.036509987 0.020834496 0.022968875 -0.029144684 0.0029201824 -0.05997669 -0.026354091 0.0035898553
0.09378995 0.09050188 0.027539697 0.039335113 0.03806947 0.058257066 -0.011857313 0.042208076
0.080233626 -0.020588407 0.02895568 -0.08515303 0.022277718 -0.012516156 -0.036982547 -0.04015011
-0.0033176497 0.024706952 0.03532707 0.15362094 -0.004052736 0.008193128 -0.046415363 -0.018118931
-0.05787192 0.023056028 -0.008913472 0.004931516 0.013151007 0.04139135 0.043285657 0.09575743
0.12842521 0.09858705 0.05975939 -0.099648185 0.03676529 -0.10250235 0.053772476 -0.05731424
00000000: e579 503d f214 4e3d 7c04 2dbd f371 b23d
00000010: 808a 5f3d 6329 f4bc ec79 6b3d 7ed3 d23c
00000020: a241 82bd 52fc f13c f3ec aebc 175f 05bc
00000030: 2337 883c 1862 293d 7120 b03c c87f fe3d
00000040: 4af5 8f3d ea10 d7bc 9893 1f3d 7aa4 29bd
00000050: 95d4 6e3d b684 143d 0648 843c 458c e03c
00000060: 9155 103d ca79 2f3d e5ff dbbb c59d fa3c
00000070: c8d6 583c 80e3 e8bc fffd 83bb d99a e3bc
00000080: b343 d73c cc7a c0bc 0cde f8bc c739 28bd
00000090: c13b 383b 30b5 993d 6d11 70bc 0595 9ebb
000000a0: fe7e 67bd fdef d33c 7cd3 49bd 0a8c 02bd
000000b0: 30d4 473d 8127 2cbd 0aff fa3c 2b08 a13c
000000c0: fb39 08bd 3d53 36bd 3fac dcbb 50e8 043d
000000d0: 6f9a 653d 88ae 03bd 3bfe a6bc 7e31 31bd
000000e0: 5f28 70bd 30a5 f33c 24ac e63c 8817 323d
000000f0: f96d 0b3d c22a f73a f456 e1bc 9d3f dc3c
00000100: 1f15 d8bc 09e2 eabc ab32 e33c c8e3 d8bc
00000110: 5f37 9a3c 92ea c5bd 889e 09bd 9d21 843c
00000120: 5b5e e7bd 6eb8 313d 4506 bebd 8eda 373d
00000130: 6965 c4bd 0348 4dbd 8ef5 9d3d 9140 1bbb
00000140: 9286 043d d05f 98bd 8fe2 183b 4fa0 493c
00000150: 015b 9ebc 3cc4 353d 34cd bebc bde3 bcba
00000160: 3a92 c3bd ce94 1fbb 3a0f bbbb 89bd 7bbc
00000170: e228 8ebd 0c1d 21bd dd6d a4bd 165c 83bd
00000180: d833 f53b 541a 33bb 1fb4 d6bc 52f1 1a3d
00000190: b8d2 a4bd 9089 253c 4798 a53c 5c4c b2bc
000001a0: efe2 d13d ffba d0bd afb9 553d 2f30 f33b
000001b0: 081b 6a3d 6256 8a3d e5e8 333b 2127 0e3d
000001c0: 9b2f 24bd cb03 02bd 674b 88bc a0e4 7c3b
000001d0: 9d87 8b3b 064c 173d 2f83 a53d 5231 e1bc
000001e0: c72a dfbd 8d0c a23b d42c 16bd f7ba c4bd
000001f0: ad7a 89bd 1fb0 6ebd c61c 6bbb eb93 b0bd
00000200: 2b3a 623d fd59 aebc 830d 24bd 8832 be3c
00000210: 4e2a 433d 02aa de3d 1d54 963d 2b39 853d
00000220: 78b0 dabc 6db4 d73c d86a b83b 988d 1f3d
00000230: aa36 68bc e466 6cbc f8b0 523c 8153 a43a
00000240: ce93 b63c 3f32 e33c 72f7 d6bc 4945 f53c
00000250: da0e 663c 3406 16bd cad8 ecbd 45a3 1abd
00000260: ec0b f23b 020c babd 36df babd 4afa 1c3d
00000270: 372f 5abd 8f1b 1b3c 4af9 7a3b ecd8 903d
00000280: 2c0a 643d e8ba 56bc bb6c 513d 2561 be3c
00000290: bb0e 803d 0336 253d 7f8b 8b3d d6f8 403c
000002a0: bdfa abbc f96b 763c 8089 c03c dd1a 8a3d
000002b0: f5d7 4cbd ca24 23bd 99a0 893d 4b16 d3bc
000002c0: 3fa9 213c 3692 533c 1dcd 46bd cf27 a3bb
000002d0: 0772 873d 5113 eabc 299e 5d3d e3f7 53bd
000002e0: b345 c4bb 1112 47bd 44a4 8a3c 7981 6f3d
000002f0: a14e b73d 9d8b 053c 50fa 0a3c a9bc 8d3d
00000300: 2329 663d f0b3 c3bc 5b4b 9a3d 7217 7839
00000310: 7d2d aebd f7c5 93bc ca6e b6bd d807 03bd
00000320: b1a6 663d e4d2 4bbd 7b1e 0fbd e195 cebc
00000330: f7e9 41bd ce97 46bc 87c5 d93c 58d4 cbbd
00000340: 7f8b 15bd 1bad aa3c 3929 bc3c d5c0 eebc
00000350: 8860 3f3b 1eaa 75bd 89e4 d7bc c743 6b3b
00000360: f214 c03d 0d59 b93d ee9a e13c db1d 213d
00000370: bcee 1b3d f69e 6e3d 2d45 42bc 60e2 2c3d
00000380: 8751 a43d 05a9 a8bc 7634 ed3c b664 aebd
00000390: c37f b63c 9010 4dbc 037b 17bd 7174 24bd
000003a0: ed6c 59bb 3c66 ca3c 1eb3 103d cf4e 1d3e
000003b0: d0cc 84bb 783c 063c 091e 3ebd 276e 94bc
000003c0: 1b0b 6dbd ffdf bc3c d009 12bc 8e98 a13b
000003d0: 5277 573c fa89 293d 4d4c 313d 791c c43d
000003e0: e681 033e 02e8 c93d 43c6 743d 5914 ccbd
000003f0: 3397 163d c1ec d1bd 8740 5c3d 56c2 6abd

fc1.bias f4 [128]
0.046844214 0.13826554 0.05490903 0.0041312245 0.09550623 -0.0698974 0.021452714 -0.050957583
0.0054378523 -0.033037268 0.10401952 0.14742188 -0.0070300614 0.05039106 0.04190526 0.026589885
0.031532288 0.012722082 0.12598869 -0.012993948 0.054682706 -0.01628915 -0.022543816 -0.039301664
-0.015035928 0.06077966 -0.038199283 -0.015468346 0.027860435 0.0324124 -0.014926414 0.009647503
0.09094524 -0.006898585 -0.013233119 0.004133538 0.048969615 -0.08551327 -0.039676186 -0.043419745
0.04037318 0.010203053 -0.023595762 0.08430699 0.07569704 0.006295912 -0.0028864664 -0.026701318
0.005079094 0.037032843 0.0072929068 -0.032761656 0.09859864 0.10463996 0.016010258 0.008691916
-0.022213137 -0.029002788 0.0460098 -0.03667281 0.0087281335 -0.026093105 -0.011990386 -0.07721148
-0.00063805137 -0.0442537 0.047435287 -0.061619826 0.004967187 0.1290086 0.031349815 -0.012465163
-0.02769914 0.054362476 -0.004741699 0.039566007 -0.052614514 0.05446841 0.0040039136 0.005984436
0.076197594 0.054141004 0.09297847 0.02436357 0.028029557 -0.04902219 0.010216421 0.084052436
-0.008012276 0.019609291 0.031579074 0.022391364 0.14790952 0.06620673 0.04370648 0.008884773
-0.0064876205 -0.046933066 -0.024857849 0.13501489 0.023438822 -0.026854118 0.059114587 -0.036823004
0.055653475 0.048148908 -0.02788035 0.0017653857 0.039642908 0.0029092308 0.06260593 0.06865218
0.05147644 0.08252179 0.042662077 0.001638209 -0.034448132 0.040471897 0.13087097 -0.0016600161
0.04568653 0.0975153 0.011084723 -0.01816466 -0.047767285 -0.0052052485 0.060912214 0.07176074
00000000: b8df 3f3d 7b95 0d3e 4be8 603d 395f 873b
00000010: c598 c33d 5e26 8fbd 9abd af3c e6b8 50bd
00000020: 0330 b23b 1652 07bd 3008 d53d c3f5 163e
00000030: 6e5c e6bb db66 4e3d daa4 2b3d 08d3 d93c
00000040: 0028 013d 4870 503c 2e03 013e 91e4 54bc
00000050: f9fa 5f3d d370 85bc cfad b8bc c8fa 20bd
00000060: 4159 76bc 18f4 783d da76 1cbd f26e 7dbc
00000070: 913b e43c ddc2 043d eb8d 74bc 8f10 1e3c
00000080: 7f41 ba3d 860d e2bb b9cf 58bc a172 873b
00000090: 5d94 483d 9521 afbd 7f83 22bd e7d8 31bd
000000a0: 595e 253d b52a 273c e64b c1bc 25a9 ac3d
000000b0: 0d07 9b3d f04d ce3b df2a 3dbb b9bc dabc
000000c0: 876e a63b c0af 173d 56f9 ee3b 1631 06bd
000000d0: 15ee c93d 7a4d d63d f227 833c 8a68 0e3c
000000e0: 53f8 b5bc 4197 edbc c674 3c3d 3a36 16bd
000000f0: 7200 0f3c 35c1 d5bc 5373 44bc 0d21 9ebd
00000100: e742 27ba 5e43 35bd 814b 423d 1265 7cbd
00000110: c9c3 a23b d51a 043e aa68 003d af3a 4cbc
00000120: 4fe9 e2bc 30ab 5e3d 4160 9bbb f70f 223d
00000130: 5182 57bd 441a 5f3d 4333 833b 1619 c43b
00000140: 7c0d 9c3d f5c2 5d3d 7f6b be3d 1c96 c73c
00000150: 3e9e e53c 7ecb 48bd c762 273c af23 ac3d
00000160: ec45 03bc aaa3 a03c 0f59 013d 186e b73c
00000170: 9875 173e 6597 873d 9105 333d 7091 113c
00000180: 1b96 d4bb e33c 40bd b0a2 cbbc 5841 0a3e
00000190: c602 c03c 2bfd dbbc 2322 723d b8d3 16bd
000001a0: e6f4 633d ca37 453d 5565 e4bc 8464 e73a
000001b0: 9a60 223d cba8 3e3b 8a37 803d 8499 8c3d
000001c0: f6d8 523d 2f01 a93d 6ebe 2e3d 2cb9 d63a
000001d0: 7c19 0dbd dcc5 253d 0a03 063e e694 d9ba
000001e0: cd21 3b3d 1ab6 c73d b39c 353c 0ece 94bc
000001f0: a1a7 43bd ca90 aabb 167f 793d 4bf7 923d

fc2.weight f4 [128, 128]
-0.04378071 -0.320143 0.09454207 0.2010275 0.104179 -0.19490731 0.088504285 -0.0071790316
0.09868239 -0.006613328 0.19030942 -0.11448861 0.2086637 0.110853665 0.25347003 -0.21469752
0.18472065 0.1013962 0.18659759 -0.067614615 -0.1572061 0.048591163 0.093463756 0.008209693
-0.0737148 -0.08999127 0.113339506 -0.16477594 0.09314351 -0.07599146 -0.35084668 -0.028930547
0.0019154698 0.047312077 0.07239626 0.05384961 0.2140084 0.048960503 -0.014595512 0.04301941
0.30012885 -0.18128261 -0.057709817 -0.09421229 -0.041152637 0.112148084 0.13408801 0.050919153
-0.033202287 -0.06581999 -0.1360862 0.05819046 0.20839083 -0.0427525 0.09929723 0.032601733
0.01628552 0.084151335 -0.0049531693 -0.042390086 0.035359908 -0.0123016825 -0.12543847 0.0929248
-0.08836088 -0.10035234 0.13105486 -0.36484715 -0.00076256145 -0.04173633 -0.12602839 -0.3727949
-0.018783221 0.1686159 -0.11421948 0.14166577 -0.06111248 0.11304459 0.14167936 -0.10469255
0.051133998 -0.029533187 0.053104214 -0.093569174 -0.08128167 -0.16395244 0.13925828 0.012343069
-0.07552117 0.010895572 -0.068197034 0.030683447 0.03074844 0.1051657 0.08161976 0.15553334
0.17888524 0.0057071624 0.0547149 0.06002212 -0.06438369 0.024235753 0.04512659 0.0060746702
0.17226504 -0.30754519 0.12285009 0.061190654 0.04700966 -0.082819246 0.028436435 0.13694355
0.1187912 0.114528395 0.037254766 0.14956766 -0.09209319 -0.12515098 0.11624375 -0.07610719
-0.039738145 -0.20304734 -0.16443546 0.09521806 0.06927239 0.10218184 -0.15870629 -0.036875673
0.22672549 0.10562398 0.059605796 0.19229808 0.112203665 -0.078820415 -0.040218964 0.15217169
-0.07322771 0.01659735 0.07606359 -0.2473757 -0.02680919 -0.04850278 -0.18617843 -0.10556896
0.08313165 -0.122383974 0.23335522 -4.8262857e-05 0.23104498 0.069417894 0.01524321 0.2209446
0.13827285 -0.11568339 -0.17100678 -0.23075925 -0.028420243 0.00454515 0.038288597 0.0042284024
-0.013886142 0.22615497 -0.2373786 0.019623624 0.053658344 -0.039479975 -0.12569694 0.25276977
-0.023092957 0.0023838598 0.27030715 0.3999738 0.009662801 -0.40778616 -0.047282524 -0.034883812
-0.20524731 0.040362593 0.02256188 0.038485978 0.038179006 -0.031606246 0.019014915 0.121904664
0.0094506955 -0.20785205 0.15287282 -0.09070659 0.06490755 0.048916448 0.092739485 -0.03259585
0.090103805 0.024787962 -0.124446385 0.09763535 0.07187798 -0.1164768 -0.083314866 -0.16981865
0.19758178 0.033822637 0.118483864 0.346306 -0.25160354 0.038126435 -0.10302268 -0.07091293
0.1384768 -0.017874219 0.10344182 0.07581483 0.17684399 0.16233858 -0.25458178 -0.059115734
0.19404933 -0.1307259 -0.036629606 -0.02844153 0.08918097 0.025009278 -0.08652464 -0.05529222
0.046953276 -0.18584251 -0.13882525 0.21893224 -0.06954196 -0.051826257 -0.21992409 -0.1714478
0.18397251 0.053483345 -0.19045602 -0.1806278 0.12162439 -0.3071763 -0.100382075 0.08425192
-0.0020643987 0.07263687 -0.04560969 0.110529244 0.10869705 -0.03421911 -0.017628893 -0.25829184
-0.032871563 -0.14222704 -0.09344509 0.27821982 0.2074191 0.0074388646 0.17726988 0.105191
00000000: 6753 33bd c9e9 a3be 469f c13d 27da 4d3e
00000010: cd5b d53d c895 47be bc41 b53d 153e ebbb
00000020: fe19 ca3d 9eb4 d8bb 79e0 423e 0179 eabd
00000030: f0ab 553e 3f07 e33d d3c6 813e abd9 5bbe
00000040: 6927 3d3e d0a8 cf3d 7013 3f3e 8879 8abd
00000050: a3fa 20be 8707 473d ed69 bf3d f381 063c
00000060: c9f7 96bd 584d b8bd 8b1e e83d 06bb 28be
00000070: 06c2 be3d 69a1 9bbd 2da2 b3be c1ff ecbc
00000080: 8010 fb3a 4fca 413d 7e44 943d 6991 5c3d
00000090: 0525 5b3e cf8a 483d 0422 6fbc 1f35 303d
000000a0: 7daa 993e 26a2 39be 2161 6cbd 60f2 c0bd
000000b0: ab8f 28bd e5ad e53d 5e4e 093e 9a90 503d
000000c0: 1fff 07bd a2cc 86bd 2e5a 0bbe 1f59 6e3d
000000d0: 6864 553e 3f1d 2fbd 595c cb3d 6589 053d
000000e0: 3669 853c 8957 ac3d 324e a2bb 3aa1 2dbd
000000f0: 8dd5 103d ff8c 49bc f172 00be 5c4f be3d
00000100: 8df6 b4bd 8785 cdbd 3f33 063e 3fcd babe
00000110: a2e6 47ba b7f3 2abd 960d 01be f9de bebe
00000120: 45df 99bc a6a9 2c3e e7eb e9bd d510 113e
00000130: 1451 7abd ec83 e73d 6514 113e 0c69 d6bd
00000140: e271 513d 95ef f1bc ce83 593d 32a1 bfbd
00000150: 0177 a6bd 26e3 27be b999 0e3e 953a 4a3c
00000160: d8aa 9abd 5783 323c e3aa 8bbd da5b fb3c
00000170: 27e4 fb3c 1d61 d73d 4328 a73d 2244 1f3e
00000180: b12d 373e 2603 bb3b bb1c 603d c1d9 753d
00000190: 99db 83bd 0f8a c63c a9d6 383d 070e c73b
000001a0: 3f66 303e 9076 9dbe d498 fb3d 0da3 7a3d
000001b0: 348d 403d 239d a9bd 87f3 e83c ee3a 0c3e
000001c0: cd48 f33d dd8d ea3d 7498 183d 4428 193e
000001d0: 5b9b bcbd 9427 00be 3411 ee3d 16de 9bbd
000001e0: 77c4 22bd a4eb 4fbe c561 28be b001 c33d
000001f0: afde 8d3d b644 d13d e783 22be f20a 17bd
00000200: ba2a 683e 6351 d83d 3525 743d cae9 443e
00000210: 09cb e53d 996c a1bd a4bc 24bd e5d2 1b3e
00000220: 69f8 95bd 2af7 873c 3ac7 9b3d 0e50 7dbe
00000230: f29e dbbc daaa 46bd 8fa5 3ebe 8a34 d8bd
00000240: ed40 aa3d 73a4 fabd acf4 6e3e d96d 4ab8
00000250: 0e97 6c3e f82a 8e3d a8be 793c 4d3f 623e
00000260: 6697 0d3e 6aeb ecbd 671c 2fbe 274c 6cbe
00000270: 92d1 e8bc 7bef 943b 81d4 1c3d 698e 8a3b
00000280: b382 63bc 2b95 673e 6013 73be b9c1 a03c
00000290: dac8 5b3d c1b5 21bd b3b6 00be 0a6b 813e
000002a0: 712d bdbc 883a 1c3b b365 8a3e 5ec9 cc3e
000002b0: ba50 1e3c 59c9 d0be 52ab 41bd 54e2 0ebd
000002c0: 5a2c 52be 3f53 253d b1d3 b83c 79a3 1d3d
000002d0: 9761 1c3d 8d75 01bd 2bc5 9b3c 27a9 f93d
000002e0: 17d7 1a3c 2bd7 54be b18a 1c3e 60c4 b9bd
000002f0: 40ee 843d 9d5c 483d 33ee bd3d 3a83 05bd
00000300: 5888 b83d 2010 cb3c bfdd febd 0bf5 c73d
00000310: c334 933d 638b eebd fca0 aabd f1e4 2dbe
00000320: e152 4a3e 9b89 0a3d aba7 f23d 054f b13e
00000330: 2ed2 80be 772a 1c3d 8efd d2bd cc3a 91bd
00000340: ddcc 0d3e f46c 92bc 4ed9 d33d ce44 9b3d
00000350: 9716 353e 163c 263e 8b58 82be 5723 72bd
00000360: deb4 463e 03dd 05be ed08 16bd 36fe e8bc
00000370: 83a4 b63d 42e0 cc3c d533 b1bd 187a 62bd
00000380: 1452 403d 804d 3ebe 3528 0ebe c62f 603e
00000390: 046c 8ebd c547 54bd c833 61be 0390 2fbe
000003a0: 4a63 3c3e 5a11 5b3d e706 43be 7ef6 38be
000003b0: 3516 f93d 3646 9dbe 1e95 cdbd 458c ac3d
000003c0: dd4a 07bb a4c2 943d 3ad1 3abd 285d e23d
000003d0: 8f9c de3d 5629 0cbd 786a 90bc d43e 84be
000003e0: 55a4 06bd f7a3 11be 2460 bfbd d472 8e3e
000003f0: ac65 543e b8c1 f33b 3c86 353e 616e d73d

fc2.bias f4 [128]
-0.033963848 0.024377577 -0.0035102684 -0.0030699978 -0.019452455 -0.027272785 0.012185453 -0.038612306
0.03144181 0.03229527 -0.025862684 -0.017183892 0.013775956 0.025063034 0.035889786 0.013549875
0.0011707142 0.07542528 0.020608878 0.0026762546 0.042505033 0.015366911 -0.030007465 -0.022793591
0.0876814 0.025124885 0.018951789 0.008293013 0.033435173 -0.0068273554 0.024384802 0.012194802
0.0054900055 -0.0024030062 0.07012005 0.0013143208 -0.005314152 -0.003669131 0.0026883578 0.024140887
-0.0002437343 -0.006432119 -0.016466688 0.06579611 -0.004612589 -0.014731856 0.07789894 0.066831306
-0.038783863 -0.025804872 0.0018542046 0.012809089 0.009262739 0.03382246 -0.023786217 -9.7178236e-05
0.011941658 0.02726502 0.05207484 0.061552934 0.024780614 0.1149994 0.018158128 0.060689323
0.02031035 -0.012948157 0.0060759527 -0.018546619 -0.0066633667 -0.0003761687 0.01841328 -0.0014513711
0.030352656 -0.023655228 0.0091615785 0.0104802 0.07036146 0.006479819 0.071780175 0.0220943
0.00383233 0.052202675 0.020839727 0.0022379518 -0.00787627 0.017243257 0.027969452 0.023528913
0.015151817 0.0056181075 0.012533147 0.06936791 -0.010183001 0.030141247 0.014294312 -0.018131992
0.046950188 0.040343314 -0.032941356 -0.024940012 0.062801935 0.0962757 0.015928023 0.034367952
-0.008363068 0.014374678 0.0019341119 -0.009855447 0.0365958 -0.020918863 -0.06003077 0.01824693
0.037332047 0.0026493936 0.016347945 -0.009829907 -0.0070402143 -0.009408498 -0.0038923009 -0.041703254
9.9342746e-05 0.053886324 0.0020798983 0.022280712 0.009544165 -0.03016067 0.025063535 -0.008168673
00000000: ad1d 0bbd 7cb3 c73c 880c 66bb 0432 49bb
00000010: c15a 9fbc 2d6b dfbc 7fa5 473c f027 1ebd
00000020: 21c9 003d 0c48 043d fbdd d3bc 3cc5 8cbc
00000030: 8cb4 613c fe50 cd3c 2b01 133d 4b00 5e3c
00000040: a672 993a 9278 9a3d f3d3 a83c 1a64 2f3b
00000050: c219 2e3d 7fc5 7b3c 37d2 f5bc a0b9 babc
00000060: 4e92 b33d b4d2 cd3c c840 9b3c 6bdf 073c
00000070: 52f3 083d 02b8 dfbb a3c2 c73c b5cc 473c
00000080: 81e5 b33b c17b 1dbb 1a9b 8f3d 4a45 ac3a
00000090: 5722 aebb ce75 70bb 292f 303b 1cc3 c53c
000000a0: ee92 7fb9 86c4 d2bb 26e5 86bc 1cc0 863d
000000b0: 3325 97bb e25d 71bc 7b89 9f3d dade 883d
000000c0: d4db 1ebd bd64 d3bc c808 f33a 37dd 513c
000000d0: bec2 173c 6b89 0a3d 50db c2bc 2bcc cbb8
000000e0: f2a6 433c e45a df3c 6d4c 553d ee1e 7c3d
000000f0: b700 cb3c ce84 eb3d 5bc0 943c 5e95 783d
00000100: e461 a63c 8224 54bc c918 c73b 14ef 97bc
00000110: 5f58 dabb 8238 c5b9 72d7 963c ef3b beba
00000120: 22a6 f83c 9cc8 c1bc 721a 163c 25b5 2b3c
00000130: ab19 903d a954 d43b 7c01 933d 1bff b43c
00000140: d427 7b3b 79d2 553d 13b8 aa3c 9aaa 123b
00000150: 790b 01bc bb41 8d3c 3120 e53c b5bf c03c
00000160: 543f 783c 1a18 b83b d457 4d3c c310 8e3d
00000170: 9ad6 26bc c7ea f63c b132 6a3c 8b89 94bc
00000180: d74e 403d 083f 253d 84ed 06bd ff4e ccbc
00000190: 4d9e 803d 322c c53d 7c7b 823c 69c5 0c3d
000001a0: 4005 09bc c583 6b3c 0782 fd3a be78 21bc
000001b0: 7ae5 153d 095e abbc d3e2 75bd 967a 953c
000001c0: 7de9 183d 73a1 2d3b 20ec 853c 9e0d 21bc
000001d0: 99b1 e6bb 1a26 1abc f915 7fbb 08d1 2abd
000001e0: 3b56 d038 e8b7 5c3d e74e 083b 0a86 b63c
000001f0: 215f 1c3c 8213 f7bc 0b52 cd3c e6d5 05bc

fc3.weight f4 [10, 128]
-0.12269493 -0.11763843 -0.012291709 -0.1124683 -0.22101493 0.03585151 0.021494493 0.214611
0.048124615 0.4585808 0.025987271 -0.1562497 0.046735045 0.07160818 0.04945007 0.0819455
0.1601456 -0.4330224 -0.18064041 -0.06511829 -0.15824954 0.02450907 0.19167572 0.44177747
-0.50604886 0.09333964 -0.09131164 -0.17832536 -0.08462664 0.10466697 -0.003259219 0.1136569
-0.2951577 -0.044016376 -0.18492125 0.005482636 0.06794808 0.009327621 -0.07875692 0.013296424
-0.124884725 0.03786458 0.056272935 -0.060153015 0.1768618 -0.15397342 0.25690424 -0.17343423
0.11964251 0.44785643 -0.012199143 0.08689812 0.12419588 -0.26873136 -0.32525218 -0.20979457
0.058053073 -0.25067115 -0.22260529 0.01853743 -0.14016953 -0.59341526 -0.23906575 -0.36824742
0.19289169 -0.28457248 -0.25227976 0.28054985 0.18286163 -0.039782226 0.10813149 0.0070897522
-0.17735443 0.08147933 -0.19748275 0.10423585 -0.3536433 -0.35515723 -0.19840251 -0.13637741
0.3154871 0.06561663 0.35175106 -0.11929201 -0.14073431 -0.27362087 0.5055324 -0.071186066
-0.1559644 0.15496264 0.13812791 -0.2457864 0.04093824 0.014159215 0.0015915855 0.13492103
-0.21142516 0.14877805 0.22489196 -0.15478835 -0.0038114677 -0.54102546 0.14388525 -0.2297026
0.08241563 0.043277714 -0.11637408 0.31257734 0.14262407 0.2921776 -0.018613376 -0.0009416514
0.016830996 0.05880319 -0.11770666 0.34556323 -0.21470256 0.21259592 0.29453793 -0.060270406
0.11373865 -0.35218996 0.03857525 -0.140113 0.3158776 -0.101588815 0.06314426 0.25636142
-0.5250153 -0.2395306 -0.09838554 -0.14486153 -0.08898011 -0.13954116 0.061121006 -0.14650048
0.020144643 0.0057006143 0.05580223 -0.031880718 0.1421111 -0.027795486 -0.24344659 -0.05136164
0.08343243 0.29812992 -0.19537354 0.0811494 -0.4340005 -0.02200361 0.06343297 -0.3313919
0.10283698 0.18378203 -0.02700079 0.06650307 0.037164625 -0.017654406 0.38195223 0.20979734
0.12650862 0.06077691 0.43096673 0.27531305 -0.09548318 -0.023196623 -0.0648662 0.14775236
0.04810089 0.029939009 -0.20040023 -0.121466346 0.2853869 -0.055495083 -0.33762354 0.16512582
-0.35061428 -0.025902074 -0.29469347 -0.05125817 -0.18682875 0.040298063 -0.22484204 -0.001940034
0.44009912 0.18820177 0.20324288 0.032652494 -0.05305317 0.26556802 -0.10854413 0.1447355
-0.12392301 -0.023619365 -0.28115773 -0.30781007 -0.20527762 0.13758743 0.31272 -0.09957624
0.48288494 -0.14507693 -0.08912595 -0.08767309 -0.0035640397 -0.03794575 -0.31158757 -0.08230757
-0.42069852 0.45436287 0.048647802 -0.09208262 -0.19033176 0.18352666 0.15502289 0.25584242
0.30027494 0.09782722 0.06757359 0.21739894 -0.0010946929 0.52382433 0.058367554 0.09411165
-0.2031648 -0.22429803 -0.2712263 0.046305444 0.19508538 0.4919461 -0.020183804 -0.30864167
-0.102100596 0.08231396 0.16461007 -0.15597802 0.21728459 0.020297932 -0.517195 -0.09070134
-0.24080934 -0.059661336 0.024707573 0.19954222 0.0075195334 -0.03737548 0.2757272 -0.2418299
0.1604593 0.57756984 -0.078970656 -0.57252645 -0.23674448 0.2247083 0.0022690392 0.17830096
00000000: 7b47 fbbd 6bec f0bd 2a63 49bc c855 e6bd
00000010: bd51 62be 08d9 123d 3815 b03c fcc2 5b3e
00000020: 511e 453d 1acb ea3e 42e3 d43c ecff 1fbe
00000030: 3f6d 3f3d 4fa7 923d 288c 4a3d 0bd3 a73d
00000040: 35fd 233e 1db5 ddbe cdf9 38be bd5c 85bd
00000050: 2b0c 22be 3fc7 c83c a446 443e a830 e23e
00000060: 6b8c 01bf da28 bf3d 9901 bbbd ec9a 36be
00000070: bb50 adbd a35b d63d 9f98 55bb f3c4 e83d
00000080: e91e 97be 844a 34bd ff5b 3dbe afa7 b33b
00000090: 5d28 8b3d e1d2 183c 4f4b a1bd 3fd9 593c
000000a0: 90c3 ffbd e417 1b3d 737e 663d 0263 76bd
000000b0: 421b 353e 35ab 1dbe f488 833e be98 31be
000000c0: 2207 f53d 704d e53e eade 47bc a4f7 b13d
000000d0: 695a fe3d 2897 89be 7487 a6be 63d4 56be
000000e0: 0fc9 6d3d f857 80be a4f2 63be cfdb 973c
000000f0: 9a88 0fbe 10ea 17bf a7cd 74be ed8a bcbe
00000100: 6685 453e 7cb3 91be d02a 81be 3ba4 8f3e
00000110: 1440 3b3e b0f2 22bd 0b74 dd3d 2751 e83b
00000120: 669c 35be a3de a63d eb38 4abe 9b79 d53d
00000130: bc10 b5be 2bd7 b5be 072a 4bbe 85a6 0bbe
00000140: 8687 a13e 0362 863d b718 b43e 5f4f f4bd
00000150: a81c 10be 0918 8cbe 926a 013f 00ca 91bd
00000160: 22b5 1fbe 87ae 1e3e 6771 0d3e 6eaf 7bbe
00000170: dbae 273d 0dfc 673c bf9c d03a bd28 0a3e
00000180: d67f 58be 4659 183e 144a 663e d680 1ebe
00000190: d1c9 79bb a580 0abf a856 133e 2937 6bbe
000001a0: 87c9 a83d f943 313d 8955 eebd 230a a03e
000001b0: 0b0c 123e 4d98 953e 147b 98bc 28d9 76ba
000001c0: 28e1 893c 9ddb 703d 3010 f1bd aaed b03e
000001d0: fdda 5bbe bfb2 593e adcd 963e 1ade 76bd
000001e0: cfef e83d 3e52 b4be 1501 1e3d c879 0fbe
000001f0: b5ba a13e cc0d d0bd c751 813d ce41 833e
00000200: 6767 06bf 8247 75be 5c7e c9bd 9556 14be
00000210: 343b b6bd e1e3 0ebe 055a 7a3d 3904 16be
00000220: 6106 a53c 38cc ba3b e190 643d 5b95 02bd
00000230: 9285 113e 5cb3 e3bc 104a 79be 9560 52bd
00000240: 9fde aa3d 7ca4 983e 0010 48be a831 a63d
00000250: 5035 debe ea40 b4bc 25e9 813d 33ac a9be
00000260: 329c d23d 5b31 3c3e c330 ddbc c332 883d
00000270: ef39 183d f99f 90bc 3e8f c33e 1dd5 563e
00000280: 7a8b 013e 36f1 783d aca7 dc3e d5f5 8c3e
00000290: af8c c3bd d806 bebc 92d8 84bd 654c 173e
000002a0: 7005 453d a742 f53c b835 4dbe 59c3 f8bd
000002b0: 3b1e 923e d04e 63bd fedc acbe be16 293e
000002c0: b783 b3be 9630 d4bc 10e2 96be 16f4 51bd
000002d0: 0950 3fbe 950f 253d fe3c 66be bd48 feba
000002e0: ac54 e13e f7b7 403e e71e 503e 9fbe 053d
000002f0: 484e 59bd 88f8 873e 634c debd 8b35 143e
00000300: 59cb fdbd 667d c1bc e8f3 8fbe 4899 9dbe
00000310: 4c34 52be b8e3 0c3e d61c a03e a1ee cbbd
00000320: b23c f73e 0c8f 14be ab87 b6bd f38d b3bd
00000330: aa92 69bb 016d 1bbd 6888 9fbe df90 a8bd
00000340: cc65 d7be 40a2 e83e eb42 473d d095 bcbd
00000350: 54e6 42be 6aee 3b3e 52be 1e3e c7fd 823e
00000360: a3bd 993e a359 c83d 0664 8a3d d49d 5e3e
00000370: cc7b 8fba 5a19 063f d112 6f3d 9cbd c03d
00000380: 6f0a 50be 62ae 65be 2cde 8abe c7aa 3d3d
00000390: 76c4 473e 5ce0 fb3e 8158 a5bc 4806 9ebe
000003a0: 1e1a d1bd 3994 a83d 8b8f 283e b4b8 1fbe
000003b0: da7f 5e3e d947 a63c e466 04bf a0c1 b9bd
000003c0: b996 76be 725f 74bd 8967 ca3c cc54 4c3e
000003d0: 6b66 f63b 0817 19bd 1e2c 8d3e 42a2 77be
000003e0: 714f 243e 9edb 133f 5ebb a1bd 1891 12bf
000003f0: 256d 72be ef19 663e 29b4 143b 8794 363e

fc3.bias f4 [10]
-0.109236725 0.14083518 -0.025019672 -0.06595518 0.06645098 0.09241311 0.0408124 -0.020654231
-0.006951863 -0.11269739
00000000: 81b7 dfbd 1937 103e 0ef6 ccbc 8213 87bd
00000010: 7417 883d 1643 bd3d e72a 273d 1033 a9bc
00000020: 74cc e3bb e4cd e6bd
