best_model.pth (torch, 476153 bytes, 6 tensors)

fc1.weight f4 [128, 784]
000000 ad 54 63 bd 15 d5 ff bc a0 78 84 3d be b5 f6 ba
       -0.055500675 -0.031229535 0.0646832 -0.0018822474
000010 7a 7f d9 bc dc c7 24 3d c6 69 21 3b 9e 89 ba 3c
       -0.026550043 0.040229663 0.0024629696 0.0227707
000020 68 00 bf 3d 38 13 75 bc 51 6d 5a bd 28 e2 fd 3b
       0.09326249 -0.014958195 -0.05332691 0.007747907
000030 85 cd bd bc 5f 5b c0 3d db 24 4d bc 01 5f 2a 3d
       -0.023169288 0.09392428 -0.012520994 0.04159451
000040 ba 4e f5 3c 72 a5 5e 3d 33 c7 c8 bd 87 26 ad bc
       0.029944766 0.054357 -0.09803619 -0.021136535
000050 45 3c 52 bd 72 b7 56 3d 10 1a d1 bd 9e 1c 49 3d
       -0.05132701 0.05242104 -0.10210049 0.049099557
000060 f1 9d 11 b9 dd 5a 1e bc 40 4f 3b 3c 51 02 86 bc
       -0.00013887115 -0.009665218 0.011432469 -0.016358526
000070 d2 76 a9 3d 95 7f 97 bd 20 6d 74 bd d7 30 b8 3c
       0.08274616 -0.07397381 -0.059674382 0.022484226
000080 c3 c4 52 3b 5c 60 6d bd 36 35 aa 3a 10 9d e1 bd
       0.0032160736 -0.057953224 0.0012985829 -0.110162854
000090 c6 1d cb bc d5 04 66 bb 02 11 50 bd bc b9 82 bb
       -0.02479447 -0.0035098095 -0.05079747 -0.0039894264
0000a0 3c e0 aa 3d cd f0 79 3d b7 7e cc bd 4b c9 44 3c
       0.083435506 0.06102066 -0.099851064 0.012010883
0000b0 48 75 9b 3c 63 62 c0 bd f4 a4 d4 3c d1 4b 86 bc
       0.018976822 -0.09393766 0.025957562 -0.016393574
0000c0 1d fb 13 be 45 50 0f 3c 6e e9 44 3d 1a 12 69 bd
       -0.14451261 0.008747165 0.04807418 -0.05690203
0000d0 7f 95 15 bd 64 c0 49 3d e4 e5 c1 bd 92 9b eb bc
       -0.036519524 0.049255744 -0.09467676 -0.028760705
0000e0 a5 ed 6c 3d cc f7 eb bb a9 76 c7 3d 52 47 64 3d
       0.057843823 -0.0072011705 0.097394295 0.05573208
0000f0 f0 b1 ee 3c c4 e1 51 3c 67 c5 ed 3c f9 37 ca bb
       0.029137582 0.012810174 0.029024793 -0.0061712232
000100 70 48 4a bb 39 ac f7 3c 42 4a 7c 3c ad 4f fb 3d
       -0.003086593 0.03023349 0.015398564 0.12271056
000110 65 35 19 bc 15 3c 1e 3d 98 07 8f 3d 72 a1 df 3d
       -0.009351109 0.038631517 0.0698387 0.10919465
000120 a7 07 68 bb a8 78 af 3d fc 94 0f bd 32 f9 1a 3c
       -0.0035404952 0.08567935 -0.035054192 0.009458827
000130 df 6d 00 3d 25 ce 08 bd 79 2a d9 bc f6 db b7 3c
       0.03135478 -0.03339972 -0.02650951 0.022443753
000140 68 8a 9b 3c b0 8f 62 bd 72 4e 9b bb 67 50 dd bc
       0.018986896 -0.055312812 -0.004739576 -0.027015878
000150 33 a3 55 bd 7f 85 6f 3c d5 e7 1e bd c0 05 94 bd
       -0.052157592 0.01461923 -0.03879531 -0.07227659
000160 a4 58 e2 bc df ae 2b bc 7a ac 0e bd 8f 70 51 3d
       -0.027630158 -0.010478704 -0.034832455 0.051132735
000170 77 f7 d9 3d 14 78 62 3d 40 14 7b bd df 70 72 3d
       0.10642903 0.055290297 -0.06129861 0.059189674
000180 38 ad 57 bd 12 e8 db 3d 65 a8 08 3e 50 e7 c2 3d
       -0.05265543 0.10737623 0.13345487 0.095167756
000190 6d 78 91 3b 38 f3 ab 3c cd 70 c1 bd 07 01 b9 3b
       0.0044394047 0.02099 -0.09445343 0.0056458744
0001a0 8e 24 14 bb 5e b2 5e bd 58 e5 eb 3c 4b 88 d8 3c
       -0.0022604796 -0.054369323 0.028795883 0.026432177
0001b0 da 2b bb 3d 11 29 5f bd 47 e4 93 bb b4 3e 04 3d
       0.091392234 -0.054482523 -0.0045132968 0.03228636
0001c0 7c 58 53 bd 0a 2f 86 bc f9 52 05 bc 7d 52 9d bc
       -0.051598057 -0.016379852 -0.008137458 -0.019204373
0001d0 e5 5b c0 3d d0 ab 42 3c b1 28 09 3c 6d ee ee 3c
       0.093925275 0.011881784 0.008371518 0.029166425
0001e0 82 72 8d 3d a9 50 b3 bd 33 0b d0 3d 5a 6a c7 3d
       0.06906606 -0.08755619 0.10158386 0.09737082
0001f0 db df 46 3d 61 1a c7 3d 70 6a 41 3c ed 0d c7 3d
       0.04855333 0.09721828 0.011805162 0.09719453
000200 0b dc 35 bd 36 3b a0 3b cc 15 82 3c 22 69 e6 bd
       -0.044399302 0.004889871 0.015879534 -0.11250521
000210 23 0c 73 bd fe 49 fa ba 8f df 54 3b d9 ce 41 3d
       -0.059337746 -0.0019095538 0.0032481884 0.047316406
000220 41 4a da bc 12 25 41 3c 30 65 21 ba 51 96 39 ba
       -0.026646735 0.011788623 -0.0006156741 -0.0007079589
000230 81 28 07 bd 44 12 a4 3d 2f 1c 18 bb 84 36 d8 3c
       -0.032997612 0.080112964 -0.0023210158 0.026393183
000240 0a 45 d7 3b 20 6b af 3d ce 68 f5 bd fc 9f 0b 3d
       0.0065695094 0.08565354 -0.119828805 0.03408812
000250 74 f6 27 3d 6e c8 aa bd e5 58 b6 3d 90 ca fb 3c
       0.04100652 -0.0833901 0.08903674 0.030736238
000260 75 0c 06 3d 1b 94 24 3d 4f 29 0a 3e c9 88 24 bc
       0.032726724 0.040180307 0.1349232 -0.010042378
000270 a2 0c 0b 3d f3 63 48 bc c7 80 21 bc 26 2a 87 bd
       0.033947594 -0.012230861 -0.009857363 -0.06599836
000280 8e 69 90 3b b3 c9 0d 3c 18 58 92 bd 1e 0c da ba
       0.0044071143 0.008654046 -0.07145709 -0.0016635691
000290 70 d1 cf 3d 7f 61 84 bd bd 46 e3 bd 59 4a 6f 3c
       0.10147369 -0.064639084 -0.11097477 0.014605128
0002a0 34 d0 b4 3c f5 1c 25 bd d2 72 19 bb d5 9f 0c bd
       0.022071935 -0.04031082 -0.0023414386 -0.034332115
0002b0 c0 bd af bc 76 9d 30 bb 6a 6e 59 bb 1a 75 e5 3c
       -0.021452785 -0.0026949323 -0.0033177384 0.02800994
0002c0 86 db 59 b8 d2 38 61 3d 23 d8 7c 3d 9c 2a 4b bd
       -5.194128e-05 0.05498583 0.06172956 -0.049601182
0002d0 1e 64 0c 3e a0 d8 e8 bc 9d b8 58 bd 17 45 68 3d
       0.13710067 -0.028423607 -0.052910436 0.056706514
0002e0 16 72 b9 3d c4 de c3 3b 38 ef 01 3d 03 53 f4 3d
       0.09054963 0.0059774835 0.031722277 0.11929896
0002f0 83 88 98 3d ef 05 9f bd 68 d5 4e bd 51 7d e5 bb
       0.074479125 -0.077648036 -0.05049649 -0.0070034643
000300 00 39 f9 3c c5 50 0a 3d 84 bc c7 bd 07 1d 4c bd
       0.030422688 0.033768434 -0.097527534 -0.04983237
000310 c7 a7 b8 bd a7 8f 9c 3d 57 18 e2 bd 60 88 c6 bc
       -0.09016376 0.07644587 -0.11039799 -0.02423495
000320 5a a6 47 3d 26 8b 46 3d 9f a1 7b bd 9e 80 ac b9
       0.04874263 0.048472546 -0.06143343 -0.00032902224
000330 9d 89 2f bb 23 2d 78 bd e3 98 36 bb b0 34 7f 3d
       -0.0026784905 -0.06058992 -0.0027862124 0.062306106
000340 ff 32 49 3d 92 23 11 3d 50 50 3f 3d 7d 57 86 3c
       0.0491209 0.035434313 0.04670745 0.01639914
000350 68 b2 aa 3c b4 cc c0 bc a3 6e 96 bd 11 83 85 bd
       0.020837024 -0.02353511 -0.07345321 -0.065191396
000360 b1 fd 0e bd 07 28 12 bd 22 8f 18 3a 39 2f 85 3d
       -0.034909908 -0.035682704 0.00058196683 0.06503148
000370 fb 68 4f bd 56 42 04 3d c1 84 86 3d 1e 67 45 3c
       -0.050637227 0.032289825 0.065682895 0.012048511
000380 4d f5 d6 bc f7 89 4b 3c cc b6 06 3a 0a 2c a3 3b
       -0.026240015 0.01242303 0.0005138933 0.004979615
000390 b8 0b 3d 3d 0b 87 8e 3d 55 44 03 3c 6e 3f be bd
       0.046153754 0.06959351 0.008011897 -0.09289442
0003a0 cb cc 46 3d 29 b1 6c 3d f7 47 03 3d 16 93 b9 3d
       0.04853515 0.05778614 0.032051053 0.090612575
0003b0 f0 c8 94 3c e3 b9 4a 3d bc 60 f9 3c 1d 4f 89 bd
       0.01816222 0.04949368 0.030441634 -0.06704543
0003c0 7f c7 51 3c a0 52 04 bd 61 97 a5 bd f1 da f1 bd
       0.012803911 -0.03230536 -0.08085514 -0.11809338
0003d0 14 7b 14 bb de 29 72 bc b4 72 ba bd cd 7b c6 bd
       -0.0022656368 -0.01478049 -0.09103909 -0.09691582
0003e0 43 e9 d4 bc f7 93 a5 3d bc 79 d9 bc fe 88 b3 3b
       -0.025990134 0.08084863 -0.026547305 0.005478977
0003f0 14 f2 eb bc ee 3e ab bc 9a d0 d2 3c 37 36 19 3c
       -0.028801955 -0.02090403 0.025734235 0.009351305

fc1.bias f4 [128]
000000 1f 81 44 bc c1 a3 fc 3c b8 31 30 3d 91 c8 91 3c
       -0.0119936755 0.030839803 0.043016165 0.017795833
000010 eb a8 06 3d f2 0e 92 bb 1b f2 45 3c 08 5f c8 3c
       0.032875936 -0.004457348 0.012081648 0.024459377
000020 f5 1d 37 3d 05 1e cc 3d ae 20 09 3d 73 5d 45 3d
       0.044706304 0.09966663 0.03347843 0.048184823
000030 d2 6c 1d bd 53 47 68 3d 05 2c 93 3d 1c 91 2c bc
       -0.038433857 0.056708645 0.071861304 -0.010532644
000040 e8 36 55 bd ef 2c 8a bb e3 f4 5b 3d e3 ee b4 bc
       -0.052054316 -0.0042167823 0.05370034 -0.022086566
000050 70 4e c8 3d 95 eb 08 3d e3 49 c5 3d cc 46 45 3d
       0.09780586 0.033427794 0.096332334 0.04816322
000060 ce 5e c2 3c 70 33 58 3d ca 8e b5 bc 71 df e0 b8
       0.023726847 0.05278343 -0.022162814 -0.000107227715
000070 3c b4 0f bc 13 5d 1d 3d 5c f9 3f 3d bc 25 85 3d
       -0.008770999 0.03841884 0.046868667 0.06501338
000080 75 d2 ed bb ac 0d 01 3b 3c 7b ec 3d 83 27 d4 3d
       -0.0072577544 0.0019691987 0.115469426 0.10359099
000090 c1 0e 9e 3d d1 d4 f4 3b 8c 0f 8b bc f8 bf bf bb
       0.07717658 0.0074716588 -0.016975187 -0.005851742
0000a0 2d 9b f4 3c 4b 48 83 bc bf b4 82 bc 61 a1 e3 bc
       0.02985915 -0.016025683 -0.015955327 -0.027786912
0000b0 36 e4 1a 3d 11 ea 2f bd 7b d4 bb 3c 29 57 25 3d
       0.037815295 -0.042947832 0.022928467 0.040366326
0000c0 e6 11 cf 3b 0b 9a d6 bb 53 da c1 3c af 46 3e 3d
       0.0063192723 -0.006549125 0.023663675 0.046454128
0000d0 51 79 a8 3d 80 88 c9 bb be 85 80 bd 39 51 fb 3c
       0.08226264 -0.0061503053 -0.06275509 0.030678378
0000e0 1a b4 04 bd 6e a2 03 3d 19 09 ce 3b 07 81 9e 3d
       -0.03239832 0.032137327 0.0062877056 0.07739454
0000f0 45 b6 2d bd ce 89 4a 3b 1e ce ef 3d d7 61 bd bc
       -0.042410154 0.0030904892 0.117092356 -0.023117943
000100 81 7d 8e 3d 8f a5 18 3d da 8d 35 3d 18 d9 8b 3c
       0.06957532 0.037267264 0.044324733 0.017071292
000110 a0 51 33 bc f5 a5 07 3d 38 46 9a 3c ae 72 e4 3c
       -0.010944754 0.033117253 0.018832311 0.027886715
000120 a8 0d e8 3d e1 02 57 3c 85 12 57 3b d5 83 0e 3d
       0.1133073 0.013123245 0.0032817435 0.034793694
000130 b1 a2 b4 3d f2 62 36 3c cf 4a f7 3b f4 f8 85 3c
       0.088200934 0.011131989 0.0075467597 0.016354062
000140 5f 11 b0 ba 4a 41 a0 3d 42 00 3e bc 60 c0 95 bc
       -0.0013432911 0.07824953 -0.011596741 -0.018280208
000150 4b 68 8c 3b 65 fe 62 bc b0 a2 a7 3c 4c 80 20 bb
       0.0042848936 -0.013854598 0.020463318 -0.0024490533
000160 c4 68 eb 3c 00 e8 7b 3d d1 1e d5 3b da ce fd 3c
       0.02873648 0.06150055 0.0065039177 0.030982424
000170 4e ce c8 3c 43 dc c8 3b d4 48 69 3c cd ee b0 3c
       0.024512436 0.006129773 0.014238555 0.021598244
000180 d3 0e 3e bd b1 1c d1 bc ac 9c 0a bd cc 9c 20 3d
       -0.046400856 -0.025526376 -0.03384082 0.039212033
000190 b4 5d 2c 3d f6 c6 f7 3d cb d0 69 3c 1d a5 1f 3d
       0.04208155 0.12098496 0.0142709715 0.038975824
0001a0 20 10 8c 3d ad 08 0e bd 92 72 cb 3d d3 57 33 bb
       0.06839013 -0.034676243 0.09933962 -0.002736558
0001b0 a4 6b 51 3d 07 4e 36 bc 4a 18 bb 39 66 fd 02 39
       0.051128045 -0.011127002 0.00035685516 0.00012492164
0001c0 86 a6 e2 3c 19 a4 7e bd 34 80 e8 3c 10 e5 53 bc
       0.027667295 -0.062168214 0.028381445 -0.012933031
0001d0 ad d6 d8 3c 96 a3 8d 3d 7e 96 7a 3c 25 fb 1b bc
       0.026469553 0.06915967 0.015294669 -0.009520327
0001e0 86 38 0e 3b 38 e2 54 3b a0 78 a5 3c c7 d1 84 3d
       0.002170117 0.003248347 0.02019912 0.06485324
0001f0 40 56 68 3d 24 63 94 3d fe d7 4f 3c a2 86 38 3d
       0.05672288 0.07245472 0.012685774 0.04505027

fc2.weight f4 [128, 128]
000000 4e 3a 2e bd 05 41 8b bc d0 3b cb bd 90 ce 83 3d
       -0.042536072 -0.016998777 -0.09923518 0.06435883
000010 10 da cf bd 65 81 65 3c 22 7e 42 bd 18 16 e8 bd
       -0.10149014 0.014007901 -0.04748357 -0.11332339
000020 e5 7c 01 be 3b 1d 12 3e 7c 5a 04 3e 7c 71 e0 3b
       -0.126453 0.14268963 0.12925142 0.006849466
000030 7b 2b 3c be 38 5f 94 3c 00 f4 84 3d ea 24 9b bd
       -0.18375961 0.01811181 0.06491852 -0.075754
000040 b1 e9 ca bc ff cf a4 bc cd 40 ec 3d 66 96 49 3c
       -0.024769636 -0.020118712 0.11535797 0.012303924
000050 c2 09 78 3e c1 2e ba bd 2c 3f 09 bd 9e 06 03 be
       0.24222472 -0.09090949 -0.03350751 -0.12795493
000060 23 99 28 3e 84 9d 58 bd 42 38 a5 3c c7 7a 72 be
       0.16464667 -0.052884594 0.020168427 -0.23679648
000070 62 67 c9 3d d9 e7 02 3e b2 ce e5 bd cc 48 4a be
       0.09834172 0.12783755 -0.112210646 -0.19754332
000080 c9 c0 02 3b 40 26 87 3c 24 62 d5 3c 7a 52 b5 3d
       0.0019951335 0.016497731 0.026047774 0.08853622
000090 17 03 81 bd 5a 6e 18 3e 97 57 82 bd 75 88 4e 3e
       -0.062994175 0.14885846 -0.06364363 0.20169242
0000a0 d3 2a 5c 3e b7 18 c9 3d ff 96 5c 3e a2 e4 83 bd
       0.21500711 0.09819167 0.21541975 -0.064400926
0000b0 59 29 d5 3d 28 fc 93 be 1b 16 91 bd 2d 4a 04 3e
       0.10408277 -0.28903317 -0.070842944 0.12918921
0000c0 2c 53 28 3d ac 75 ce 3d 9c 02 77 3e ed b6 80 3e
       0.041094944 0.10081038 0.24122089 0.2513956
0000d0 73 a5 46 3e 31 10 f1 3d 5f 44 71 3e 08 24 03 3d
       0.19399051 0.117706664 0.23561238 0.032016784
0000e0 76 a0 43 be fa be fe 3d 7b 21 2b 3d 2b 5f b1 3d
       -0.1910418 0.1243877 0.041779976 0.0866073
0000f0 67 71 8b bd ff ae 1d bc 5b 5d e5 bd 52 17 c4 3d
       -0.06808739 -0.009624242 -0.11199447 0.095747605
000100 a0 1d 04 be c5 a6 29 bd e5 35 18 3e 3b f3 ef 3c
       -0.12901926 -0.04141881 0.14864309 0.029290786
000110 33 1b ea bd 16 05 11 bc 01 cd 5c bc 2f 87 0a bd
       -0.11430969 -0.00885131 -0.013476611 -0.033820327
000120 07 a9 ef bc f6 9e 43 be 8f 55 87 3e 70 4e 4f 3d
       -0.029255403 -0.19103608 0.26432464 0.050611913
000130 95 e8 b6 3c c5 42 25 3e 49 75 42 bd ba 0a e5 3d
       0.0223277 0.16138752 -0.047475133 0.111836866
000140 bc 02 2c be 6d ba ab be 1e dc cd 3d a1 47 1d be
       -0.16797918 -0.3354067 0.1005175 -0.15359356
000150 67 f7 a0 be 32 98 bf 3d 74 0b d5 bc ed 55 52 3e
       -0.31438753 0.09355201 -0.026006438 0.2054059
000160 60 a5 81 be 27 b4 00 be c3 b2 48 bd d7 b5 10 3e
       -0.25321484 -0.12568723 -0.048998605 0.14131866
000170 79 aa 6a 3d 01 b6 9f 3e 20 cd 22 3e 33 f9 b8 bc
       0.05729148 0.31193545 0.15898561 -0.022579765
000180 2b e8 ad 3e 08 f3 90 3d 72 5c 1a be a7 89 12 3d
       0.33966193 0.070776045 -0.15074328 0.035775807
000190 48 53 55 bd de 41 88 3d 69 3f 4a bd cd 56 8d 3e
       -0.052081376 0.06653188 -0.04937688 0.27605286
0001a0 94 d8 46 3d 25 26 99 3c 42 39 30 3d 9c be 61 3c
       0.04854639 0.018694947 0.043023355 0.013778355
0001b0 8f 0d a0 3d 0b b5 b6 3d 09 b1 13 3d c3 2e a9 3d
       0.07815086 0.0892125 0.036057506 0.08260872
0001c0 ea 6f 93 3c 6c d4 d8 bd 27 d0 12 3e 23 76 a9 bd
       0.0179977 -0.10587391 0.14337216 -0.08274486
0001d0 54 31 91 3e 34 70 27 be f8 c7 3c be 76 0a 26 bd
       0.28357947 -0.16351396 -0.18435657 -0.04053732
0001e0 12 a2 ea bd 2a 19 39 bd 5d 31 61 bd 25 2f 18 3d
       -0.11456694 -0.045190014 -0.054978717 0.037154336
0001f0 e0 33 2f 3e 10 b9 ee 3b 9a aa dc 3d 78 2c ea 3d
       0.17109632 0.0072852448 0.10774727 0.11434263
000200 04 7d ab bd 77 10 ad 3e 28 6d b5 bd 60 22 d9 bd
       -0.08373454 0.33801624 -0.088587105 -0.1060226
000210 81 6f 85 3e 8d 70 b7 bc 6e 36 f9 bd 01 35 5f 3b
       0.26061633 -0.022392536 -0.12168585 0.0034058692
000220 39 a5 16 bd 2a 95 f6 bd de 5b 44 3e de 9f c9 3c
       -0.036778662 -0.120401695 0.1917567 0.024612363
000230 05 a4 e2 bc 64 ec bc bd 9e de aa 3d 4f d1 77 3d
       -0.027666101 -0.092247754 0.08343242 0.060502347
000240 d9 a8 3f bd f6 69 d7 3d b5 8d 28 3e 80 96 79 3d
       -0.046791885 0.10518257 0.16460307 0.060934544
000250 46 5f 52 bd 79 e8 b4 bd 0b 30 90 3b 11 68 0f 3d
       -0.05136039 -0.08833403 0.0044002584 0.035011355
000260 2a e0 b4 bd 4e c7 b2 3d 96 4b 5a bd 3f 23 ea bd
       -0.088318184 0.087294206 -0.05329474 -0.11432504
000270 12 0c 13 be c9 63 8f 3c 3f e8 ac 3d 82 06 72 bd
       -0.14360073 0.017503636 0.08442735 -0.059088238
000280 a7 2d 14 3d 3b 31 5d bd 93 ab e3 bd 64 d3 39 be
       0.03617635 -0.054002028 -0.111167096 -0.18147045
000290 de a7 8d 3d ec 6c fc bc a2 d6 7e be 07 28 e8 3d
       0.06916784 -0.030813657 -0.24886563 0.113357596
0002a0 3d be 57 be 75 a0 9f 3d 87 69 da bd ff 28 6c be
       -0.21068664 0.077942766 -0.10664659 -0.23062514
0002b0 b1 15 ef bd 1f db 3e 3e f2 7d aa 3d 45 bc 00 3e
       -0.11674059 0.18638276 0.083248034 0.12571819
0002c0 4a e8 0f bd e9 82 ff 3d 02 3e 8f bd 15 65 48 bd
       -0.035133637 0.12476141 -0.06994249 -0.048924524
0002d0 5e b1 bd 3c bd a6 cc 3d 15 9c 2a 3e 1b a3 8e 3e
       0.023155864 0.0999274 0.16661103 0.27858815
0002e0 ec 32 d6 39 49 97 01 be 0d ef d3 bd 5c da 49 3d
       0.000408552 -0.12655367 -0.1034833 0.04928051
0002f0 f0 8f 05 be 06 de 72 3c 05 7a a9 bd d1 e4 e5 bc
       -0.13043189 0.014823442 -0.082752265 -0.02806321
000300 f2 e2 9e 3d 8c 81 83 3a 57 f0 89 3c 81 ff 88 bd
       0.0775813 0.0010033115 0.016838236 -0.066893585
000310 9a e7 68 be 0e 8c 5d bb bb bf 75 3c f7 65 8d ba
       -0.22744599 -0.0033805403 0.014999325 -0.0010787834
000320 71 2d f7 3d 85 4a 2e 3e 19 ff b9 bd c3 4a 03 3e
       0.12069214 0.17020614 -0.09081859 0.12821488
000330 be 21 f7 bd 10 b0 13 be 28 2e 12 be b5 6f 5e 3d
       -0.12066983 -0.14422631 -0.1427542 0.05430575
000340 48 d0 cb bd 9c 66 08 be 2c 85 29 3d 14 d6 dd 3c
       -0.09951836 -0.13320392 0.04138677 0.02707962
000350 6b e5 72 be 54 6a 5b be 55 11 1d 3c 82 1e 01 3e
       -0.23720329 -0.2142728 0.009586652 0.12609294
000360 84 34 1f 3d c2 da f0 3d 23 ad 9d 3c 6b 1b a3 3d
       0.038868442 0.11760475 0.019247597 0.07964214
000370 3d af cf 3c a0 7b c4 bc 3f 1d 0d bd a0 80 af bd
       0.025352115 -0.02398473 -0.03445172 -0.08569455
000380 12 ab 9a bd 79 ae 56 3d f5 3e 49 bd 20 a5 dc 3d
       -0.0755216 0.052412484 -0.049132306 0.107736826
000390 68 d1 58 3d 3a 2e 9e 3b 07 ae 63 bd 22 cd e6 bd
       0.05293408 0.004827288 -0.055585887 -0.11269595
0003a0 a7 c8 bb bd ca 42 40 3d 84 a5 d8 bd 78 0b 2b bb
       -0.09169131 0.046938695 -0.105784446 -0.0026099365
0003b0 ae 06 63 bd a1 60 c7 3c 87 5a 6b be 6c 74 9a bd
       -0.055426292 0.024338068 -0.22983752 -0.07541737
0003c0 b0 fd 34 bd 6b 99 97 3e 9a 1f 08 3d be 5d a3 bd
       -0.044187248 0.29609236 0.033233263 -0.07976864
0003d0 97 97 3a 3e 39 01 31 3e b0 8d 50 3d 33 39 c1 3d
       0.1822189 0.17285623 0.050916374 0.09434738
0003e0 f4 3b 87 3e 92 ca 7c be 6a 66 af bd 4b 03 78 bc
       0.26412928 -0.2468665 -0.08564456 -0.015137504
0003f0 66 84 90 3d cd 39 a1 bb 09 86 09 be 4f ef 65 3d
       0.07056503 -0.0049202205 -0.13430037 0.056136426

fc2.bias f4 [128]
000000 33 b4 31 3d 47 d8 1d 3a f7 45 76 3c 33 31 19 3d
       0.043384742 0.00060213025 0.015031329 0.037400436
000010 b9 62 ad 3c 40 62 70 3d 37 89 31 bd 4c 0f c7 3b
       0.021165239 0.05868745 -0.04334375 0.0060748216
000020 f2 8c 9b 3c ac 39 96 3d 90 a2 bf bb 8c bb 5a 3c
       0.018988106 0.07335219 -0.0058482364 0.013350379
000030 9e 8d 83 bc f3 3d 72 3d 12 62 8e 3c 4a 98 ff 3c
       -0.01605874 0.05914111 0.017380748 0.031200547
000040 a2 47 42 3d d8 0e 0c 3d 3c 2f ad 3c 60 16 29 3a
       0.047431596 0.034193844 0.021140687 0.00064501725
000050 94 a4 8e 3b 44 ed d6 3c 8c 83 19 3c 0b 48 41 3d
       0.0043531153 0.026236184 0.009369742 0.047187846
000060 70 44 17 3b 47 45 cd 3c fd 2f 1b 3b 4c 57 c5 bb
       0.0023081563 0.025057448 0.0023679726 -0.0060223695
000070 5e 40 02 3d 48 a9 d1 bb 12 95 55 bb be 1a b3 3d
       0.031799667 -0.0063983537 -0.0032590074 0.08745335
000080 a9 51 c1 39 44 0c c4 39 8e 31 75 3c a4 cb 8e bc
       0.0003687267 0.00037393172 0.014965428 -0.017431088
000090 5b d8 dd 3c 62 b8 76 3b 83 98 eb 3c 14 47 00 3c
       0.027080705 0.0037646522 0.028759247 0.007829446
0000a0 30 ff a8 3d 65 43 53 bb b2 3f 09 3d b6 a1 16 3d
       0.08251798 -0.0032236215 0.03350801 0.036775313
0000b0 49 87 a5 bc 95 52 52 ba 10 2b 05 3b 67 b5 8b 3a
       -0.02020611 -0.000802317 0.0020319857 0.001065892
0000c0 00 90 a7 bc 40 d1 f9 3a 9f 90 d2 bb 08 4a 26 3d
       -0.020454407 0.0019059554 -0.0064259316 0.040597945
0000d0 23 38 ce 3c 35 dd ce 3b 79 0d fc 38 a2 52 5c 3d
       0.025173252 0.006312991 0.00012018806 0.053789742
0000e0 2a c6 2a 3b 78 93 7c bc e3 8f f8 3c a4 88 22 bc
       0.0026058056 -0.015416019 0.030342048 -0.009920273
0000f0 1b 3e 8d 3c 8a 47 7c 3c 39 1f 37 3a 3d 77 76 3d
       0.017241528 0.015397916 0.00069855485 0.06017231
000100 25 47 66 3c 4b 3b da bc 2f 0a 10 3c 0f e4 e9 3c
       0.014055048 -0.026639601 0.00879149 0.02855113
000110 14 9a 26 3d 5d 97 c2 3b b1 a8 4d 3d 8f c5 f0 3c
       0.040674284 0.005938454 0.050209705 0.029391078
000120 76 9d 97 3b 63 c9 4a 3c f1 06 0c 3c 1f 2d e7 3b
       0.004626925 0.012377116 0.008546577 0.0070549394
000130 2c 3e 85 bc d0 59 86 3c ae 54 be bc 71 37 3b 3c
       -0.016264997 0.016400248 -0.023233738 0.0114267925
000140 1a 7b db 3c bf 4c cc bb 00 9f b4 3c 43 91 0c 3d
       0.026792098 -0.006234735 0.022048473 0.03431822
000150 87 8d 33 3c 2e 6d 62 3d 26 28 b3 3b 1b 6f 2f 3d
       0.010959036 0.055279903 0.0054674326 0.042830568
000160 0f 87 ff 3b 17 48 02 3c c8 ce d2 ba 07 8e ee 3c
       0.0077980827 0.007951758 -0.0016083354 0.029120458
000170 5c d4 24 3c d2 26 95 bb 5d 15 77 3c 14 46 11 bd
       0.010060396 -0.004551747 0.015080777 -0.035467222
000180 d6 61 a2 bb f6 83 ef 3c 69 b9 42 3d 99 b4 42 3c
       -0.0049555106 0.029237729 0.047540102 0.011883878
000190 43 b2 15 3c 44 b6 2a bb b8 16 c7 3c cf fe 27 3d
       0.009136739 -0.002604858 0.024302825 0.04101449
0001a0 3b 55 0f 3c 37 bf 2e bd 4e 5e 40 3d e8 2e a4 3c
       0.008748348 -0.042662825 0.046964936 0.020041898
0001b0 5c f9 31 ba 06 53 14 bd 89 64 aa 37 27 dc ee 3c
       -0.00067891716 -0.03621199 2.0312395e-05 0.029157711
0001c0 65 40 3c 3d 32 33 d4 bb 60 9d 02 38 36 70 e5 3b
       0.04595985 -0.0064758295 3.1140982e-05 0.007001902
0001d0 ac ce ba 3c 42 1a be bc 89 c0 a0 3d b2 a8 98 3c
       0.022803627 -0.02320588 0.07849223 0.018635128
0001e0 ab 29 09 bb 30 8a c5 3c b7 df 2e 3d e2 01 a1 3c
       -0.0020929377 0.024113744 0.04269382 0.019654218
0001f0 d9 70 79 3c 2b 68 c6 3c af 64 7d 3b 22 4b 45 3c
       0.015224659 0.024219593 0.0038664748 0.012041839

fc3.weight f4 [10, 128]
000000 cb 31 f6 bd bb 92 a6 3c 32 90 e3 be 79 30 9b bd
       -0.12021216 0.020333638 -0.4444595 -0.07577605
000010 99 03 30 3c 9d 77 07 3e e9 57 73 bc 90 70 1e be
       0.010743045 0.13229223 -0.014852502 -0.15472627
000020 fc b1 70 be 3c a3 1a 3e e0 60 2d bd c0 90 92 bd
       -0.23505396 0.15101331 -0.042328715 -0.07156515
000030 42 ad 3b 3e 7a 86 b8 be 2f 3f 9a bc b6 b3 9d bd
       0.18327811 -0.36040097 -0.018828956 -0.07700293
000040 67 d4 3f be 5b fd 59 be ec 0c d1 3d 15 5c ca bc
       -0.18733369 -0.21288054 0.10207543 -0.024702111
000050 82 a2 7d be 70 3d 5f 3e 99 8e 61 be 6f d8 d0 be
       -0.24769023 0.2180078 -0.22027053 -0.40790126
000060 5e 1e 31 bd f5 f5 7f 3d 27 59 6c 3e 93 f7 29 3e
       -0.04324185 0.062490422 0.23080884 0.16598348
000070 c3 7b aa bd 04 f7 0a bd 53 7c 87 3e 88 14 f4 be
       -0.08324387 -0.03392698 0.2646204 -0.47671914
000080 ba 07 16 be 65 3b f2 39 8d 56 ca be 63 eb 6b bd
       -0.14651385 0.0004620209 -0.39519158 -0.05759753
000090 dd c6 9b bc 9a 40 69 3e 69 ba 8f 3d 8c 60 80 3e
       -0.019015724 0.2277855 0.07017977 0.2507366
0000a0 bf 0f 3c 3e 8b e4 2b be f0 e2 50 bd 6a d1 0c be
       0.18365382 -0.16786401 -0.050997674 -0.1375176
0000b0 0a 5b ed 3d 2b f8 4f 3d b7 b8 77 bd 34 5b a5 bd
       0.1158963 0.05077378 -0.060478892 -0.08074036
0000c0 f8 92 25 be f1 42 f6 bd a3 f4 95 3e 17 19 88 3e
       -0.16169345 -0.12024487 0.29288206 0.26581642
0000d0 4a fb c6 3c 4d 77 8e be 3f d4 ae bc 1f 06 de be
       0.024289746 -0.27825394 -0.021341441 -0.43364045
0000e0 05 80 b9 3d c2 64 3e 3e b2 2d 70 3d c7 33 d1 3e
       0.09057621 0.18593124 0.05863733 0.40859815
0000f0 b4 8a 1d bf 5c 17 d9 3d dc ce f5 3d 96 62 4a be
       -0.6153977 0.106001586 0.12002346 -0.1976417
000100 79 fb 0e be ed 4e 9f 3e 9d 40 94 bd 5a 77 9b 3e
       -0.13963117 0.31114903 -0.072388865 0.30364496
000110 c7 28 86 3d 0c 52 83 3e 13 58 95 bd 8a a8 8b 3d
       0.065507464 0.25648534 -0.072921894 0.06819256
000120 17 6a 41 3d ef 7c b6 3d 75 ea 1e 3e 32 d7 2f 3c
       0.047220316 0.08910548 0.15519126 0.010732459
000130 38 b2 02 3f 43 06 21 be f1 b8 da bc 62 b2 99 3b
       0.5105319 -0.15725045 -0.026699515 0.0046904543
000140 ac 0e 75 be 1a 5c 84 bc ba 7f 3a 3c 5a 41 3e 3d
       -0.23931378 -0.016157199 0.011382991 0.046449043
000150 a9 e8 a6 be 57 69 58 bd 6e 5b 1f 3e cf 53 29 3e
       -0.3259938 -0.052834835 0.15562221 0.16535877
000160 9b 80 dc bd 8f 7d 81 3d c5 b8 3a 3e df b1 ff bd
       -0.10766717 0.063227765 0.18234546 -0.12485098
000170 3d 70 ac 3e 61 0b 04 be 6c 15 d8 bd 5e ab 7c 3c
       0.3367938 -0.12894966 -0.10550961 0.0154217165
000180 0a ac 79 3e 61 e8 1f be 23 57 e4 be 15 f3 44 be
       0.24382034 -0.1561599 -0.4459773 -0.19233353
000190 a2 f6 11 bf 49 6b 7f 3e ae e2 f1 3c 3f 94 1b 3e
       -0.57016957 0.2494327 0.029527035 0.1519327
0001a0 b4 13 0b be 77 8a 17 3f 80 76 92 3e de 8b 95 3e
       -0.13581735 0.59195656 0.28606033 0.29208273
0001b0 59 f5 55 be b4 af 70 3e 78 26 77 3b b6 57 34 bd
       -0.20894374 0.23504525 0.0037712138 -0.04402896
0001c0 f3 5a 5d bd 9d 3f 81 bc 7a 25 92 bd b8 e1 34 3d
       -0.054041814 -0.015777403 -0.07136054 0.044160575
0001d0 40 6b 95 3e 5d 4c dd 3e 71 af 8b be 0b 3a a9 be
       0.29183388 0.43222323 -0.2728229 -0.33052096
0001e0 77 e1 90 bc c7 fa f8 be 5b fb 5d 3c eb a5 67 3e
       -0.017685635 -0.48628828 0.013548697 0.22621886
0001f0 d0 47 89 be 84 cc 49 bd 56 47 3f bd 5f 39 ae 3d
       -0.268126 -0.049267307 -0.04669889 0.085070364
000200 a8 bb b4 3e 97 71 bd bc b9 e8 83 be 92 0e cc bd
       0.3529942 -0.023125453 -0.2576349 -0.099637166
000210 32 d5 1f 3d 42 cd 04 3e 24 fa 75 3e 07 5c 05 bf
       0.03902168 0.12968925 0.24021202 -0.5209355
000220 23 2a 64 bc 49 f1 87 3d a7 8a e2 be e1 18 42 be
       -0.013926062 0.06637818 -0.44246408 -0.18954803
000230 41 4f ad bd be ed 6a 3d e2 7d ce bd 3d 4d a3 3e
       -0.08462382 0.057355635 -0.10082604 0.31894866
000240 ca 71 56 be 9f 44 a2 bd 90 56 aa 3e 94 aa 4e be
       -0.20941845 -0.07923245 0.33269167 -0.20182258
000250 f8 bd 10 3d ef 5e 86 3e f4 72 50 3e 74 51 3f 3e
       0.03533742 0.26244304 0.20356351 0.18683416
000260 10 6b 94 be 5c fa cd 3d 69 28 e5 3d c9 12 6d be
       -0.28987932 0.10057518 0.11189348 -0.23151697
000270 f8 aa 31 3e 1d 1d 27 bd 87 a5 07 be 47 a5 2a 3f
       0.17350376 -0.04079925 -0.13246737 0.66658443
000280 79 ff 95 3d 9e e8 2a 3e f4 ec 93 bd a2 d7 cf bd
       0.07324118 0.16690299 -0.072229296 -0.101485506
000290 54 fe a1 3e 62 51 0b be f3 be a6 3e 81 49 8c 3d
       0.3163935 -0.13605264 0.32567558 0.06849957
0002a0 38 e1 d3 3e f2 c7 23 3d 91 f6 38 3e 55 6b 04 3e
       0.41382766 0.039985605 0.18062808 0.12931569
0002b0 ad eb b9 be 2c a2 d6 3d 65 04 06 be 31 84 13 3e
       -0.3631262 0.104801506 -0.13087614 0.14405896
0002c0 12 4d 33 be 97 0a 8e be bc a0 65 3e cc 33 20 bf
       -0.17509869 -0.27742454 0.22424597 -0.62579036
0002d0 63 b4 44 be 15 ca d9 3d c0 00 c2 3d 0e da fc 3d
       -0.19209437 0.10634247 0.09472799 0.12346278
0002e0 ce 80 ce 3e 5e 5a 76 be cd 5a 64 bd 37 9b 59 bc
       0.40332645 -0.2405791 -0.055750657 -0.013281635
0002f0 dc 75 1b be ce be 90 3c ab c3 75 3e 89 90 c3 3e
       -0.15181679 0.017669108 0.24000423 0.3819621
000300 99 48 40 3e 8a 35 26 be 30 2b 23 be af b6 7f 3e
       0.18777694 -0.16231361 -0.15934443 0.24972032
000310 9e 8f 93 3d d6 cd 61 be 02 8e 08 bd 4f 57 9e 3d
       0.07205127 -0.22051176 -0.033338554 0.077314965
000320 47 1c 87 3e 23 2b 17 be 81 32 df 3d 7f 6c 32 be
       0.2638876 -0.14762549 0.10898305 -0.174242
000330 96 02 08 be 9f 54 83 3d a0 15 80 bd fc 0e 46 3e
       -0.13282236 0.064126246 -0.06254125 0.19341654
000340 98 1b ee bd e8 1a d6 3d 33 46 ab be b8 4d 17 bd
       -0.11626357 0.10454351 -0.33451995 -0.036939353
000350 3a 0c 7a 3e 0a 13 22 3e 10 e8 b5 be 67 1f b2 3e
       0.24418727 0.15827575 -0.35528612 0.34789583
000360 1f 39 b2 3d f7 3f 9f 3d 40 14 3c bd 81 33 ce 3d
       0.08702301 0.07775872 -0.04591775 0.10068417
000370 4e 94 2c be 9f 3d 8c 3c 26 19 86 3e 6f 91 3f be
       -0.16853449 0.017119227 0.26191062 -0.18707822
000380 e8 3a 73 bc 31 64 23 3e dc 3b c4 be 38 c4 ca bc
       -0.014845587 0.15956189 -0.3832692 -0.024751768
000390 75 2b 90 3d d6 13 c6 3b 91 22 85 be da fb d8 be
       0.07039539 0.006044845 -0.26002935 -0.42379647
0003a0 47 af 3f 3e d3 f4 06 3d e0 76 88 be cb 26 04 3e
       0.18719207 0.032948326 -0.26653194 0.12905423
0003b0 01 4e 09 be d2 e0 8a be 87 35 2f bd 79 c8 59 bc
       -0.13408662 -0.2712465 -0.042775657 -0.013292425
0003c0 2d c7 c6 3e 48 f9 80 3e 1d 63 e4 3d 41 d7 28 3d
       0.38823834 0.25190187 0.11151717 0.041220907
0003d0 15 ab ba bd 66 7e a1 3e a7 67 36 bd e2 8d be be
       -0.091146626 0.31541747 -0.044532444 -0.37217623
0003e0 0d 0f 01 be bd 42 6a 3e f7 f3 e5 3e 53 30 c6 bc
       -0.12603398 0.22877021 0.44912693 -0.024192965
0003f0 7b 26 7d bd b8 22 2e 3e e2 1e 99 3d 5f 20 61 3e
       -0.061804276 0.17005432 0.074765936 0.21985005

fc3.bias f4 [10]
000000 3c 11 b3 bd 6c c3 4e 3d a6 63 d3 bb 3a 3d a9 bc
       -0.087435216 0.050479338 -0.006451088 -0.020659078
000010 ae 31 2b 3d 9a 9f 89 3d c8 d5 dd bb 41 a7 2e 3c
       0.041795425 0.06719895 -0.0067698695 0.010659994
000020 85 1e a5 bd 85 45 02 3d
       -0.08062462 0.03180458
