best_model.pth (torch, 440230 bytes, 6 tensors)

fc1.weight f4 [128, 784]
00000000: 0ea6 4c3c afc2 9cbd f15a d03d 0e4b aabc
00000010: a15f 023d 58e8 9ebd 127c 1d3d 0084 f0bc
00000020: 7c74 0bbd d542 663d 0979 9cbb 29a5 86bd
00000030: 130d 283d d03d b4bc 428b 0c3d 61b2 adbc
00000040: 58d5 8dbd 85f4 e9bb c309 86bb 2773 34bd
00000050: 8be7 bc3d 0979 373d 4a94 bcbd a6ae 26bd
00000060: 2ba5 f13c 7381 8bbd 6240 82bd 0c67 663d
00000070: 3f38 1e3c d345 b63c b638 dabc 67cb b6bd
00000080: 5076 4f3d afe3 2d3c 995a 6a3d 63e9 733d
00000090: 5142 6fbc d7be 71bd 1ed4 093c 7ef4 5b3d
000000a0: 3da9 86bd d5f8 f4bc 1e91 9c3a bfb6 603b
000000b0: cd5e 82bc dd04 2cbd a838 dfbc 2469 5bbd
000000c0: ca90 22bd 2fb7 08bd a719 b9bd e42a 083b
000000d0: 26d4 643c 15d2 2bbd db44 b7bd 97dc 6fbd
000000e0: fb85 debd a4f7 e43c bfb2 7abd 6fa3 9cbc
000000f0: 3114 f2bd 2e3e 0dbd 98a9 5fbc 8bf1 bb3c
00000100: 2f52 86bd 458f 2dbc 7095 663d 5f5d e7ba
00000110: 410f a2bb 27d3 cfba 7215 1ebe d008 f1bc
00000120: d21e 2d3d 2d08 89bd 8d26 333e a3a0 603d
00000130: e8a4 6abd c126 123c b683 163e 3938 a63d
00000140: 1729 8abd e207 82bc 5b37 4d3d e428 c63c
00000150: 6794 803d 4b9b c3bc 51f1 3a3c c32e d3bc
00000160: e860 85bc c069 47bc 0fc6 8ebd 868e 6eba
00000170: 02c9 31bd 6f6a 853d da9e cf3c 515d 5dbd
00000180: 6d94 22bd 9c46 f13b 93af 3cbc baa9 99bc
00000190: 4dad 843d 2c88 23bd e8d7 abbd 58e6 23bd
000001a0: dc60 be3c 7488 65bd e21f 013d ab51 afbc
000001b0: bbde 023d 3f11 103d 75e3 a1bc 8778 453d
000001c0: 0653 073e fd1b c73c 8e02 81bd be05 44bd
000001d0: 25de a9bc 9311 9ebc d3af 26bd 4548 e43d
000001e0: e70b a93d 3de9 96bb d9e4 71bc e6e4 583d
000001f0: 0cba 0e3d e3f2 10bd b937 b0bc 151c ce3b
00000200: dcc1 c33c 1c73 adbc 56da 0a3e bb2a 9fbc
00000210: aed3 2b3c 0f4c 5a3d b7a3 0e3d 3aca adbc
00000220: 6530 223b ac00 443d 743e 8abc c335 593d
00000230: 91e4 44bc 2a9f 0e3d 6cd6 843d 3252 1ebd
00000240: 87bb 2fbd e34f 9ebd 2630 de3c c209 1e3d
00000250: aae9 2b3a 4633 cc3b feb7 613d c39f 20bd
00000260: 9c45 21bd 0cee 87bd e988 9a3c 8f98 debc
00000270: b03f 44bd 91f8 38bd 65b7 30bc e186 543d
00000280: 2ef1 853d b33c 4f3d 2749 6abd 4d21 5ebd
00000290: b52d eabb a3a1 4dbd bccc 19bd 275a ea3c
000002a0: 329e 83bd 7271 663d f370 603d 6bf5 50bc
000002b0: 4868 a43c dfa3 ccbd cc41 82bc 8962 a03c
000002c0: bbd1 35bd fb70 22bc 20a1 86bd d485 473c
000002d0: 3607 a33d e9b3 063d 57f5 4cbd 13bb 2e3a
000002e0: 1c83 e4bb 72c0 7f3d a5a3 a33b 4087 09bc
000002f0: 783f b43c 0516 e23c 6dba 84bd 536b 02bc
00000300: 056f c3bd 2f1b 15bc 36aa 89bd 96c9 6fbd
00000310: 3038 003c 5fa5 f23c 18cc 74bd 131a 97bb
00000320: 0af1 3a3c 6421 51bd e5d3 7bbd 5eba 1a3d
00000330: 526f ebbc 039f 983d fc9c 6cbb 7c9d 59bc
00000340: 19a5 02bb d332 eabd 3f82 16bc 2e9d 543d
00000350: 9bf0 50bd fd05 323c d053 283b 45a3 313d
00000360: 33fd a63d 9864 d0bc ccbd 0b3d 1ef1 0ebb
00000370: 41c6 953d 6164 343c d197 03bc 20d9 313c
00000380: 8e94 dbba 6c6a 813d ee41 82bc adf7 bd3d
00000390: 16aa a93d d985 21bd 3144 983d a89c 4a3d
000003a0: ca54 083d 0cba f43c 7ba8 70bc 9c44 033c
000003b0: cb0f 90bc 9b09 2e3d 6329 8cbb 6b7d 9bbc
000003c0: 10da 103d 083d 173d cf77 efbd 3c39 3d3d
000003d0: 1b1c 4abd 5a5d 063d 2d36 213d 0395 af3d
000003e0: 99a7 bcbd 5565 89bd 8792 72bd e70d 1b3d
000003f0: 0771 3bbc 8fe9 5fbd f416 84bd e3ec e1bd
0.012490762 -0.076543204 0.10173596 -0.020787742 0.03182948 -0.0775916 0.0384484 -0.029359818
-0.034046635 0.05621608 -0.0047751707 -0.065744705 0.041028094 -0.02200213 0.034312494 -0.021203222
-0.06925458 -0.0071397447 -0.004090519 -0.04405513 0.09223851 0.044793162 -0.092079714 -0.0406939
0.029497704 -0.068118 -0.06359936 0.056250617 0.009656965 0.022250092 -0.02663837 -0.08925515
0.05064994 0.010613366 0.057215307 0.059548747 -0.014603213 -0.05901989 0.008412389 0.053699963
-0.065752484 -0.029903809 0.0011945104 0.0034288613 -0.015914345 -0.041996825 -0.027248695 -0.053567067
-0.039688863 -0.033377822 -0.09038096 0.0020777518 0.013966596 -0.041948397 -0.0894868 -0.05855998
-0.108653985 0.027950116 -0.06120562 -0.0191209 -0.118202575 -0.034483127 -0.013651274 0.022942325
-0.06558644 -0.01059324 0.05629486 -0.0017651728 -0.004945666 -0.0015855775 -0.15437868 -0.029423147
0.04226572 -0.066910125 0.17495175 0.054840695 -0.057286173 0.008920372 0.14698681 0.08116192
-0.067461185 -0.0158729 0.05010162 0.02418942 0.062783055 -0.02387776 0.011410073 -0.025779134
-0.01628156 -0.012171209 -0.069713704 -0.0009100217 -0.043404587 0.06514441 0.025344301 -0.05404407
-0.03969233 0.0073631536 -0.0115164695 -0.01875769 0.06478367 -0.039924785 -0.0839079 -0.040014595
0.023239546 -0.056038335 0.031524546 -0.021401247 0.031950694 0.035172697 -0.01976178 0.048210647
0.13215265 0.024305338 -0.062993154 -0.04785704 -0.02073581 -0.01929549 -0.040695023 0.11146597
0.08254223 -0.004605441 -0.014764034 0.05295267 0.034845397 -0.035387885 -0.021510946 0.0062899687
0.02389615 -0.021173052 0.13559851 -0.019429555 0.01048748 0.05329519 0.0348241 -0.021214593
0.0024748084 0.047852203 -0.016875483 0.053029787 -0.012017385 0.03481976 0.0648621 -0.038652606
-0.04290345 -0.07730081 0.027122568 0.038583525 0.0006557951 0.006231698 0.05510711 -0.03921486
-0.039373025 -0.06637201 0.018864112 -0.027172355 -0.0479123 -0.045158926 -0.010785912 0.051886443
0.06540142 0.050594997 -0.05719867 -0.054230977 -0.007146562 -0.050202977 -0.037548766 0.028607441
-0.06426658 0.056260534 0.054795217 -0.012753825 0.020069256 -0.099921934 -0.015900515 0.019578235
-0.044389468 -0.009914632 -0.06573701 0.012177903 0.0796036 0.03288642 -0.05003866 0.00066654495
-0.0069736373 0.06243939 0.004993873 -0.0083940625 0.02200292 0.02759839 -0.064808704 -0.007960158
-0.0954266 -0.009100719 -0.06721918 -0.058541857 0.007825896 0.02961987 -0.05976495 -0.0046112626
0.011410007 -0.051057234 -0.061481375 0.03777539 -0.028739605 0.07452204 -0.0036104312 -0.013282176
-0.0019934832 -0.11435475 -0.0091863265 0.05190771 -0.05101071 0.0108656855 0.0025684722 0.043368597
0.08153763 -0.025438592 0.03411655 -0.0021811198 0.073132046 0.01101026 -0.008031801 0.010854989
-0.0016752647 0.063191265 -0.015900578 0.09275756 0.082843944 -0.039434288 0.074348815 0.049465805
0.033283986 0.02987387 -0.014688606 0.008011963 -0.017585656 0.04248963 -0.0042773946 -0.018980702
0.03536421 0.03692344 -0.116927736 0.04619716 -0.04934321 0.03280387 0.039358307 0.085733436
-0.09211654 -0.06708781 -0.05922177 0.037855055 -0.011440522 -0.0546661 -0.064496905 -0.11031511

fc1.bias f4 [128]
00000000: 0e6c d2bb 537a 963c 5a96 673a de26 5bba
00000010: 42e7 f53b 88da 3e3c 0d29 d53a ad79 f6ba
00000020: 268a 1e3c 2e77 9c3c c38e ec3b 61a6 ca3c
00000030: a6b1 7e3c 2f48 b53c a490 373d 0d69 a43b
00000040: 2dfc 3b3c b5dd b23c 90f0 9ebb e675 9f3c
00000050: cef5 e03c 12e8 bb3c 152f 4d3d 4ec5 173d
00000060: 981f 1d3b 28bb babc 3a28 3dbb 61d9 8abb
00000070: d509 1dbc 414d 6c3c 5889 243c b254 b43b
00000080: 7e6f 963c 1bd2 48bc 66d1 9b3c 4e5a 7b3b
00000090: 7eac 643c bb19 893c 5a0b e3bb 7916 533d
000000a0: 29a9 3cbc 2614 61bc ef71 edbb b730 ba3b
000000b0: 6721 14bc 72a0 4b3b dcd5 b83c b2b9 853c
000000c0: 0f1e 8fbc 5cb5 9539 8174 f13c f453 e3bb
000000d0: 845f bd3b 8a94 38bc a0ff be3c db8c 473d
000000e0: d479 003c b133 033d 96e3 f83b 33a8 5e3c
000000f0: c2a1 caba 74e4 c13c 0a09 3b3d 85a6 b4bb
00000100: 5604 133c 053b 133d ee89 793a b425 cb3c
00000110: 5098 0c3c 2a22 373c aa37 aa3c 2adf eb3c
00000120: 914b 2b3c 93ff e43c 4e7b e23b 9d00 963c
00000130: 6eac cc3b 6f77 e33c 5c4f 9dba 6f3f 163d
00000140: 97dc a83a 600e 923d 6a5f d83c 6dba 6e3c
00000150: 6ffe a83d 0846 463c f149 073c b2fd 173c
00000160: d2e2 293d ff3e fdbb e504 aa3c 643e a63a
00000170: 2ec7 a1bc 876e 383d 9d4f a83c c5d2 323c
00000180: 07bf bd3c 9ab0 233d 8827 1bbb c6ba a33b
00000190: db12 913c 3e83 113c 2112 3e3d 1ee1 6e3c
000001a0: 2700 1c3d 0f14 b63b a7a4 bb3c 9aae 593c
000001b0: c8e0 383c ce34 203c 22fc b93b ead7 023b
000001c0: da3d 623c 6e99 f83a 0f0e c83c c7e8 353d
000001d0: 9d38 46bc a8b2 883c c298 0d3d d1b8 183d
000001e0: 90d3 903c ce70 a13c 7d30 99bc 2d5d a43c
000001f0: 5cbb e13c ace5 933c e734 883c 0afa ca3b
-0.0064215725 0.018368876 0.0008834355 -0.00083599787 0.0075043747 0.011648782 0.0016262844 -0.0018804573
0.009676492 0.019099798 0.007219167 0.024737539 0.015545284 0.022129146 0.044815674 0.005017406
0.011473698 0.021834234 -0.0048504546 0.019465398 0.027460959 0.022937808 0.05009373 0.0370534
0.002397513 -0.022794321 -0.0028863088 -0.0042373394 -0.009584864 0.014422716 0.010042511 0.0055032605
0.01836371 -0.012257124 0.019020747 0.0038353386 0.013957141 0.016735902 -0.0069288434 0.051535103
-0.01151494 -0.013737714 -0.007246248 0.005682077 -0.009041167 0.0031070975 0.022562914 0.016323898
-0.017470388 0.00028554618 0.029474499 -0.006937498 0.0057792086 -0.011265883 0.02331525 0.048718315
0.007841546 0.03203172 0.0075954897 0.0135899065 -0.0015459585 0.023668505 0.045662917 -0.0055130147
0.008973202 0.035944957 0.00095191493 0.024798252 0.008581236 0.011177579 0.020778496 0.028792936
0.010455028 0.027953899 0.0069116717 0.01831084 0.006246141 0.027766911 -0.00120018 0.03668159
0.0012883124 0.07131648 0.026412684 0.014570815 0.08251654 0.012101658 0.008257375 0.009276794
0.04147608 -0.007728457 0.020754287 0.0012683389 -0.019748297 0.045027282 0.020545775 0.010914509
0.023162378 0.039963342 -0.0023674686 0.0049966304 0.017709186 0.008881388 0.046404008 0.014580039
0.038086083 0.0055565904 0.02290566 0.013286257 0.011284061 0.009778215 0.0056758085 0.001996512
0.013808692 0.0018966624 0.024420766 0.044411447 -0.012098459 0.016686752 0.03456951 0.03728563
0.017679006 0.01970711 -0.018699879 0.02006396 0.02755516 0.018053852 0.016626788 0.0061943578

fc2.weight f4 [64, 128]
00000000: 9055 f93c 8978 883d c3a1 80bd 5252 2abc
00000010: 255f fabd 560e bb3b 5bde 30be a44b a7bd
00000020: c16c d53d 334a 2a3c 2c66 08bd 5f09 153e
00000030: 8081 4a3e 2960 453e 0ae9 bc3e 5203 983d
00000040: 5eea 55bd efb1 52bd 4c91 e13d ed5a 40bd
00000050: 4977 ad3e 5bf8 13be a1bc 15bd b8d1 6fbd
00000060: 7c2c fbbd ce3a fabc 0316 1ebc 17b3 31bd
00000070: b624 913d 6684 353e 1ea7 763d a562 3d3d
00000080: 2ea9 fd3c 0deb 32be fb16 cabb 6663 643d
00000090: f0c7 a0bd b7d2 893d 48ea 04be 7a6a bc3c
000000a0: dcce 5fbc af28 66bb 0ca5 16be d5d8 ddbc
000000b0: 938a 01be f045 45bd cfce 253e f116 dbbe
000000c0: be9c f83d 4b80 ccbe 5f7a a83b d57a dabc
000000d0: 6ec9 6d3e 225e cabd b8c1 863d 9f52 a0bb
000000e0: 32fd 263e 8855 ccbd 3cda 0dbe 9226 9e3c
000000f0: fe8a 63bd e5f0 ac3d 0eda 963d 8430 16be
00000100: 5767 cebc 36b9 efbd 9e6d d03c bf00 98bb
00000110: 6f08 b3bd 533a b7bd 22c8 423e 2acf c13d
00000120: 5ca7 893d 54fe 9dbb 2c13 6dbe a599 973e
00000130: 43ee fc3c ecd3 f0bb 7639 25be f074 4c3e
00000140: 16f3 04be 77cb f13c 9f62 893d adf8 a6bc
00000150: 9f4e 21bd 8e79 903d 4242 72be 518d 0cbd
00000160: b7a3 ee3d 2fa9 83be 4165 aebd b0a2 e33d
00000170: 6088 da3d a125 08b9 867c 6cbd 09d5 293e
00000180: 1317 8abd b948 c93d db3f b3bb aa25 de3d
00000190: f3a9 b23d 98db 443c 66c4 0ebd 8752 e53d
000001a0: 012f 943e 3d24 0bbe abc8 b23c 2255 9c3d
000001b0: 4cfe 533e 06a8 4fbd f527 4bbe 6fbc 42bd
000001c0: c25e a13d 65d2 babd 083a eebc 76a6 87be
000001d0: 9c1f 81bd 8f1d 7dbe f247 64be f6ce febd
000001e0: c706 1e3d e0ac 8ebd d1e2 d2bd d2da bb3d
000001f0: be63 cabc 2f2a 4c3c 8248 a13c 01f9 44be
00000200: 0655 453e 595e e83d 8e59 9ebd 4cc2 11be
00000210: 7543 163d 72e1 3dbe e603 d63c 5d31 09bd
00000220: a755 cb3d db11 a03c f791 19ba b428 a5be
00000230: 5e02 563d 2f78 b33d 5b07 dd3d c24f d93d
00000240: 60c2 f2bd cd65 163e ab9f 98bd f57b 513e
00000250: 0ef0 d53d b6c7 8dbd 2f2f c0bc deaf af3d
00000260: 2d5e 053e 4f6a d13d 42c9 8b3d ae48 5bbe
00000270: 3ca8 23be 5fdd 8f3d 492b 233e 4a08 fd3c
00000280: 5a76 c3bd f489 0f3e c9ce 7e3e a1ef 27bd
00000290: 899c d93c 36c0 e5bd b4eb 1abe 7cc4 f0bd
000002a0: de69 e33c 17df 1d3e fe64 efbd 26b1 dc3c
000002b0: a36f 97bc 603a 843d 7bae 1ebd ac04 113d
000002c0: b36c 2f3e b1ff 4f3e e923 203c 88be 483c
000002d0: 04b7 49bd 0009 fd3d 1475 1dbe f0b5 2fbe
000002e0: 0cfa 953e c20b 5cbd 3a25 b6bd d125 c7bd
000002f0: fa6b 2fbd 418c 85bd f3c7 6d3d 68a8 37bc
00000300: 9cb1 c73d 3abb 7c3e cab8 bbbc bbb5 06be
00000310: c546 073d f33f 3d3d 184c 89bb 0e69 c13c
00000320: bea9 5abd cd8c e53b c01c a73e 5443 b3bd
00000330: 39dc 8f3b 3297 8fbd aa95 7abe e570 543e
00000340: d7f7 40bd 026a c83d d0ed 7e3e d4a2 283e
00000350: e8fa 2d3e 57c0 ce3d 2448 083e fd25 90bb
00000360: 7a2c 883d 9f4c 0a3d e5b1 bb3d dd61 373e
00000370: 79a1 113e eda9 6abd 772a e3bd 299c 063d
00000380: e406 473d dec2 713e 7230 91bd 3247 9c3d
00000390: f59b 4cbe f678 fa3c 32b7 87be f39a 243e
000003a0: 41fb 133d 6ae2 dcbb 38e6 643e dfe3 4ebd
000003b0: 935a 5abe 2e85 eb3c f5de be3e d5db f5bd
000003c0: 6223 70be 1c59 803c 95d6 d3bd 3f10 5abe
000003d0: 39b6 50bc 67ac 623d 1353 35bc 36eb 673d
000003e0: e65c 0a3d 34db b03d 0331 093d b013 a537
000003f0: 2975 24be 997b 5f3d cdd7 0bbe 88fa 8cbb
0.030436307 0.06663615 -0.062808536 -0.010395603 -0.12225179 0.005708496 -0.17272322 -0.08168724
0.10421134 0.010393667 -0.033300564 0.14554356 0.19775963 0.19274963 0.36896545 0.07422508
-0.052225463 -0.051439222 0.11014041 -0.046961714 0.3388007 -0.14450209 -0.036556844 -0.058549613
-0.12264344 -0.030545618 -0.009648803 -0.043383684 0.0708708 0.17726287 0.06021797 0.046236653
0.03096446 -0.17472477 -0.0061672903 0.055758856 -0.07850635 0.06729644 -0.12979996 0.02299999
-0.013660159 -0.0035119464 -0.14711398 -0.027080933 -0.12650518 -0.0481624 0.16192172 -0.4279094
0.12139271 -0.3994163 0.005141541 -0.026669899 0.2322137 -0.09881236 0.06579918 -0.0048926617
0.16307524 -0.09977251 -0.13852781 0.019305501 -0.055552475 0.084443845 0.073658094 -0.14666945
-0.02519576 -0.11705248 0.025442895 -0.004638761 -0.08741843 -0.08946671 0.19021657 0.094633415
0.067213744 -0.004821578 -0.23151845 0.2960941 0.03087533 -0.007349482 -0.16135201 0.19966483
-0.12983355 0.029515965 0.067082636 -0.02038225 -0.03938162 0.07054435 -0.23658088 -0.034314457
0.1165232 -0.25715014 -0.085154064 0.111150146 0.10670543 -0.00012983989 -0.057735942 0.16585173
-0.06742682 0.09828324 -0.0054702586 0.108470276 0.087238215 0.012015246 -0.03485527 0.111973815
0.2894211 -0.13588043 0.021824202 0.07633425 0.20702475 -0.05069735 -0.19839461 -0.047542986
0.07879402 -0.09122161 -0.029080406 -0.26494187 -0.06304857 -0.24718307 -0.2229307 -0.124418184
0.038580682 -0.06966567 -0.10297168 0.09172596 -0.024705764 0.012461229 0.019687895 -0.19235612
0.19270715 0.113461204 -0.07731925 -0.14234275 0.036685426 -0.18543032 0.026124906 -0.033494342
0.09928446 0.019539764 -0.0005858237 -0.32257617 0.05224835 0.087631576 0.107924186 0.10610916
-0.1185348 0.14687271 -0.07452329 0.20457442 0.104461774 -0.069228575 -0.023459999 0.08578466
0.13024206 0.10225355 0.06825496 -0.21414444 -0.15982145 0.07024645 0.1593448 0.030887742
-0.09544058 0.14017469 0.2488357 -0.041000012 0.0265639 -0.11218302 -0.15128976 -0.117562264
0.027760442 0.15417133 -0.116891846 0.02693994 -0.01848585 0.06456447 -0.038740616 0.035404846
0.17131309 0.20312382 0.009774187 0.012252457 -0.049246803 0.12355232 -0.15376693 -0.17159247
0.29292333 -0.05372215 -0.08893819 -0.0972401 -0.042827584 -0.06520892 0.058052015 -0.011209585
0.09750673 0.24680796 -0.022915263 -0.13155262 0.033026475 0.046203565 -0.0041899793 0.023609664
-0.053384535 0.00700531 0.32639122 -0.08753076 0.0043902663 -0.0701126 -0.24471155 0.20746191
-0.04711136 0.097858444 0.24895406 0.16468364 0.16990244 0.1009528 0.1330877 -0.00439906
0.06649108 0.033764478 0.0916479 0.17908426 0.14221753 -0.05729096 -0.11092084 0.03286377
0.048590556 0.23609492 -0.07089318 0.07630767 -0.19981368 0.030575257 -0.26506954 0.16074733
0.036128286 -0.006740858 0.22353446 -0.050510284 -0.21323614 0.028750028 0.37279478 -0.1200482
-0.23450997 0.01566749 -0.10343663 -0.2129526 -0.012738758 0.055340197 -0.01106717 0.0566208
0.03378 0.0863556 0.033494007 1.96787e-05 -0.16060318 0.05456123 -0.1365654 -0.0043023266

fc2.bias f4 [64]
00000000: 4f87 893c bd26 253c 56b4 82bc 0dcd fb3b
00000010: 9358 523c e58f 983c c495 b13c d945 343a
00000020: 4f0d f63b e4a8 113c 3940 2e3d 0e0a 95bc
00000030: 55db 8ebb e99b 4c3c 22dc 403b fbf5 43ba
00000040: 55b5 0aba a7eb 6b3c 2a4a b73d ffcc 13ba
00000050: b906 1bbc 4362 a1bb 1943 8f3c 8f26 cc3c
00000060: b1b0 e43b 4463 293d feb5 453d b34a dcbc
00000070: c81b ca3c 9f43 e6bb 2156 713c 29c0 863c
00000080: ae07 cebc f8e5 abb9 de35 e13c f745 923c
00000090: b1e5 733b ec44 d03a 29c9 82bb ec6c 21bc
000000a0: f733 61bb 3d8a 5abb 31b1 543d 90c3 5c3c
000000b0: c036 823c 0c3c 4f3d 2c35 003c 2476 9d3d
000000c0: ba4a f8bb 3650 4dbb d6a1 60bb 0e29 133d
000000d0: c93a 443b 01d7 af3c 602f ab3b 799c 7d3c
000000e0: eaa7 bebc 9da8 333c 88f2 2a3a 2d4c 633c
000000f0: 7cae 52bc 59db b6bb e852 4b3c ea95 9a3d
0.016788153 0.010080037 -0.015955132 0.007684356 0.012838501 0.018623302 0.02167786 0.0006876863
0.0075089107 0.008890364 0.042541716 -0.018193271 -0.0043596425 0.012488344 0.0029428084 -0.00074753136
-0.0005291303 0.014399446 0.089496925 -0.0005638152 -0.009462052 -0.004925044 0.01748805 0.02492073
0.006979071 0.041354433 0.048269264 -0.026891088 0.02467145 -0.007027104 0.014730007 0.016449051
-0.025150146 -0.00032787002 0.027491506 0.017855627 0.0037215764 0.0015889681 -0.0039912653 -0.009852629
-0.003436325 -0.0033346557 0.051926795 0.01347436 0.015895247 0.050594375 0.007825177 0.07688549
-0.0075772675 -0.0031328327 -0.003427615 0.035927825 0.0029942265 0.021464827 0.0052241534 0.0154792005
-0.023273427 0.0109654935 0.00065211253 0.013873142 -0.012858983 -0.0055803475 0.012409903 0.07548125

fc3.weight f4 [10, 64]
00000000: 436b 40be 32e5 4b3d b242 f7bd 0a30 60bd
00000010: 043c 373e 9a82 293d c72f 813e 6ae6 debc
00000020: bc7d ddbd 91c6 f5be 52f7 37be 9ef4 21be
00000030: 213c 01be d334 e4bc cdf7 9fbe 833c 9e3e
00000040: 9f6f 14bd 765c dc3d 0618 a43d 8af6 bb3e
00000050: f760 a43d f84e 9f3d 6313 90be ce89 593e
00000060: 1b8c 0a3f f0c2 dabd cf2e f2be 467b 5a3e
00000070: 5c2e f0bc 6805 13bc 1a6c 97be 4040 1d3e
00000080: e0f0 c13c 8e63 1abe ce58 1dbe d5cc d4bb
00000090: e0d6 833e ee1f b4be 6744 9e3c 9366 0ebe
000000a0: 9621 c4bd 487c 373e 802f a1bd 5a65 753e
000000b0: a76a 5d3c 2686 9dbc 25f5 b9bd ec96 4abd
000000c0: 6a17 35be 9d27 6c3a bb8e 7abd a3ac a8be
000000d0: c1d2 8e3e ac0e df3b afa2 843d d4e8 883e
000000e0: 5c55 523d e2b3 22bd 89f0 753d dff8 7e3d
000000f0: 93a8 a23d d29d f13d a702 d23e f964 77be
00000100: cf6f 78bd 1fdb 923d f806 bdbd bf4d 16be
00000110: 56ed 943e 1688 8ebc 83f2 6aba 4cec 22be
00000120: e5da ebbc 2da6 92bd f610 a13e 7eb2 55bd
00000130: bc13 49be 437e 90be 06b0 d0be 85d0 de3d
00000140: 4a0a 6bbe 354b a0bd 8cb9 493e 67c5 92bd
00000150: e43d eb3d 91db 22bd f057 06bd e0f1 a33e
00000160: cad6 273e 4323 6abe 4f4c 96be 239d 523e
00000170: 32b8 54be 007a 423c 2af5 863a 36e1 ecbd
00000180: 46dd 06be 2daf 963c c3f2 023e 5bd8 713d
00000190: 56fa 713d 7cf5 d53d 3b07 a0be ea33 113b
000001a0: c842 81be 61c4 05be d057 0fbf 9025 a1bb
000001b0: 5af2 a03c e859 133f f85e 3b3d 58a1 f53e
000001c0: 5013 473d d7d3 cf3e 162c d6bd bf59 7c3e
000001d0: 165d cebe e42b 7dbe 1ac1 983d e2a9 cbbd
000001e0: 57b0 363d 7cb7 6fbd 2823 7a3e ede1 2bbe
000001f0: 9a28 6d3d 884e c4bb 7046 753e beee 593e
00000200: 9273 e53d 6241 263f 1a91 9a3e 6d0c c1be
00000210: 9a1c 16bd d258 883e 5f48 9f3c 3dc9 a33d
00000220: f403 bdbe 524d f83d abc1 063f f13e 7abe
00000230: 5041 2c3d 2232 4b3c 28cf c0bd 2db1 39be
00000240: 3d5a 413e 2b74 643e 3a83 95be c307 de3d
00000250: 84e2 833e fe4f eb3d 0ae8 783d 6e3c b53e
00000260: 70a2 e93d 961a e7bc 8b12 8b3e 2903 383e
00000270: 8414 293e bb2e d23d b6a0 e7bb e63b 803d
00000280: 957a 89be 026e 2a3e 1ef7 6dbe 7d06 68bd
00000290: 6913 45be e164 923e c5da 94bd b6e4 c5be
000002a0: 08bf aebe 43a5 1fbe 2740 57be efcc 86be
000002b0: 671c 923d 4b8d efbe 0dfb febd 4f86 f1bd
000002c0: 3fef ef3d 36ce d0bd 12e6 723b b841 d2bd
000002d0: 092e 8cbd 3452 a3bd 3633 7b3e e9da 43be
000002e0: 2c1a 843c 7a53 adbe 7b6d a3be 2e62 9abd
000002f0: 5a00 6a3e 70f8 503e 11f5 043f d0a4 6cbd
00000300: aeb3 223e 22c1 2a3e 92a8 3d3e b250 62be
00000310: ff7b 433e a97b 5c3d bdc0 973d 97f4 113d
00000320: aee8 bf3d ebd5 49be 74a1 c3bd f365 a8bd
00000330: 5ecd 84bd ee6f c9bd 065a a8bd ceb9 a0bd
00000340: abc7 e8bd 57e9 ab3e a1d1 5b3e cfe9 c13d
00000350: dc19 853e 6a08 ea3e 558b 9c3d 5983 54bd
00000360: 8596 9b3e 4411 b6be 89d8 703e bbcf 913e
00000370: df23 8d3e aca3 553e fd0c 133e 61de 2cbe
00000380: 2d5c d5bc a4f1 b13c ca78 9abe d99b a6bd
00000390: feaf 5a3e eed0 983c c937 9c3e dd86 f93d
000003a0: a928 7abe 97b5 1b3e 1f80 c8bd e026 4abe
000003b0: 4c5b 16be ae37 99be 199c 633e 4c9d fdbd
000003c0: 147a bebd fa9e 87be b01b 3c3e 9a77 fe3d
000003d0: 7c58 f7bd f8f8 bb3d e4b3 613d 4537 e4be
000003e0: 2c43 b3be edc4 9d3e 37b9 24be aeb3 3abe
000003f0: ae8f bbbd 6b37 91be e057 34be 01e8 293d
-0.18790917 0.049779125 -0.12073268 -0.054733314 0.17893988 0.041384317 0.25231764 -0.02720948
-0.108149976 -0.48003057 -0.17965439 -0.1581597 -0.12620594 -0.02785722 -0.31243744 0.30905542
-0.036239263 0.10759823 0.080123946 0.36711532 0.08026307 0.07778734 -0.2813979 0.21243975
0.54120034 -0.106817126 -0.47301337 0.21336088 -0.02931898 -0.008973457 -0.29574662 0.1535654
0.023674428 -0.1507704 -0.15365908 -0.0064941444 0.25749874 -0.3518061 0.019319726 -0.13906316
-0.095767185 0.17918503 -0.07870388 0.23964444 0.013514197 -0.019229006 -0.09079961 -0.049460337
-0.17684713 0.00090085884 -0.061171275 -0.3294421 0.27895167 0.006807169 0.06476342 0.26740134
0.051350936 -0.03972233 0.060043845 0.06224906 0.07942309 0.1179768 0.4101765 -0.24159612
-0.060653504 0.071707 -0.09229845 -0.14678095 0.29087323 -0.017398875 -0.00089625287 -0.15910453
-0.0287909 -0.07160602 0.31458253 -0.052172177 -0.19636434 -0.2822133 -0.40759295 0.10879616
-0.22953144 -0.078268446 0.19699687 -0.07166558 0.11486414 -0.039760176 -0.032798707 0.32020473
0.1639053 -0.22865014 -0.29355094 0.20567755 -0.2077339 0.011869907 0.0010296453 -0.11566393
-0.13170347 0.018394077 0.12787919 0.059044223 0.05907663 0.10447213 -0.31255516 0.0022156187
-0.25246263 -0.13063194 -0.55993366 -0.004917808 0.019646812 0.5755906 0.045744866 0.47974658
0.048602402 0.40591308 -0.104576275 0.2464361 -0.40305394 -0.24723774 0.07458706 -0.09944512
0.044601765 -0.058524594 0.24427474 -0.16785403 0.05790005 -0.005990807 0.23952651 0.21282479
0.11203684 0.64943516 0.3018883 -0.37704793 -0.03664837 0.26630265 0.019443689 0.079973675
-0.36917078 0.12124123 0.52639264 -0.24438073 0.042054474 0.012402089 -0.09414512 -0.18133993
0.1888208 0.2230994 -0.2920168 0.10841324 0.25758755 0.11489867 0.060768165 0.35397667
0.114079356 -0.02821092 0.27162585 0.17969956 0.16511732 0.102628194 -0.007068719 0.06261425
-0.26851335 0.16643527 -0.23238799 -0.056646813 -0.19245686 0.2859259 -0.072682895 -0.38651055
-0.3413012 -0.15590386 -0.21020566 -0.26328227 0.071343236 -0.46787485 -0.12450228 -0.117931955
0.117155544 -0.101955816 0.0037063402 -0.10266441 -0.06844718 -0.079746634 0.24531254 -0.19126476
0.016125761 -0.3385275 -0.31919464 -0.075382575 0.22851697 0.20407271 0.5193644 -0.057774365
0.15888855 0.16675237 0.18521336 -0.22101095 0.1909027 0.05382887 0.07409809 0.03563365
0.09370552 -0.1971051 -0.09552279 -0.0822257 -0.06484483 -0.09835802 -0.082202956 -0.078479394
-0.11366209 0.33576462 0.21466686 0.094684236 0.25996292 0.45709544 0.07643763 -0.051883075
0.30388275 -0.35560048 0.23520102 0.28478798 0.2756643 0.20863217 0.14360423 -0.16881706
-0.02604493 0.021721669 -0.3017028 -0.08135194 0.21356198 0.018654313 0.3051131 0.12183926
-0.24429573 0.1520599 -0.09790062 -0.19741392 -0.14683264 -0.29925293 0.22227515 -0.123835176
-0.09300628 -0.26488477 0.18369937 0.12425156 -0.12077424 0.091783464 0.055103198 -0.44573417
-0.35012186 0.30814305 -0.16086279 -0.18232605 -0.09158264 -0.28362593 -0.17611647 0.04148102

fc3.bias f4 [10]
00000000: ecc2 d3bd f4ba f53d 6823 03bd e02a 39bd
00000010: 94c6 f13b 88b7 4e3c 172e 87bd 0389 d93d
00000020: d7f5 a6bd 7bd6 a73d
-0.10339913 0.11998549 -0.032016188 -0.045206904 0.0073784087 0.012616999 -0.06600588 0.10621836
-0.08152359 0.08195206
