cnn_best_model.pth (torch, 84750 bytes, 6 tensors)

conv1.weight f4 [16, 1, 3, 3]
0.081925124 0.4731703 0.24238853 0.31740567 0.16962458 0.017125657 0.40198487 0.05776985
-0.22899875 0.03225883 0.008511985 -0.744535 0.4027573 0.08719514 -0.5008561 0.44759697
0.26171207 0.22773755 0.28955638 0.19993667 0.5868457 0.036519673 0.18738544 -0.06523334
-0.40508264 -0.60747373 -0.2892415 0.21495524 0.2921588 -0.33111942 0.26677507 0.012018548
-0.5008507 0.28125575 0.49451596 -0.3013472 0.3277296 -0.14841233 -0.57241976 0.32432637
0.4003675 0.14812353 0.11519492 -0.008466888 0.30758563 0.11697847 0.35263887 0.4129813
0.32438043 0.43254462 -0.074239336 0.3741624 0.016139459 -0.2493261 -0.06405688 -0.32976213
-0.27114028 -0.24670169 -0.35549343 0.06407528 -0.5199811 0.1133646 0.30527163 -0.4496493
-0.39971772 -0.16594608 0.23825432 -0.10982259 -0.15965305 0.18980981 0.2500573 0.59054226
-0.5803286 -0.62012994 0.13456315 0.03613788 0.30846694 0.2575692 0.36631504 0.48808664
0.35644713 0.5345382 0.26500335 -0.23998916 -0.1461531 0.25976416 0.48246977 -0.37730905
-0.055201683 -0.044529423 0.19551407 -0.25888133 -0.43812814 0.42033687 0.26215643 -0.07178289
-0.034796674 0.2953968 0.42242694 0.6581722 -0.23313461 0.35609266 -0.13223487 -0.69902503
-0.4067976 0.5129303 -0.025542775 -0.074576244 -0.1997235 0.34573546 0.29862309 0.21142131
-0.014972034 0.48938495 -0.23605148 -0.15895642 0.30908835 0.28644693 0.16463529 0.08790763
0.2036313 0.45658726 0.13806137 0.168043 0.28055614 0.29434505 0.055291206 0.3521139
0.41683 0.55761313 0.23856956 -0.27044874 0.37505552 -0.018727867 -0.5390232 -0.072897136
0.37392637 -0.048198815 -0.6942056 -0.46175596 -0.41015568 -0.16100706 -0.05371253 -0.0872165
00000000: 5cc8 a73d 6143 f23e b334 783e ff82 a23e
00000010: 11b2 2d3e 1b4b 8c3c f6d0 cd3e 14a0 6c3d
00000020: a67e 6abe d621 043d da75 0b3c d999 3ebf
00000030: 3436 ce3e 5e93 b23d 1b38 00bf 6e2b e53e
00000040: 20ff 853e 0834 693e bc40 943e 33bc 4c3e
00000050: 853b 163f a795 153d f8e1 3f3e 0f99 85bd
00000060: fe66 cfbe 6683 1bbf 7617 94be 3a1d 5c3e
00000070: d795 953e 7c88 a9be be96 883e 72e9 443c
00000080: c037 00bf c100 903e 3231 fd3e 2e4a 9abe
00000090: 2dcc a73e 67f9 17be 1a8a 12bf 1b0e a63e
000000a0: f8fc cc3e b2ad 173e 50eb eb3d b4b8 0abc
000000b0: dd7b 9d3e 6892 ef3d 158d b43e 4972 d33e
000000c0: 3115 a63e 7d76 dd3e cb0a 98bd 3792 bf3e
000000d0: e636 843c 574f 7fbe 4130 83bd 95d6 a8be
000000e0: e6d2 8abe 5e9f 7cbe 3c03 b6be e739 833d
000000f0: 7b1d 05bf b32b e83d 904c 9c3e 6f38 e6be
00000100: cda7 ccbe c5ed 29be f1f8 733e abea e0bd
00000110: 177c 23be 815d 423e 8307 803e c72d 173f
00000120: 6a90 14bf d6c0 1ebf ecca 093e 5005 143d
00000130: 61ef 9d3e 1ce0 833e a58d bb3e 7ee6 f93e
00000140: 3d80 b63e 7fd7 083f 85ae 873e b8bf 75be
00000150: 29a9 15be cfff 843e 4706 f73e a72e c1be
00000160: 291b 62bd 7c64 36bd d734 483e 188c 84be
00000170: 5552 e0be 6536 d73e 5e39 863e e802 93bd
00000180: f586 0ebd 403e 973e 5848 d83e f97d 283f
00000190: d7ba 6ebe c751 b63e 9468 07be 4ef3 32bf
000001a0: c647 d0be 664f 033f 153f d1bc 6ebb 98bd
000001b0: 5184 4cbe 3d04 b13e 20e5 983e d47e 583e
000001c0: 434d 75bc aa90 fa3e 7bb7 71be 79c5 22be
000001d0: d440 9e3e 2ca9 923e 2796 283e ea08 b43d
000001e0: b984 503e cec5 e93e f65f 0d3e 7713 2c3e
000001f0: 0ea5 8f3e 65b4 963e 0879 623d 4648 b43e
00000200: be6a d53e bcbf 0e3f 944b 743e 4278 8abe
00000210: 4707 c03e 2f6b 99bc 6dfd 09bf 184b 95bd
00000220: 4773 bf3e 1f6c 45bd 75b7 31bf 476b ecbe
00000230: edff d1be 09df 24be ab01 5cbd 909e b2bd

conv1.bias f4 [16]
-0.13691536 0.0050710943 0.03439455 0.013946333 0.09237574 -0.013584237 0.24231495 0.007879433
-0.024158083 -0.16035742 -0.22784433 0.05124928 -0.14893192 0.058455404 -0.19711472 0.3249932
00000000: 8a33 0cbe 6c2b a63b 4de1 0c3d 297f 643c
00000010: 7e2f bd3d 6b90 5ebc 6921 783e bd18 013c
00000020: 2ce7 c5bc bc34 24be 0650 69be c4ea 513d
00000030: 9c81 18be ef6e 6f3d 71d8 49be 8265 a63e

conv2.weight f4 [32, 16, 3, 3]
0.026100574 0.04117548 -0.017506776 -0.017568804 0.18349877 0.1539547 0.11630184 0.155464
-0.08086261 -0.19892412 -0.04291353 -0.09979667 -0.1114983 -0.18696149 -0.14370006 -0.047861226
-0.029113878 -0.03726594 -0.088975385 -0.23161694 -0.02877817 -0.43840915 -0.118459076 0.18847252
0.108322985 0.1504973 0.18221629 -0.30209306 -0.16303104 -0.15258592 -0.031238955 -0.07792078
-0.05736337 0.056406748 0.039462652 0.04060033 -0.054354142 -0.074874856 -0.0059377844 -0.09660757
-0.09033564 -0.06190272 -0.023600627 -0.0072070905 -0.1601517 -0.052709915 -0.020012872 0.07549434
0.028516706 0.16994298 0.09862165 0.11692831 0.080317535 -0.08645517 -0.11363622 -0.038609676
-0.04005457 -0.016124459 0.08022018 -0.295732 -0.1372888 -0.22710453 -0.16270748 0.07212972
0.099406436 0.059903614 0.11184272 -0.0010913475 -0.19238172 -0.047519453 -0.029989785 -0.023230784
-0.014601719 0.037776843 0.15125877 0.11519832 0.18367809 0.012442353 0.1507552 -0.008118655
-0.14232084 -0.021404533 -0.12733409 0.008591854 -0.12513839 -0.29077595 -0.07803083 -0.029094946
0.08947166 0.050558805 -0.15971068 0.08920315 0.056473043 -0.11667487 -0.112316035 -0.14326471
-0.16941291 -0.072165675 -0.10531482 -0.19422306 -0.21058483 -0.34233502 -0.49331307 -0.26531067
-0.012915608 0.014616503 0.24039167 0.1714559 -0.04116689 -0.085226975 0.019546457 -0.07193919
-0.058592346 0.13082781 0.13392961 0.08870503 -0.23187377 -0.11458312 0.086985745 0.070397675
0.07615273 0.08733149 0.04662848 0.123417825 -0.015777782 -0.059208706 -0.16323568 0.042463936
0.12334376 0.04483086 0.2669858 0.22299296 0.2242879 0.100591235 -0.050021145 -0.056033306
0.034322236 -0.14365722 -0.07700308 -0.11171093 -0.29946595 -0.26580694 -0.13810898 -0.040304445
-0.006592553 0.028296549 -0.0030084813 -0.068433605 0.042810556 0.015525388 0.06266811 -0.085798524
-0.08962967 -0.18241814 -0.11259536 0.057356883 0.14448678 -0.05093321 0.08181854 -0.171093
-0.10816332 0.010079803 -0.12366557 0.09854476 -0.04433265 0.055767655 -0.031441238 -0.08371999
0.33937183 0.29399028 0.06858183 -0.09371746 -0.045560498 0.08915082 0.038868304 -0.008038004
-0.046654448 -0.0745638 -0.2061805 -0.012955759 -0.039302412 0.015740404 -0.04613581 0.072323576
0.056887265 0.10395229 0.0037948121 -0.044935253 0.09044464 -0.03659685 0.10252216 -0.115792766
0.063031234 -0.0034031267 -0.055958398 0.109601974 0.057206575 -0.028025212 -0.031254623 -0.09688561
-0.028726574 -0.09088594 -0.06776144 -0.156898 -0.10869595 -0.1771207 -0.2604184 -0.041995805
-0.10739138 0.04751858 0.024660641 0.061138302 0.08292899 -0.21767639 -0.07969965 -0.05061831
0.033574 -0.026143009 0.051135935 0.043101735 0.16551015 0.15693483 -0.08020791 -0.1347697
-0.036804006 -0.23913427 -0.15164836 -0.13944323 -0.16182676 -0.21018757 -0.21211539 0.1475422
0.17718472 0.3358971 -0.17003427 -0.22114876 -0.14356858 0.14640933 0.109222144 0.1259602
0.06343925 0.06117731 0.19816652 0.09644792 -0.11909704 -0.015327581 0.10302888 -0.01837185
0.04329348 0.05860778 0.16218391 -0.02840161 -0.02035003 -0.13925625 -0.25416026 0.013666008
00000000: dfd0 d53c 9fa7 283d 5f6a 8fbc 74ec 8fbc
00000010: 1ae7 3b3e 4da6 1d3e a92f ee3d f431 1f3e
00000020: 4c9b a5bd c4b2 4bbe 19c6 2fbd 3262 ccbd
00000030: 3959 e4bd d572 3fbe 1c26 13be 220a 44bd
00000040: 3a80 eebc 2ca4 18bd ba38 b6bd fe2c 6dbe
00000050: 32c0 ebbc 2a77 e0be ac9a f2bd f1fe 403e
00000060: 71d8 dd3d f71b 1a3e e896 3a3e f1ab 9abe
00000070: 9cf1 26be 7c3f 1cbe d6e8 ffbc ee94 9fbd
00000080: daf5 6abd c30a 673d 97a3 213d 884c 263d
00000090: 73a2 5ebd fd57 99bd bf91 c2bb 31da c5bd
000000a0: e401 b9bd b58d 7dbd 1a56 c1bc 7529 ecbb
000000b0: cffe 23be 5ae6 57bd 09f2 a3bc c79c 9a3d
000000c0: de9b e93c 8805 2e3e 26fa c93d 1c78 ef3d
000000d0: 857d a43d 680f b1bd 1bba e8bd 2e25 1ebd
000000e0: 4310 24bd 7117 84bc 7a4a a43d 2f6a 97be
000000f0: 6f95 0cbe 178e 68be ca9c 26be bfb8 933d
00000100: 9a95 cb3d 7e5d 753d cc0d e53d 8c0b 8fba
00000110: b7ff 44be c2a3 42bd 23ad f5bc 7c4e bebc
00000120: 0c3c 6fbc e4bb 1a3d 94e3 1a3e 19ed eb3d
00000130: 1c16 3c3e 03db 4b3c 925f 1a3e 1b04 05bc
00000140: 8ebc 11be 8f58 afbc de63 02be d9c4 0c3c
00000150: 4724 00be 96e0 94be a1ce 9fbd 8658 eebc
00000160: eb3c b73d c016 4f3d 328b 23be 24b0 b63d
00000170: 4750 673d 3cf3 eebd f305 e6bd fcb3 12be
00000180: 947a 2dbe 99cb 93bd 4caf d7bd 69e2 46be
00000190: 8da3 57be 8946 afbe 8893 fcbe cdd6 87be
000001a0: fc9b 53bc 0f7a 6f3c 3c29 763e 2392 2f3e
000001b0: 9d9e 28bd 7b8b aebd e41f a03c db54 93bd
000001c0: 87fe 6fbd baf7 053e d824 093e fcaa b53d
000001d0: 5170 6dbe 8eaa eabd 9525 b23d a82c 903d
000001e0: f6f5 9b3d dada b23d 81fd 3e3d 7cc2 fc3d
000001f0: 6840 81bc d484 72bd 4127 27be aaee 2d3d
00000200: a79b fc3d 90a0 373d 5db2 883e 4458 643e
00000210: baab 653e c702 ce3d f9e2 4cbd 2e83 65bd
00000220: 7995 0c3d e11a 13be cab3 9dbd b3c8 e4bd
00000230: 9a53 99be d917 88be 716c 0dbe 4616 25bd
00000240: 5806 d8bb 2ace e73c f129 45bb eb26 8cbd
00000250: 1f5a 2f3d 325e 7e3c 2358 803d 23b7 afbd
00000260: c38f b7bd d2cb 3abe 6598 e6bd 0def 6a3d
00000270: 58f4 133e 579f 50bd 7b90 a73d 0133 2fbe
00000280: bb84 ddbd c225 253c 6044 fdbd d6d1 c93d
00000290: 2796 35bd a06c 643d 87c8 00bd 6375 abbd
000002a0: 25c2 ad3e e585 963e a174 8c3d f1ee bfbd
000002b0: a59d 3abd b594 b63d 5f34 1f3d d5b1 03bc
000002c0: bc18 3fbd e8b4 98bd fb20 53be 6444 54bc
000002d0: 91fb 20bd 05f2 803c e7f8 3cbd 621e 943d
000002e0: 9f02 693d f0e4 d43d 62b2 783b 070e 38bd
000002f0: 0a3b b93d 94e6 15bd 23f7 d13d c224 edbd
00000300: 8516 813d fe06 5fbb a234 65bd 0077 e03d
00000310: 7151 6a3d 2195 e5bc d904 00bd f66b c6bd
00000320: fe53 ebbc 6822 babd 83c6 8abd dfa9 20be
00000330: fb9b debd 215f 35be 8f55 85be cb03 2cbd
00000340: 03f0 dbbd d8a2 423d 1d05 ca3c 286c 7a3d
00000350: add6 a93d 8fe6 5ebe 9239 a3bd 2555 4fbd
00000360: e484 093d dd29 d6bc ea73 513d 728b 303d
00000370: 7e7b 293e 86b3 203e 0b44 a4bd 1101 0abe
00000380: ccbf 16bd 9ddf 74be b549 1bbe 35ca 0ebe
00000390: eab5 25be 693b 57be c734 59be 4d15 173e
000003a0: e96f 353e b4fa ab3e 771d 2ebe d274 62be
000003b0: a403 13be 54ec 153e dcaf df3d b6fb 003e
000003c0: 70ec 813d 0f95 7a3d 2aec 4a3e 7d86 c53d
000003d0: 26e9 f3bd 8920 7bbc ce00 d33d 9080 96bc
000003e0: 8154 313d b60e 703d 8a13 263e 7eaa e8bc
000003f0: 1bb5 a6bc 3199 0ebe 4b21 82be 64e7 5f3c

conv2.bias f4 [32]
-0.081990056 0.0014834622 -0.03762141 0.04559541 -0.07389083 -0.114971094 -0.05395178 -0.13225538
-0.09278462 0.02601716 -0.09257427 -0.1391899 -0.15258463 -0.006046551 -0.08177842 -0.011223859
-0.022038648 -0.004220202 0.022951365 -0.08982853 0.033643905 -0.050185263 -0.010536056 0.025646033
-0.07476585 -0.011912269 -0.062983155 -0.051743053 -0.08796189 -0.11207604 0.03465974 -0.056190997
00000000: 67ea a7bd bb70 c23a e818 1abd 41c2 3a3d
00000010: 1354 97bd f775 ebbd 8bfc 5cbd f46d 07be
00000020: dd05 bebd f021 d53c 9497 bdbd cc87 0ebe
00000030: 253f 1cbe 2522 c6bb 727b a7bd 47e4 37bc
00000040: 658a b4bc 9f49 8abb 8004 bc3c 05f8 b7bd
00000050: 31ce 093d 108f 4dbd 6c9f 2cbc a117 d23c
00000060: d71e 99bd ad2b 43bc 50fd 80bd 86f0 53bd
00000070: 5d25 b4bd 1f88 e5bd 5ff7 0d3d 8828 66bd

fc.weight f4 [10, 1568]
0.005562568 -0.0583042 -0.0062872414 -0.046399243 -0.07310252 -0.016080057 -0.010167271 0.0011186847
-0.10508774 0.02131045 -0.066405885 -0.044375163 -0.06495984 -0.003162612 -0.066931576 0.07262482
0.027769996 0.013170255 -0.032336302 -0.03324883 -0.05210951 0.0331869 0.11524827 0.05598515
-0.05050066 -0.019811656 0.040217623 0.092144646 0.0038415988 0.027701689 -0.045131315 -0.043796256
0.058655594 -0.013451619 0.050557505 -0.025505403 0.024439126 -0.008732343 0.010428256 0.009017639
0.023750024 0.015172774 -0.097579025 -0.04161404 -0.05756212 -0.10976594 -0.09238907 -0.05783847
-0.029104773 -0.027392391 -0.075114496 0.03526997 -0.015670812 0.03563558 0.057949603 0.015585672
-0.017330471 -0.012991303 -0.005786443 0.011818324 0.03354577 0.02429752 0.06411214 0.017900707
-0.041661195 -0.03000032 -0.012526867 -0.038333323 -0.0011957416 0.00031305748 -0.05524852 -0.015963314
0.00026084224 -0.13437152 -0.13684459 0.014004687 0.028000593 -0.0042151776 -0.012677431 0.0519506
-0.0125191435 -0.0022601606 -0.015070349 -0.07964357 -0.06859124 0.011920112 0.010144794 0.0056897965
0.03770876 0.00774906 -0.013413642 0.005729145 0.053619854 0.033632368 -0.12066139 -0.10303489
-0.058961224 -0.04445872 -0.051920053 -0.14302082 0.019694475 -0.035797883 -0.06878428 -0.041471325
-0.0059205187 -0.010424326 0.058787514 -0.040035844 -0.0129241645 0.06775221 0.036815874 -0.0017000652
0.008482866 -0.03309126 -0.04695888 0.060168024 0.07525709 0.013957821 -0.016925924 -0.07281948
0.061682332 0.03195787 -0.018776158 -0.040196333 0.08930989 0.06464536 0.07567569 -0.02356586
0.03205903 -0.016636036 -0.056193277 -0.019607242 0.03574091 0.011280195 0.0068711145 -0.0016054751
0.04476403 -0.006817737 -0.030917786 -0.028261703 0.011407607 0.0023995352 -0.005399602 0.0061497036
-0.0011978531 -0.03909872 -0.044085078 -0.038505 -0.016160263 -0.064117886 -0.04048482 -0.04023734
-0.06117176 -0.008343071 -0.020289542 -0.09360738 -0.028195797 -0.014811073 -0.04181061 -0.081255876
-0.05739524 -0.09242212 0.03928437 -0.027753249 -0.0012164012 -0.04542002 -0.064126156 -0.022905363
0.017191198 0.092225544 0.062292956 0.067103654 0.0028865363 0.002465614 -0.0537164 -0.016149994
0.06969437 0.08617714 0.03252054 0.067671165 0.05793959 -0.09410857 -0.010429564 0.026119066
-0.14120974 -0.010552593 0.02396863 -0.01149249 -0.04650413 -0.01597037 -0.06924622 -0.29662833
-0.27852562 -0.12536103 -0.08080356 -0.018622844 -0.034479737 -0.050444674 -0.08253068 -0.019679844
-0.09676106 0.024759594 -0.008112363 -0.010016128 -0.0073346673 -0.06599904 -0.035396587 0.005098685
0.057356127 -0.020512715 -0.037357494 0.033118244 -0.0011186289 -0.06263792 0.087155 0.008993226
0.029424284 -0.015785648 0.06644026 0.025598375 0.0074628936 0.06296096 0.059594106 0.04065767
-0.02376484 0.060965158 0.02283071 0.007887196 -0.037271872 0.029989652 -0.010781307 -0.013088005
0.034570545 0.062037002 0.007947036 -0.08631126 -0.12071301 -0.068135105 -0.005285494 0.032524884
-0.028658304 -0.0333615 -0.15177514 -0.13819626 -0.040048886 -0.0023843765 -0.036038693 0.013449932
-0.008068522 0.056265417 0.03921966 -0.0034298587 -0.036028147 0.0027268494 -0.01853661 -0.028712284
00000000: 3446 b63b 63d0 6ebd 3405 cebb 220d 3ebd
00000010: c6b6 95bd 53ba 83bc a094 26bc d4a0 923a
00000020: 3e38 d7bd 4193 ae3c cfff 87bd bbc2 35bd
00000030: aa09 85bd d343 4fbb 6c13 89bd 52bc 943d
00000040: e77d e33c 0ec8 573c 1273 04bd ed2f 08bd
00000050: c870 55bd fdee 073d 4907 ec3d af50 653d
00000060: c8d9 4ebd 0e4c a2bc 3cbb 243d 55b6 bc3d
00000070: 55c3 7b3b a7ee e23c 9ddb 38bd b463 33bd
00000080: d940 703d 2e64 5cbc 6315 4f3d b5f0 d0bc
00000090: 9034 c83c 1a12 0fbc 47db 2a3c b8be 133c
000000a0: 698f c23c 3a97 783c 83d7 c7bd 7c73 2abd
000000b0: 42c6 6bbd f7cc e0bd 7b36 bdbd 08e8 6cbd
000000c0: 226d eebc 0266 e0bc a1d5 99bd 3e77 103d
000000d0: 1360 80bc 9df6 113d 905c 6d3d 0c5b 7f3c
000000e0: a2f8 8dbc 79d9 54bc 349c bdbb a5a1 413c
000000f0: 4a67 093d 980b c73c 3a4d 833d 81a4 923c
00000100: eea4 2abd 3bc3 f5bc 7d3d 4dbc 6703 1dbd
00000110: 6eba 9cba dd21 a439 464c 62bd 7fc5 82bc
00000120: a7c1 8839 b098 09be fd20 0cbe ea73 653c
00000130: 8061 e53c 791f 8abb 00b5 4fbc 27ca 543d
00000140: 181d 4dbc 341f 14bb a0e9 76bc 2b1c a3bd
00000150: 9079 8cbd 934c 433c 5a36 263c 7971 ba3b
00000160: 8074 1a3d d4eb fd3b e4c4 5bbc 8dbb bb3b
00000170: 7ea0 5b3d 18c2 093d 521d f7bd f503 d3bd
00000180: 5381 71bd 591a 36bd 1faa 54bd 0d74 12be
00000190: 4f56 a13c cda0 12bd c6de 8cbd d6dd 29bd
000001a0: e900 c2bb cbca 2abc 2dcb 703d a0fc 23bd
000001b0: e0bf 53bc acc1 8a3d 3ecc 163d b9d4 deba
000001c0: b8fb 0a3c b38a 07bd f457 40bd bf72 763d
000001d0: 6420 9a3d 58af 643c 3ca8 8abc 6122 95bd
000001e0: 9da6 7c3d 41e6 023d 75d0 99bc e9a4 24bd
000001f0: 1be8 b63d c964 843d dbfb 9a3d 310d c1bc
00000200: 5450 033d 4c48 88bc ec2a 66bd 5e9f a0bc
00000210: 0f65 123d 91d0 383c 1627 e13b ce6e d2ba
00000220: 7d5a 373d 5367 dfbb 4c47 fdbc 1685 e7bc
00000230: f9e6 3a3c 8541 1d3b 25ef b0bb 7483 c93b
00000240: 4801 9dba fb25 20bd 8e92 34bd 6bb7 1dbd
00000250: 8762 84bc 3d50 83bd 69d3 25bd e9cf 24bd
00000260: 3d8f 7abd 60b1 08bc 4136 a6bc 3ab5 bfbd
00000270: dffa e6bc 25aa 72bc 9a41 2bbd 7b69 a6bd
00000280: 4517 6bbd cf47 bdbd a6e8 203d c85a e3bc
00000290: a76f 9fba 580a 3abd 9354 83bd 07a4 bbbc
000002a0: 8ed4 8c3c bfe0 bc3d e626 7f3d a46d 893d
000002b0: 0b2c 3d3b 2396 213b ba05 5cbd fe4c 84bc
000002c0: ecbb 8e3d a47d b03d 4234 053d 2e97 8a3d
000002d0: 1052 6d3d febb c0bd c3e0 2abc a7f7 d53c
000002e0: 4999 10be c8e4 2cbc dc59 c43c ff4a 3cbc
000002f0: 1d7b 3ebd 4bd4 82bc f6d0 8dbd abdf 97be
00000300: e99a 8ebe a45e 00be 567c a5bd ef8e 98bc
00000310: a03a 0dbd 139f 4ebd d805 a9bd a037 a1bc
00000320: aa2a c6bd a2d4 ca3c b7e9 04bc b01a 24bc
00000330: a657 f0bb 812a 87bd 03fc 10bd df12 a73b
00000340: 42ee 6a3d 480a a8bc 2c04 19bd ffa6 073d
00000350: f59e 92ba 4f48 80bd 527e b23d 5358 133c
00000360: 320b f13c e750 81bc d511 883d afb3 d13c
00000370: 4a8b f43b adf1 803d f318 743d a888 263d
00000380: 7bae c2bc 9ab6 793d 7807 bb3c 4c39 013c
00000390: 64aa 18bd dcac f53c 14a4 30bc 126f 56bc
000003a0: d899 0d3d 831a 7e3d 4934 023c f5c3 b0bd
000003b0: 6238 f7bd 6b8a 8bbd f031 adbb d038 053d
000003c0: d2c4 eabc 11a6 08bd f16a 1bbe 5283 0dbe
000003d0: 4d0a 24bd 3343 1cbb 4f9d 13bd 1b5d 5c3c
000003e0: d631 04bc 9176 663d cba4 203d 7bc7 60bb
000003f0: 4092 13bd f1b4 323b 17da 97bc 0636 ebbc

fc.bias f4 [10]
0.027059216 0.07132908 0.007684534 -0.05022529 -0.0372494 0.017211838 -0.0072175055 -0.009445073
-0.07291518 0.024425423
00000000: 4aab dd3c fb14 923d 8bce fb3b 09b9 4dbd
00000010: d492 18bd d7ff 8c3c d380 ecbb 82bf 1abc
00000020: 8e54 95bd d317 c83c
