cnn_best_model.pth (torch, 84750 bytes, 6 tensors)

conv1.weight f4 [16, 1, 3, 3]
0.3288011 0.16189359 -0.32059488 0.32836315 -0.2944755 -0.050870683 0.13051277 -0.22992416
0.10589565 0.4536596 0.7549229 0.69090664 0.70723593 0.7178715 0.26829064 0.40075558
-0.00028256467 0.39856693 -0.18223406 0.05457588 0.44022614 -0.25279918 0.3210571 0.1510061
-0.22827998 0.31070784 0.3546722 0.27552265 -0.23708887 -0.25043872 0.45780912 -0.28101367
-0.13043268 0.3258329 -0.26893196 -0.042927075 -0.077052094 -0.29736343 -0.26159784 0.21264285
-0.16698788 -0.07899566 -0.19786176 0.21825437 -0.122939706 -0.017378643 0.39393458 -0.22117119
0.3414121 0.29564518 -0.19289294 0.19053316 -0.1367142 -0.34109336 0.12977536 -0.12539336
0.20955989 0.6292469 0.6906116 0.45204034 0.6569384 0.30317158 0.12673609 -0.08329118
-0.21343876 -0.22522575 0.25298473 0.08845978 0.057390377 -0.2964217 -0.29493824 -0.11819649
-0.0072809923 0.42585352 0.20109913 0.4714352 0.22519907 0.29577622 0.5608897 0.07050997
0.40727615 0.052219808 0.539155 0.53989565 0.023725284 0.9230912 0.9419045 0.51640993
0.6560197 0.82806164 0.011578773 -0.011936425 0.0671747 -0.09637107 -0.12843035 -0.030923683
0.036043085 0.25463304 -0.17371732 -0.33624738 0.12412169 -0.3258904 -0.022705194 -0.08032277
0.043289106 -0.14486834 0.107065104 0.08632035 0.5565736 0.37335154 0.6767564 0.4986994
0.7923904 0.32739523 0.24616818 -0.03436321 0.1053604 0.42759582 0.52927035 -0.06397473
-0.14630263 0.22892779 0.23476595 -0.48420334 -0.4554857 0.11641821 -0.13000868 0.20182975
-0.018917998 0.32569858 0.058609977 -0.013557666 -0.14818251 -0.30432755 -0.32830137 -0.16675274
-0.023074513 -0.2730786 0.18893726 -0.26995507 0.26537573 0.111803465 -0.117622405 -0.052713983
00000000: 9e58 a83e 6fc7 253e 0325 a4be 371f a83e
00000010: 7ec5 96be c75d 50bd 24a5 053e 3d71 6bbe
00000020: d2df d83d 1246 e83e a142 413f 42df 303f
00000030: 6a0d 353f 6dc6 373f 645d 893e d62f cd3e
00000040: 3025 94b9 f710 cc3e 919b 3abe f58a 5f3d
00000050: 5265 e13e e56e 81be 9961 a43e 58a1 1a3e
00000060: 3ac2 69be 1915 9f3e 9897 b53e 4e11 8d3e
00000070: 6dc7 72be 8139 80be f565 ea3e 06e1 8fbe
00000080: 2590 05be 92d3 a63e 73b1 89be 4dd4 2fbd
00000090: 7dcd 9dbd 0540 98be 27f0 85be 0cbf 593e
000000a0: dffe 2abe 7ac8 a1bd 469c 4abe 137e 5f3e
000000b0: d0c7 fbbd a85d 8ebc cbb1 c93e b37a 62be
000000c0: 91cd ae3e ce5e 973e ba85 45be 201b 433e
000000d0: cffe 0bbe caa3 aebe d5e3 043e 1e67 00be
000000e0: de96 563e 5316 213f eccb 303f d571 e73e
000000f0: 1d2d 283f 4e39 9b3e 1bc7 013e 9194 aabd
00000100: b18f 5abe 94a1 66be 3787 813e 672a b53d
00000110: 2c12 6b3d 96c4 97be 2502 97be 0011 f2bd
00000120: 6495 eebb 7909 da3e eeec 4d3e f45f f13e
00000130: 969a 663e fb6f 973e 7896 0f3f 8867 903d
00000140: 8086 d03e 70e4 553d 1006 0a3f 9a36 0a3f
00000150: 875b c23c b44f 6c3f a720 713f 7133 043f
00000160: e8f0 273f d9fb 533f e5b4 3d3c ff90 43bc
00000170: e492 893d 325e c5bd 3f83 03be aa53 fdbc
00000180: eaa1 133d 435f 823e f4e2 31be 9e28 acbe
00000190: 8333 fe3d 1bdb a6be 3e00 babc 4480 a4bd
000001a0: eb4f 313d 5e58 14be f344 db3d b9c8 b03d
000001b0: 9c7b 0e3f ef27 bf3e e83f 2d3f 8755 ff3e
000001c0: 19da 4a3f 59a0 a73e 8313 7c3e 70c0 0cbd
000001d0: 32c7 d73d d7ed da3e 437e 073f 2f05 83bd
000001e0: 5bd0 15be 0c6c 6a3e 7c66 703e 80e9 f7be
000001f0: 6c35 e9be ac6c ee3d ff20 05be 75ac 4e3e
00000200: ebf9 9abc f7c1 a63e 0411 703d f920 5ebc
00000210: 28bd 17be d2d0 9bbe 1e17 a8be 3bc1 2abe
00000220: c306 bdbc f5d0 8bbe c578 413e 8d37 8abe
00000230: 54df 873e 37f9 e43d 04e4 f0bd 9eea 57bd

conv1.bias f4 [16]
-0.14128678 -0.00013586372 -0.067336135 0.2223868 -0.014353075 -0.17648768 -0.0002473 0.41083786
-0.020030996 -0.00013595789 -0.08968365 0.14935869 0.055518296 0.10497926 -0.2742324 -0.2290186
00000000: 7bad 10be a476 0eb9 87e7 89bd 5eb9 633e
00000010: 2929 6bbc 30b9 34be 0ba8 81b9 5759 d23e
00000020: 0b18 a4bc eb8f 0eb9 10ac b7bd 7cf1 183e
00000030: 2767 633d 5eff d63d 3068 8cbe da83 6abe

conv2.weight f4 [32, 16, 3, 3]
-0.07029549 0.05524099 0.02690195 -0.081832305 0.008726765 -0.061162334 -0.07546753 -0.068273
-0.017968563 -0.08401375 0.0071516046 -0.08063816 0.039656088 -0.075620495 0.008690377 -0.0783319
0.08313028 0.023499638 -0.06260732 0.05019619 -0.0464672 -0.04567739 0.018852381 0.08203482
-0.003087556 -0.063383386 -0.041634962 -0.06629784 0.039890237 0.07827059 0.082998455 -0.021160733
-0.015154718 -0.009370552 0.07464088 -0.01929806 0.036500297 -0.048921052 0.0377389 0.076814294
-0.07535754 -0.07272792 0.0501782 -0.029526887 0.04231504 -0.05803234 -0.08040923 -0.042721715
0.068454154 0.0060580075 0.026424399 -0.06237604 -0.035975143 0.03189567 -0.039163616 0.060859006
0.00715808 -0.05328885 -0.0870447 0.03828326 -0.033856224 -0.05463799 -0.0076461546 0.04142447
0.018698825 -0.05159842 0.044466686 0.005349389 0.027963558 -0.048949044 0.011826784 0.04182563
-0.06911435 -0.062112942 0.029980771 -0.046890195 0.046918377 0.08918436 -0.021170558 0.07312921
-0.031206112 -0.070443965 -0.0767576 -0.014413845 -0.015761934 0.0015169577 -0.038692866 0.051598553
0.1135929 0.121105395 0.07242527 0.04400071 -0.05158819 0.06511876 0.07356728 -0.029171435
0.03858762 -0.05083037 0.051826514 -0.065848626 -0.028867736 -0.0406816 -0.009077011 -0.035433598
0.05376263 0.03936225 -0.05635307 0.060228262 0.026805488 -0.032339387 -0.05161635 -0.0759999
0.054489654 0.0030371659 -0.0558749 -0.05305212 0.08569765 0.059641037 -0.051544663 -0.031076735
-0.064209715 0.043972198 -0.0049326867 -0.061347548 0.07948098 -0.01687849 -0.082765654 0.08010067
0.074332684 -0.06258183 -0.0016720556 0.07602234 -0.047110606 0.069100976 -0.05259288 0.05018496
0.012093383 0.027873704 0.015565849 0.05060209 -0.06230864 -0.070449084 0.046176143 0.035212517
-0.030145334 -0.012096432 0.05190185 0.10161698 0.10072265 -0.02096508 -0.0065086344 -0.020982902
-0.06705972 0.04475765 0.12634097 -0.09005669 0.15055598 -0.05888471 -0.048064988 0.08233554
-0.1300912 -0.12737179 0.040455252 0.0061005265 0.032773934 -0.0013230916 0.035457116 0.056739423
0.013534989 -0.038977038 0.092758976 -0.07543229 0.050091557 0.062805615 0.0749349 0.05556866
0.04905869 -0.051069595 0.08335847 0.028982878 0.024871258 0.043244965 0.044168133 0.041492667
0.018941147 0.0083006965 0.024811624 -0.0385429 0.02244184 0.051649403 0.044575978 -0.039862804
-0.0139953345 0.091002725 0.0737518 -0.015200837 0.024768488 0.06358997 0.07394524 -0.025513742
0.0033719891 0.072477706 -0.016366675 -0.008364628 0.014209234 -0.09685251 0.014889386 0.013301221
0.04673913 0.052472815 -0.03126414 -0.069030434 0.0018254988 0.06614689 0.042437706 0.030957885
0.090118505 -0.012472756 -0.050748814 0.13194758 -0.07901754 -0.11047846 0.088237055 0.021408375
0.039967317 0.1879101 -0.053115617 -0.14211309 0.07084787 -0.10121381 -0.046340164 0.027716277
-0.20647697 0.043330956 -0.012313846 -0.06285654 -0.077604204 -0.056027345 -0.00058315473 -0.028999163
0.07370442 0.018147914 -0.013025877 0.011462677 -0.032084428 -0.026532168 -0.009102589 -0.023716582
-0.07572768 0.072073616 0.062480148 0.0034636501 0.15694681 0.045467846 -0.032364912 0.17392981
00000000: 15f7 8fbd 6044 623d 7a61 dc3c b297 a7bd
00000010: b5fa 0e3c 5b85 7abd b88e 9abd b7d2 8bbd
00000020: cf32 93bc 670f acbd 0258 ea3b 9f25 a5bd
00000030: 6c6e 223d ebde 9abd 1562 0e3c 7a6c a0bd
00000040: 3540 aa3d 5082 c03c 4438 80bd 859a 4d3d
00000050: 6454 3ebd 3718 3bbd 4f70 9a3c df01 a83d
00000060: 9858 4abb 26cf 81bd 6c89 2abd 29c7 87bd
00000070: f263 233d 554c a03d 18fb a93d 4659 adbc
00000080: 7f4b 78bc f286 19bc 51dd 983d f716 9ebc
00000090: 5681 153d 7161 48bd 1b94 1a3d d050 9d3d
000000a0: 0e55 9abd 60f2 94bd a887 4d3d 5fe2 f1bc
000000b0: 8952 2d3d 52b3 6dbd 98ad a4bd f7fc 2ebd
000000c0: b131 8c3d 4082 c63b fb77 d83c 057e 7fbd
000000d0: ac5a 13bd 09a5 023d 076a 20bd 4b47 793d
000000e0: 548e ea3b 6945 5abd 7e44 b2bd e8ce 1c3d
000000f0: d3ac 0abd 16cc 5fbd 988c fabb b4ac 293d
00000100: 472e 993c dd58 53bd b322 363d ed49 af3b
00000110: d513 e53c cb7e 48bd 21c5 413c 5a51 2b3d
00000120: d38b 8dbd 246a 7ebd 3c9a f53c ef0f 40bd
00000130: 7c2d 403d 4aa6 b63d e16d adbc c4c4 953d
00000140: f6a3 ffbc ed44 90bd 1733 9dbd 0c28 6cbc
00000150: 2c1f 81bc a7d4 c63a 697c 1ebd 0159 533d
00000160: 65a3 e83d 1b06 f83d b353 943d 173a 343d
00000170: 234e 53bd fc5c 853d 71aa 963d eff8 eebc
00000180: 0d0e 1e3d 8233 50bd 0a48 543d a5db 86bd
00000190: 087c ecbc c0a1 26bd beb7 14bc d222 11bd
000001a0: 3436 5c3d 503a 213d 7ad2 66bd e9b1 763d
000001b0: 2f97 db3c 4e76 04bd aa6b 53bd d6a5 9bbd
000001c0: 8b30 5f3d 300b 473b 14dd 64bd 2e4d 59bd
000001d0: 4082 af3d 294a 743d 7f20 53bd a394 febc
000001e0: 6280 83bd 311c 343d 60a2 a1bb 9147 7bbd
000001f0: edc6 a23d c244 8abc 0a81 a9bd d20b a43d
00000200: bc3b 983d e72a 80bd e028 dbba 9ab1 9b3d
00000210: 0df7 40bd d084 8d3d a26b 57bd bf8e 4d3d
00000220: 5323 463c 6557 e43c e707 7f3c 2344 4f3d
00000230: 5837 7fbd 9c47 90bd 3223 3d3d 003b 103d
00000240: 59f3 f6bc 1d30 46bc 0997 543d 901c d03d
00000250: ad47 ce3d f6be abbc 6246 d5bb 56e4 abbc
00000260: 9b56 89bd cc53 373d 875f 013e a46f b8bd
00000270: 592b 1a3e 1831 71bd cbdf 44bd 899f a83d
00000280: a136 05be c06d 02be 68b4 253d ede6 c73b
00000290: f63d 063d 966b adba 7b3b 113d 9967 683d
000002a0: dcc1 5d3c 63a6 1fbd 6bf8 bd3d 3f7c 9abd
000002b0: ce2c 4d3d 3ba0 803d 7877 993d f79b 633d
000002c0: c4f1 483d 5a2e 51bd d8b7 aa3d 806d ed3c
000002d0: cfbe cb3c a221 313d a5e9 343d 37f4 293d
000002e0: 772a 9b3c a5ff 073c bf41 cb3c 29df 1dbd
000002f0: f3d7 b73c 538e 533d 4d95 363d 2e47 23bd
00000300: b04c 65bc a35f ba3d 2f0b 973d ee0c 79bc
00000310: 49e7 ca3c 753b 823d 9a70 973d 3202 d1bc
00000320: 97fc 5c3b 316f 943d 6813 86bc cb0b 09bc
00000330: d9cd 683c 9c5a c6bd 9cf2 733c 5ded 593c
00000340: 8871 3f3d bced 563d d40e 00bd d45f 8dbd
00000350: 9345 ef3a 0578 873d 29d3 2d3d 649b fd3c
00000360: 0d90 b83d 885a 4cbc fddd 4fbd 441d 073e
00000370: f3d3 a1bd 8842 e2bd a1b5 b43d 9e60 af3c
00000380: c5b4 233d 816b 403e c38f 59bd 1886 11be
00000390: b018 913d 3049 cfbd 2fcf 3dbd 3f0d e33c
000003a0: b36e 53be cd7b 313d 03c0 49bc eeba 80bd
000003b0: f4ee 9ebd ee7c 65bd dade 18ba a78f edbc
000003c0: 58f2 963d efaa 943c 7d6a 55bc f4cd 3b3c
000003d0: f66a 03bd fd59 d9bc 0723 15bc 4749 c2bc
000003e0: 1d17 9bbd 559b 933d 2feb 7f3d 68fe 623b
000003f0: aab6 203e 7e3c 3a3d 1291 04bd a81a 323e

conv2.bias f4 [32]
-0.05973398 -0.014716775 0.033385333 0.051659193 0.07499169 0.0016166918 -0.039388973 0.09769247
0.02802121 -0.065271884 0.029867878 0.122425005 0.058021087 -0.032541435 0.02986054 -0.08298579
-0.057830248 -0.051254675 -0.09593423 -0.019562837 -0.06536642 0.025892269 -0.023568593 0.004214254
-0.020557532 -0.012134769 -0.056019608 -0.052777894 -0.014086608 0.009927888 0.05952248 -0.0020138922
00000000: 9eab 74bd a11e 71bc 0fbf 083d 9798 533d
00000010: 3e95 993d 2de7 d33a 5556 21bd fd12 c83d
00000020: bd8c e53c 44ad 85bd 7bad f43c f6b9 fa3d
00000030: 85a7 6d3d 2b4a 05bd 179e f43c 74f4 a9bd
00000040: 69df 6cbd 6cf0 51bd 2a79 c4bd 3e42 a0bc
00000050: d4de 85bd 061c d43c ec12 c1bc ba17 8a3b
00000060: 4568 a8bc e9d0 46bc d174 65bd a22d 58bd
00000070: 84cb 66bc 95a8 223c d8cd 733d 81fb 03bb

fc.weight f4 [10, 1568]
-0.02297319 -0.0173043 0.011803503 -0.011624117 0.0071025323 -0.017201299 -0.01537967 0.0013450827
0.023874262 -0.020611802 0.012063351 0.0033877627 0.002160784 -0.0119050825 -0.017331187 0.0008980205
-0.009790421 0.02758974 -0.022169378 0.0056472486 0.016930588 -0.013689728 0.0031305985 -0.0059090974
0.0057877204 -0.020452483 -0.0012411387 -0.0007016421 0.023706587 -0.030548124 0.015776724 -0.026208298
0.010820713 -0.008492173 0.0045667915 -0.014633628 -0.02452078 0.012587634 -0.022777176 -0.01941338
-0.021265773 0.025143027 0.023892036 -0.0042363405 0.015899567 -0.00041381514 -0.0010290208 0.018746285
-0.017133545 -0.0036026875 0.017477198 -0.00859251 -0.023158541 0.0010957747 -0.0018277257 -0.014031604
-0.02411707 -0.008121224 0.005005829 0.02260503 -0.01248307 -0.039384175 -0.0079327775 0.00479564
0.022847235 -0.0040307255 -0.0367674 -0.013673825 -0.014346077 0.024681395 0.028868923 0.005554005
0.050428316 0.050958876 0.013260722 0.015862046 0.012872338 -0.025316438 0.02028868 0.051369175
0.06315245 0.021075187 0.025605168 -0.004985891 -0.016253311 0.020436274 0.012457994 -0.04126739
0.015719494 -0.0023139534 0.0134416325 0.014793856 -0.023138657 0.0031020986 -0.050883714 -0.012823786
0.011698885 0.0060601276 -0.019484075 -0.00039420652 0.02696173 -0.008356274 -0.020041505 -0.005052593
0.008634323 0.0012633696 0.024466777 -0.03317429 0.069038965 0.049340963 0.020010447 0.008698087
0.00299089 -0.015499891 0.036910523 0.069194324 0.11418959 0.039427765 0.015487588 0.047107264
0.023027716 -0.0011566543 -0.09479736 -0.031636424 0.014874906 0.020666987 0.022104764 0.039536383
0.04210685 -0.05470006 -0.033618618 0.032759584 0.033206612 0.03251009 -0.009431498 0.052039657
-0.003395861 -0.04015263 -0.052072212 -0.003311581 -0.018035058 -0.017267447 0.013906249 0.013389415
-0.013738441 -0.037417077 0.013839183 0.0039198124 0.0056853956 -0.0017046895 -0.007308555 -0.05183672
-0.035891995 -0.013523395 -0.024829425 -0.0033854877 -0.02219698 0.02992287 0.036277715 -0.008734976
-0.019998338 -0.012603792 0.0007048881 0.09613217 -0.022134138 9.285513e-05 -0.009287263 0.030058028
0.0023805234 0.06224956 0.1257707 -0.1610618 -0.058275405 0.003451929 0.015626872 -0.0003737106
-0.020535775 0.030979829 -0.0146390395 0.12511128 0.008899381 -0.04198518 -0.0034865271 -0.033311978
-0.008880473 -0.013669133 -0.011887088 -0.021151206 -0.0006033422 -0.0038445743 0.007324007 -0.027333863
-0.020993525 -0.0055946973 -0.014369761 0.021952149 -0.021682989 0.0058530117 0.0066156285 -0.009382458
0.020527042 -0.011521036 -0.009652984 0.014571315 0.019492432 0.013540679 -0.028506901 -0.037409823
-0.031843286 -0.011932319 0.017982736 -0.024627324 0.005711872 0.015503126 -0.045843124 -0.024773303
-0.009333742 -0.011864269 0.015861776 0.010176037 0.046448275 0.024376476 0.0045084837 0.014227102
-0.0041266438 -0.005388343 0.039822076 0.07368695 -0.001977664 0.027549647 0.033076905 0.003049577
-0.033251554 -0.0075675393 0.024429383 0.0046736333 0.0006227405 0.018503014 0.0017207345 -0.016849605
-0.022385867 -0.01751785 -0.013615524 0.009047015 0.012267916 0.013258646 -0.012115111 -0.01733529
-0.029824859 -0.019819945 0.004015277 -0.010963222 0.018077515 -0.013144724 -0.010694299 -0.03640569
00000000: 4532 bcbc bfc1 8dbc 7b63 413c 1573 3ebc
00000010: 5cbc e83b bde9 8cbc 03fb 7bbc 7c4d b03a
00000020: f593 c33c 15da a8bc 5da5 453c 3a05 5e3b
00000030: f19b 0d3b 890d 43bc 22fa 8dbc 2369 6b3a
00000040: 0168 20bc e103 e23c 8e9c b5bc 8e0c b93b
00000050: 04b2 8a3c e24a 60bc ba2a 4d3b 1aa1 c1bb
00000060: eba6 bd3b f78b a7bc b4ad a2ba 67ee 37ba
00000070: 5134 c23c 0f40 fabc 303e 813c c9b2 d6bc
00000080: 5c49 313c c122 0bbc 06a5 953b e2c1 6fbc
00000090: cedf c8bc 5d3c 4e3c 3397 babc cf08 9fbc
000000a0: 8f35 aebc c0f8 cd3c 3bb9 c33c 00d1 8abb
000000b0: cf3f 823c 54f5 d8b9 35e0 86ba cf91 993c
000000c0: a65b 8cbc 111b 6cbb 572c 8f3c 99c7 0cbc
000000d0: fbb6 bdbc 19a0 8f3a 4c90 efba d0e4 65bc
000000e0: 2991 c5bc e20e 05bc f007 a43b 2f2e b93c
000000f0: ca85 4cbc 4d51 21bd 7bf8 01bc be24 9d3b
00000100: 202a bb3c 2d14 84bb 6a99 16bd 2e08 60bc
00000110: cf0b 6bbc a330 ca3c 857e ec3c 5ffe b53b
00000120: ec8d 4e3d 41ba 503d 8043 593c 1ff1 813c
00000130: 80e6 523c 6b64 cfbc 7234 a63c 7c68 523d
00000140: 1256 813d dfa5 ac3c eec1 d13c af60 a3bb
00000150: aa25 85bc f969 a73c 9d1c 4c3c ff07 29bd
00000160: 2bc6 803c b2a5 17bb 4b3a 5c3c ee61 723c
00000170: 488d bdbc 944c 4b3b 716b 50bd db1a 52bc
00000180: aeac 3f3c 0994 c63b 119d 9fbc 81ad ceb9
00000190: d9de dc3c c1e8 08bc 152e a4bc 3990 a5bb
000001a0: fa76 0d3c a697 a53a 8d6e c83c c4e1 07bd
000001b0: 4d64 8d3d c019 4a3d f3ec a33c 6c82 0e3c
000001c0: cf02 443b 41f3 7dbc 7d2f 173d c1b5 8d3d
000001d0: 3bdc e93d 027f 213d a7bf 7d3c 8cf3 403d
000001e0: 9fa4 bc3c e19a 97ba 1e25 c2bd 3295 01bd
000001f0: e1b5 733c d04d a93c 0d15 b53c e7f0 213d
00000200: 3b78 2c3d 2c0d 60bd adb3 09bd ea2e 063d
00000210: a803 083d 4d29 053d 9286 1abc 8927 553d
00000220: 188d 5ebb 1677 24bd ac49 55bd 1c07 59bb
00000230: 42be 93bc 7674 8dbc 09d7 633c 475f 5b3c
00000240: 3317 61bc a642 19bd bebd 623c c571 803b
00000250: 8e4c ba3b e36f dfba 9a7c efbb be52 54bd
00000260: 7c03 13bd 3b91 5dbc 1467 cbbc 0fdf 5dbb
00000270: 71d6 b5bc cf20 f53c f197 143d 251d 0fbc
00000280: 8ed3 a3bc 2380 4ebc 3dc8 383a f1e0 c43d
00000290: a752 b5bc 38bb c238 9b29 18bc 413c f63c
000002a0: 8e02 1c3b 65f9 7e3d 09ca 003e 62ed 24be
000002b0: 31b2 6ebd c239 623b ed03 803c 96ee c3b9
000002c0: a43a a8bc 69c9 fd3c 95d8 6fbc 2c1d 003e
000002d0: b6ce 113c a7f8 2bbd 387e 64bb 2472 08bd
000002e0: 677f 11bc 80f4 5fbc 10c2 42bc 4b45 adbc
000002f0: 9c29 1eba 41f5 7bbb 39fe ef3b 44eb dfbc
00000300: 9dfa abbc b953 b7bb 256f 6bbc fed4 b33c
00000310: 86a0 b1bc 9fca bf3b eac7 d83b e2b8 19bc
00000320: 5428 a83c bac2 3cbc 8d27 1ebc 86bc 6e3c
00000330: 98ae 9f3c b9d9 5d3c 4e87 e9bc 0b3b 19bd
00000340: 1b6e 02bd c67f 43bc 8850 933c 3ebf c9bc
00000350: a82a bb3b d300 7e3c 00c6 3bbd 62f1 cabc
00000360: 8dec 18bc 5a62 42bc 8ef0 813c 65b9 263c
00000370: 8c40 3e3d 2db1 c73c e7bb 933b ca18 693c
00000380: cc38 87bb b290 b0bb 791c 233d 2fe9 963d
00000390: b29b 01bb ccaf e13c a67b 073d 69db 473b
000003a0: c832 08bd 1ff9 f7bb 2120 c83c 4725 993b
000003b0: 683f 233a a293 973c 458a e13a 2f08 8abc
000003c0: 9162 b7bc 9881 8fbc a613 5fbc ee39 143c
000003d0: 5fff 483c cb3a 593c 757e 46bc bd02 8ebc
000003e0: 4353 f4bc 705d a2bc 9692 833b 169f 33bc
000003f0: 4c17 943c f85c 57bc 2437 2fbc 221e 15bd

fc.bias f4 [10]
-0.033203304 0.032874018 -0.0005446927 -0.05328853 -0.02504207 0.034772355 -0.033486716 0.011513863
-0.029576214 -0.0059351013
00000000: 3000 08bd e8a6 063d b5c9 0eba 1345 5abd
00000010: 0725 cdbc 756d 0e3d 5e29 09bd a4a4 3c3c
00000020: d149 f2bc 3d7b c2bb
